…
snapshot_prefix: "vgg16_faster_rcnn"
average_loss: 100
iter_size: 2
I0419 18:00:10.250107  5826 solver.cpp:81] Creating training net from train_net file: models/pascal_voc/VGG16/faster_rcnn_end2end/train.prototxt
I0419 18:00:10.251549  5826 net.cpp:49] Initializing net from parameters: 
name: "VGG_ILSVRC_16_layers"
state {
  phase: TRAIN
}
layer {
  name: "input-data"
  type: "Python"
  top: "data"
  top: "im_info"
  top: "gt_boxes"
  python_param {
    module: "roi_data_layer.layer"
    layer: "RoIDataLayer"
    param_str: "\'num_classes\': 44"
  }
}
layer {
  name: "conv1_1"
  type: "Convolution"
  bottom: "data"
  top: "conv1_1"
  param {
    lr_mult: 0
    decay_mult: 0
  }
  param {
    lr_mult: 0
    decay_mult: 0
  }
  convolution_param {
    num_output: 64
    pad: 1
    kernel_size: 3
  }
}
layer {
  name: "relu1_1"
  type: "ReLU"
  bottom: "conv1_1"
  top: "conv1_1"
}
layer {
  name: "conv1_2"
  type: "Convolution"
  bottom: "conv1_1"
  top: "conv1_2"
  param {
    lr_mult: 0
    decay_mult: 0
  }
  param {
    lr_mult: 0
    decay_mult: 0
  }
  convolution_param {
    num_output: 64
    pad: 1
    kernel_size: 3
  }
}
layer {
  name: "relu1_2"
  type: "ReLU"
  bottom: "conv1_2"
  top: "conv1_2"
}
layer {
  name: "pool1"
  type: "Pooling"
  bottom: "conv1_2"
  top: "pool1"
  pooling_param {
    pool: MAX
    kernel_size: 2
    stride: 2
  }
}
layer {
  name: "conv2_1"
  type: "Convolution"
  bottom: "pool1"
  top: "conv2_1"
  param {
    lr_mult: 0
    decay_mult: 0
  }
  param {
    lr_mult: 0
    decay_mult: 0
  }
  convolution_param {
    num_output: 128
    pad: 1
    kernel_size: 3
  }
}
layer {
  name: "relu2_1"
  type: "ReLU"
  bottom: "conv2_1"
  top: "conv2_1"
}
layer {
  name: "conv2_2"
  type: "Convolution"
  bottom: "conv2_1"
  top: "conv2_2"
  param {
    lr_mult: 0
    decay_mult: 0
  }
  param {
    lr_mult: 0
    decay_mult: 0
  }
  convolution_param {
    num_output: 128
    pad: 1
    kernel_size: 3
  }
}
layer {
  name: "relu2_2"
  type: "ReLU"
  bottom: "conv2_2"
  top: "conv2_2"
}
layer {
  name: "pool2"
  type: "Pooling"
  bottom: "conv2_2"
  top: "pool2"
  pooling_param {
    pool: MAX
    kernel_size: 2
    stride: 2
  }
}
layer {
  name: "conv3_1"
  type: "Convolution"
  bottom: "pool2"
  top: "conv3_1"
  param {
    lr_mult: 1
  }
  param {
    lr_mult: 2
  }
  convolution_param {
    num_output: 256
    pad: 1
    kernel_size: 3
  }
}
layer {
  name: "relu3_1"
  type: "ReLU"
  bottom: "conv3_1"
  top: "conv3_1"
}
layer {
  name: "conv3_2"
  type: "Convolution"
  bottom: "conv3_1"
  top: "conv3_2"
  param {
    lr_mult: 1
  }
  param {
    lr_mult: 2
  }
  convolution_param {
    num_output: 256
    pad: 1
    kernel_size: 3
  }
}
layer {
  name: "relu3_2"
  type: "ReLU"
  bottom: "conv3_2"
  top: "conv3_2"
}
layer {
  name: "conv3_3"
  type: "Convolution"
  bottom: "conv3_2"
  top: "conv3_3"
  param {
    lr_mult: 1
  }
  param {
    lr_mult: 2
  }
  convolution_param {
    num_output: 256
    pad: 1
    kernel_size: 3
  }
}
layer {
  name: "relu3_3"
  type: "ReLU"
  bottom: "conv3_3"
  top: "conv3_3"
}
layer {
  name: "pool3"
  type: "Pooling"
  bottom: "conv3_3"
  top: "pool3"
  pooling_param {
    pool: MAX
    kernel_size: 2
    stride: 2
  }
}
layer {
  name: "conv4_1"
  type: "Convolution"
  bottom: "pool3"
  top: "conv4_1"
  param {
    lr_mult: 1
  }
  param {
    lr_mult: 2
  }
  convolution_param {
    num_output: 512
    pad: 1
    kernel_size: 3
  }
}
layer {
  name: "relu4_1"
  type: "ReLU"
  bottom: "conv4_1"
  top: "conv4_1"
}
layer {
  name: "conv4_2"
  type: "Convolution"
  bottom: "conv4_1"
  top: "conv4_2"
  param {
    lr_mult: 1
  }
  param {
    lr_mult: 2
  }
  convolution_param {
    num_output: 512
    pad: 1
    kernel_size: 3
  }
}
layer {
  name: "relu4_2"
  type: "ReLU"
  bottom: "conv4_2"
  top: "conv4_2"
}
layer {
  name: "conv4_3"
  type: "Convolution"
  bottom: "conv4_2"
  top: "conv4_3"
  param {
    lr_mult: 1
  }
  param {
    lr_mult: 2
  }
  convolution_param {
    num_output: 512
    pad: 1
    kernel_size: 3
  }
}
layer {
  name: "relu4_3"
  type: "ReLU"
  bottom: "conv4_3"
  top: "conv4_3"
}
layer {
  name: "pool4"
  type: "Pooling"
  bottom: "conv4_3"
  top: "pool4"
  pooling_param {
    pool: MAX
    kernel_size: 2
    stride: 2
  }
}
layer {
  name: "conv5_1"
  type: "Convolution"
  bottom: "pool4"
  top: "conv5_1"
  param {
    lr_mult: 1
  }
  param {
    lr_mult: 2
  }
  convolution_param {
    num_output: 512
    pad: 1
    kernel_size: 3
  }
}
layer {
  name: "relu5_1"
  type: "ReLU"
  bottom: "conv5_1"
  top: "conv5_1"
}
layer {
  name: "conv5_2"
  type: "Convolution"
  bottom: "conv5_1"
  top: "conv5_2"
  param {
    lr_mult: 1
  }
  param {
    lr_mult: 2
  }
  convolution_param {
    num_output: 512
    pad: 1
    kernel_size: 3
  }
}
layer {
  name: "relu5_2"
  type: "ReLU"
  bottom: "conv5_2"
  top: "conv5_2"
}
layer {
  name: "conv5_3"
  type: "Convolution"
  bottom: "conv5_2"
  top: "conv5_3"
  param {
    lr_mult: 1
  }
  param {
    lr_mult: 2
  }
  convolution_param {
    num_output: 512
    pad: 1
    kernel_size: 3
  }
}
layer {
  name: "relu5_3"
  type: "ReLU"
  bottom: "conv5_3"
  top: "conv5_3"
}
layer {
  name: "rpn_conv/3x3"
  type: "Convolution"
  bottom: "conv5_3"
  top: "rpn/output"
  param {
    lr_mult: 1
  }
  param {
    lr_mult: 2
  }
  convolution_param {
    num_output: 512
    pad: 1
    kernel_size: 3
    stride: 1
    weight_filler {
      type: "gaussian"
      std: 0.01
    }
    bias_filler {
      type: "constant"
      value: 0
    }
  }
}
layer {
  name: "rpn_relu/3x3"
  type: "ReLU"
  bottom: "rpn/output"
  top: "rpn/output"
}
layer {
  name: "rpn_cls_score"
  type: "Convolution"
  bottom: "rpn/output"
  top: "rpn_cls_score"
  param {
    lr_mult: 1
  }
  param {
    lr_mult: 2
  }
  convolution_param {
    num_output: 18
    pad: 0
    kernel_size: 1
    stride: 1
    weight_filler {
      type: "gaussian"
      std: 0.01
    }
    bias_filler {
      type: "constant"
      value: 0
    }
  }
}
layer {
  name: "rpn_bbox_pred"
  type: "Convolution"
  bottom: "rpn/output"
  top: "rpn_bbox_pred"
  param {
    lr_mult: 1
  }
  param {
    lr_mult: 2
  }
  convolution_param {
    num_output: 36
    pad: 0
    kernel_size: 1
    stride: 1
    weight_filler {
      type: "gaussian"
      std: 0.01
    }
    bias_filler {
      type: "constant"
      value: 0
    }
  }
}
layer {
  name: "rpn_cls_score_reshape"
  type: "Reshape"
  bottom: "rpn_cls_score"
  top: "rpn_cls_score_reshape"
  reshape_param {
    shape {
      dim: 0
      dim: 2
      dim: -1
      dim: 0
    }
  }
}
layer {
  name: "rpn-data"
  type: "Python"
  bottom: "rpn_cls_score"
  bottom: "gt_boxes"
  bottom: "im_info"
  bottom: "data"
  top: "rpn_labels"
  top: "rpn_bbox_targets"
  top: "rpn_bbox_inside_weights"
  top: "rpn_bbox_outside_weights"
  python_param {
    module: "rpn.anchor_target_layer"
    layer: "AnchorTargetLayer"
    param_str: "\'feat_stride\': 16"
  }
}
layer {
  name: "rpn_loss_cls"
  type: "SoftmaxWithLoss"
  bottom: "rpn_cls_score_reshape"
  bottom: "rpn_labels"
  top: "rpn_cls_loss"
  loss_weight: 1
  propagate_down: true
  propagate_down: false
  loss_param {
    ignore_label: -1
    normalize: true
  }
}
layer {
  name: "rpn_loss_bbox"
  type: "SmoothL1Loss"
  bottom: "rpn_bbox_pred"
  bottom: "rpn_bbox_targets"
  bottom: "rpn_bbox_inside_weights"
  bottom: "rpn_bbox_outside_weights"
  top: "rpn_loss_bbox"
  loss_weight: 1
  smooth_l1_loss_param {
    sigma: 3
  }
}
layer {
  name: "rpn_cls_prob"
  type: "Softmax"
  bottom: "rpn_cls_score_reshape"
  top: "rpn_cls_prob"
}
layer {
  name: "rpn_cls_prob_reshape"
  type: "Reshape"
  bottom: "rpn_cls_prob"
  top: "rpn_cls_prob_reshape"
  reshape_param {
    shape {
      dim: 0
      dim: 18
      dim: -1
      dim: 0
    }
  }
}
layer {
  name: "proposal"
  type: "Python"
  bottom: "rpn_cls_prob_reshape"
  bottom: "rpn_bbox_pred"
  bottom: "im_info"
  top: "rpn_rois"
  python_param {
    module: "rpn.proposal_layer"
    layer: "ProposalLayer"
    param_str: "\'feat_stride\': 16"
  }
}
layer {
  name: "roi-data"
  type: "Python"
  bottom: "rpn_rois"
  bottom: "gt_boxes"
  top: "rois"
  top: "labels"
  top: "bbox_targets"
  top: "bbox_inside_weights"
  top: "bbox_outside_weights"
  python_param {
    module: "rpn.proposal_target_layer"
    layer: "ProposalTargetLayer"
    param_str: "\'num_classes\': 44"
  }
}
layer {
  name: "roi_pool5"
  type: "ROIPooling"
  bottom: "conv5_3"
  bottom: "rois"
  top: "pool5"
  roi_pooling_param {
    pooled_h: 7
    pooled_w: 7
    spatial_scale: 0.0625
  }
}
layer {
  name: "fc6"
  type: "InnerProduct"
  bottom: "pool5"
  top: "fc6"
  param {
    lr_mult: 1
  }
  param {
    lr_mult: 2
  }
  inner_product_param {
    num_output: 4096
  }
}
layer {
  name: "relu6"
  type: "ReLU"
  bottom: "fc6"
  top: "fc6"
}
layer {
  name: "drop6"
  type: "Dropout"
  bottom: "fc6"
  top: "fc6"
  dropout_param {
    dropout_ratio: 0.5
  }
}
layer {
  name: "fc7"
  type: "InnerProduct"
  bottom: "fc6"
  top: "fc7"
  param {
    lr_mult: 1
  }
  param {
    lr_mult: 2
  }
  inner_product_param {
    num_output: 4096
  }
}
layer {
  name: "relu7"
  type: "ReLU"
  bottom: "fc7"
  top: "fc7"
}
layer {
  name: "drop7"
  type: "Dropout"
  bottom: "fc7"
  top: "fc7"
  dropout_param {
    dropout_ratio: 0.5
  }
}
layer {
  name: "cls_score"
  type: "InnerProduct"
  bottom: "fc7"
  top: "cls_score"
  param {
    lr_mult: 1
  }
  param {
    lr_mult: 2
  }
  inner_product_param {
    num_output: 44
    weight_filler {
      type: "gaussian"
      std: 0.01
    }
    bias_filler {
      type: "constant"
      value: 0
    }
  }
}
layer {
  name: "bbox_pred"
  type: "InnerProduct"
  bottom: "fc7"
  top: "bbox_pred"
  param {
    lr_mult: 1
  }
  param {
    lr_mult: 2
  }
  inner_product_param {
    num_output: 176
    weight_filler {
      type: "gaussian"
      std: 0.001
    }
    bias_filler {
      type: "constant"
      value: 0
    }
  }
}
layer {
  name: "loss_cls"
  type: "SoftmaxWithLoss"
  bottom: "cls_score"
  bottom: "labels"
  top: "loss_cls"
  loss_weight: 1
  propagate_down: true
  propagate_down: false
}
layer {
  name: "loss_bbox"
  type: "SmoothL1Loss"
  bottom: "bbox_pred"
  bottom: "bbox_targets"
  bottom: "bbox_inside_weights"
  bottom: "bbox_outside_weights"
  top: "loss_bbox"
  loss_weight: 1
}
I0419 18:00:10.251876  5826 layer_factory.hpp:77] Creating layer input-data
I0419 18:00:10.253609  5826 net.cpp:106] Creating Layer input-data
I0419 18:00:10.253635  5826 net.cpp:411] input-data -> data
I0419 18:00:10.253655  5826 net.cpp:411] input-data -> im_info
I0419 18:00:10.253674  5826 net.cpp:411] input-data -> gt_boxes
RoiDataLayer: name_to_top: {'gt_boxes': 2, 'data': 0, 'im_info': 1}
I0419 18:00:10.330379  5826 net.cpp:150] Setting up input-data
I0419 18:00:10.330404  5826 net.cpp:157] Top shape: 1 3 600 1000 (1800000)
I0419 18:00:10.330417  5826 net.cpp:157] Top shape: 1 3 (3)
I0419 18:00:10.330423  5826 net.cpp:157] Top shape: 1 4 (4)
I0419 18:00:10.330433  5826 net.cpp:165] Memory required for data: 7200028
I0419 18:00:10.330442  5826 layer_factory.hpp:77] Creating layer data_input-data_0_split
I0419 18:00:10.330464  5826 net.cpp:106] Creating Layer data_input-data_0_split
I0419 18:00:10.330472  5826 net.cpp:454] data_input-data_0_split <- data
I0419 18:00:10.330487  5826 net.cpp:411] data_input-data_0_split -> data_input-data_0_split_0
I0419 18:00:10.330503  5826 net.cpp:411] data_input-data_0_split -> data_input-data_0_split_1
I0419 18:00:10.330554  5826 net.cpp:150] Setting up data_input-data_0_split
I0419 18:00:10.330565  5826 net.cpp:157] Top shape: 1 3 600 1000 (1800000)
I0419 18:00:10.330572  5826 net.cpp:157] Top shape: 1 3 600 1000 (1800000)
I0419 18:00:10.330576  5826 net.cpp:165] Memory required for data: 21600028
I0419 18:00:10.330582  5826 layer_factory.hpp:77] Creating layer im_info_input-data_1_split
I0419 18:00:10.330595  5826 net.cpp:106] Creating Layer im_info_input-data_1_split
I0419 18:00:10.330600  5826 net.cpp:454] im_info_input-data_1_split <- im_info
I0419 18:00:10.330615  5826 net.cpp:411] im_info_input-data_1_split -> im_info_input-data_1_split_0
I0419 18:00:10.330627  5826 net.cpp:411] im_info_input-data_1_split -> im_info_input-data_1_split_1
I0419 18:00:10.330668  5826 net.cpp:150] Setting up im_info_input-data_1_split
I0419 18:00:10.330679  5826 net.cpp:157] Top shape: 1 3 (3)
I0419 18:00:10.330684  5826 net.cpp:157] Top shape: 1 3 (3)
I0419 18:00:10.330688  5826 net.cpp:165] Memory required for data: 21600052
I0419 18:00:10.330693  5826 layer_factory.hpp:77] Creating layer gt_boxes_input-data_2_split
I0419 18:00:10.330708  5826 net.cpp:106] Creating Layer gt_boxes_input-data_2_split
I0419 18:00:10.330718  5826 net.cpp:454] gt_boxes_input-data_2_split <- gt_boxes
I0419 18:00:10.330724  5826 net.cpp:411] gt_boxes_input-data_2_split -> gt_boxes_input-data_2_split_0
I0419 18:00:10.330736  5826 net.cpp:411] gt_boxes_input-data_2_split -> gt_boxes_input-data_2_split_1
I0419 18:00:10.330778  5826 net.cpp:150] Setting up gt_boxes_input-data_2_split
I0419 18:00:10.330790  5826 net.cpp:157] Top shape: 1 4 (4)
I0419 18:00:10.330796  5826 net.cpp:157] Top shape: 1 4 (4)
I0419 18:00:10.330799  5826 net.cpp:165] Memory required for data: 21600084
I0419 18:00:10.330806  5826 layer_factory.hpp:77] Creating layer conv1_1
I0419 18:00:10.330832  5826 net.cpp:106] Creating Layer conv1_1
I0419 18:00:10.330839  5826 net.cpp:454] conv1_1 <- data_input-data_0_split_0
I0419 18:00:10.330849  5826 net.cpp:411] conv1_1 -> conv1_1
I0419 18:00:10.333050  5826 net.cpp:150] Setting up conv1_1
I0419 18:00:10.333073  5826 net.cpp:157] Top shape: 1 64 600 1000 (38400000)
I0419 18:00:10.333078  5826 net.cpp:165] Memory required for data: 175200084
I0419 18:00:10.333099  5826 layer_factory.hpp:77] Creating layer relu1_1
I0419 18:00:10.333117  5826 net.cpp:106] Creating Layer relu1_1
I0419 18:00:10.333123  5826 net.cpp:454] relu1_1 <- conv1_1
I0419 18:00:10.333132  5826 net.cpp:397] relu1_1 -> conv1_1 (in-place)
I0419 18:00:10.333148  5826 net.cpp:150] Setting up relu1_1
I0419 18:00:10.333158  5826 net.cpp:157] Top shape: 1 64 600 1000 (38400000)
I0419 18:00:10.333161  5826 net.cpp:165] Memory required for data: 328800084
I0419 18:00:10.333166  5826 layer_factory.hpp:77] Creating layer conv1_2
I0419 18:00:10.333181  5826 net.cpp:106] Creating Layer conv1_2
I0419 18:00:10.333186  5826 net.cpp:454] conv1_2 <- conv1_1
I0419 18:00:10.333199  5826 net.cpp:411] conv1_2 -> conv1_2
I0419 18:00:10.335372  5826 net.cpp:150] Setting up conv1_2
I0419 18:00:10.335392  5826 net.cpp:157] Top shape: 1 64 600 1000 (38400000)
I0419 18:00:10.335397  5826 net.cpp:165] Memory required for data: 482400084
I0419 18:00:10.335412  5826 layer_factory.hpp:77] Creating layer relu1_2
I0419 18:00:10.335423  5826 net.cpp:106] Creating Layer relu1_2
I0419 18:00:10.335431  5826 net.cpp:454] relu1_2 <- conv1_2
I0419 18:00:10.335438  5826 net.cpp:397] relu1_2 -> conv1_2 (in-place)
I0419 18:00:10.335448  5826 net.cpp:150] Setting up relu1_2
I0419 18:00:10.335460  5826 net.cpp:157] Top shape: 1 64 600 1000 (38400000)
I0419 18:00:10.335465  5826 net.cpp:165] Memory required for data: 636000084
I0419 18:00:10.335470  5826 layer_factory.hpp:77] Creating layer pool1
I0419 18:00:10.335484  5826 net.cpp:106] Creating Layer pool1
I0419 18:00:10.335492  5826 net.cpp:454] pool1 <- conv1_2
I0419 18:00:10.335500  5826 net.cpp:411] pool1 -> pool1
I0419 18:00:10.335552  5826 net.cpp:150] Setting up pool1
I0419 18:00:10.335564  5826 net.cpp:157] Top shape: 1 64 300 500 (9600000)
I0419 18:00:10.335568  5826 net.cpp:165] Memory required for data: 674400084
I0419 18:00:10.335573  5826 layer_factory.hpp:77] Creating layer conv2_1
I0419 18:00:10.335587  5826 net.cpp:106] Creating Layer conv2_1
I0419 18:00:10.335595  5826 net.cpp:454] conv2_1 <- pool1
I0419 18:00:10.335602  5826 net.cpp:411] conv2_1 -> conv2_1
I0419 18:00:10.336441  5826 net.cpp:150] Setting up conv2_1
I0419 18:00:10.336458  5826 net.cpp:157] Top shape: 1 128 300 500 (19200000)
I0419 18:00:10.336463  5826 net.cpp:165] Memory required for data: 751200084
I0419 18:00:10.336480  5826 layer_factory.hpp:77] Creating layer relu2_1
I0419 18:00:10.336495  5826 net.cpp:106] Creating Layer relu2_1
I0419 18:00:10.336501  5826 net.cpp:454] relu2_1 <- conv2_1
I0419 18:00:10.336510  5826 net.cpp:397] relu2_1 -> conv2_1 (in-place)
I0419 18:00:10.336524  5826 net.cpp:150] Setting up relu2_1
I0419 18:00:10.336531  5826 net.cpp:157] Top shape: 1 128 300 500 (19200000)
I0419 18:00:10.336536  5826 net.cpp:165] Memory required for data: 828000084
I0419 18:00:10.336541  5826 layer_factory.hpp:77] Creating layer conv2_2
I0419 18:00:10.336552  5826 net.cpp:106] Creating Layer conv2_2
I0419 18:00:10.336558  5826 net.cpp:454] conv2_2 <- conv2_1
I0419 18:00:10.336568  5826 net.cpp:411] conv2_2 -> conv2_2
I0419 18:00:10.337960  5826 net.cpp:150] Setting up conv2_2
I0419 18:00:10.337978  5826 net.cpp:157] Top shape: 1 128 300 500 (19200000)
I0419 18:00:10.337983  5826 net.cpp:165] Memory required for data: 904800084
I0419 18:00:10.337992  5826 layer_factory.hpp:77] Creating layer relu2_2
I0419 18:00:10.338003  5826 net.cpp:106] Creating Layer relu2_2
I0419 18:00:10.338014  5826 net.cpp:454] relu2_2 <- conv2_2
I0419 18:00:10.338022  5826 net.cpp:397] relu2_2 -> conv2_2 (in-place)
I0419 18:00:10.338032  5826 net.cpp:150] Setting up relu2_2
I0419 18:00:10.338042  5826 net.cpp:157] Top shape: 1 128 300 500 (19200000)
I0419 18:00:10.338047  5826 net.cpp:165] Memory required for data: 981600084
I0419 18:00:10.338052  5826 layer_factory.hpp:77] Creating layer pool2
I0419 18:00:10.338060  5826 net.cpp:106] Creating Layer pool2
I0419 18:00:10.338065  5826 net.cpp:454] pool2 <- conv2_2
I0419 18:00:10.338076  5826 net.cpp:411] pool2 -> pool2
I0419 18:00:10.338119  5826 net.cpp:150] Setting up pool2
I0419 18:00:10.338131  5826 net.cpp:157] Top shape: 1 128 150 250 (4800000)
I0419 18:00:10.338135  5826 net.cpp:165] Memory required for data: 1000800084
I0419 18:00:10.338140  5826 layer_factory.hpp:77] Creating layer conv3_1
I0419 18:00:10.338151  5826 net.cpp:106] Creating Layer conv3_1
I0419 18:00:10.338161  5826 net.cpp:454] conv3_1 <- pool2
I0419 18:00:10.338172  5826 net.cpp:411] conv3_1 -> conv3_1
I0419 18:00:10.339164  5826 net.cpp:150] Setting up conv3_1
I0419 18:00:10.339182  5826 net.cpp:157] Top shape: 1 256 150 250 (9600000)
I0419 18:00:10.339187  5826 net.cpp:165] Memory required for data: 1039200084
I0419 18:00:10.339203  5826 layer_factory.hpp:77] Creating layer relu3_1
I0419 18:00:10.339213  5826 net.cpp:106] Creating Layer relu3_1
I0419 18:00:10.339220  5826 net.cpp:454] relu3_1 <- conv3_1
I0419 18:00:10.339227  5826 net.cpp:397] relu3_1 -> conv3_1 (in-place)
I0419 18:00:10.339241  5826 net.cpp:150] Setting up relu3_1
I0419 18:00:10.339248  5826 net.cpp:157] Top shape: 1 256 150 250 (9600000)
I0419 18:00:10.339252  5826 net.cpp:165] Memory required for data: 1077600084
I0419 18:00:10.339257  5826 layer_factory.hpp:77] Creating layer conv3_2
I0419 18:00:10.339272  5826 net.cpp:106] Creating Layer conv3_2
I0419 18:00:10.339282  5826 net.cpp:454] conv3_2 <- conv3_1
I0419 18:00:10.339293  5826 net.cpp:411] conv3_2 -> conv3_2
I0419 18:00:10.340924  5826 net.cpp:150] Setting up conv3_2
I0419 18:00:10.340945  5826 net.cpp:157] Top shape: 1 256 150 250 (9600000)
I0419 18:00:10.340950  5826 net.cpp:165] Memory required for data: 1116000084
I0419 18:00:10.340958  5826 layer_factory.hpp:77] Creating layer relu3_2
I0419 18:00:10.340975  5826 net.cpp:106] Creating Layer relu3_2
I0419 18:00:10.340986  5826 net.cpp:454] relu3_2 <- conv3_2
I0419 18:00:10.340992  5826 net.cpp:397] relu3_2 -> conv3_2 (in-place)
I0419 18:00:10.341001  5826 net.cpp:150] Setting up relu3_2
I0419 18:00:10.341012  5826 net.cpp:157] Top shape: 1 256 150 250 (9600000)
I0419 18:00:10.341017  5826 net.cpp:165] Memory required for data: 1154400084
I0419 18:00:10.341022  5826 layer_factory.hpp:77] Creating layer conv3_3
I0419 18:00:10.341035  5826 net.cpp:106] Creating Layer conv3_3
I0419 18:00:10.341044  5826 net.cpp:454] conv3_3 <- conv3_2
I0419 18:00:10.341053  5826 net.cpp:411] conv3_3 -> conv3_3
I0419 18:00:10.342705  5826 net.cpp:150] Setting up conv3_3
I0419 18:00:10.342722  5826 net.cpp:157] Top shape: 1 256 150 250 (9600000)
I0419 18:00:10.342727  5826 net.cpp:165] Memory required for data: 1192800084
I0419 18:00:10.342736  5826 layer_factory.hpp:77] Creating layer relu3_3
I0419 18:00:10.342748  5826 net.cpp:106] Creating Layer relu3_3
I0419 18:00:10.342758  5826 net.cpp:454] relu3_3 <- conv3_3
I0419 18:00:10.342767  5826 net.cpp:397] relu3_3 -> conv3_3 (in-place)
I0419 18:00:10.342774  5826 net.cpp:150] Setting up relu3_3
I0419 18:00:10.342785  5826 net.cpp:157] Top shape: 1 256 150 250 (9600000)
I0419 18:00:10.342789  5826 net.cpp:165] Memory required for data: 1231200084
I0419 18:00:10.342794  5826 layer_factory.hpp:77] Creating layer pool3
I0419 18:00:10.342806  5826 net.cpp:106] Creating Layer pool3
I0419 18:00:10.342815  5826 net.cpp:454] pool3 <- conv3_3
I0419 18:00:10.342823  5826 net.cpp:411] pool3 -> pool3
I0419 18:00:10.342869  5826 net.cpp:150] Setting up pool3
I0419 18:00:10.342880  5826 net.cpp:157] Top shape: 1 256 75 125 (2400000)
I0419 18:00:10.342885  5826 net.cpp:165] Memory required for data: 1240800084
I0419 18:00:10.342890  5826 layer_factory.hpp:77] Creating layer conv4_1
I0419 18:00:10.342906  5826 net.cpp:106] Creating Layer conv4_1
I0419 18:00:10.342914  5826 net.cpp:454] conv4_1 <- pool3
I0419 18:00:10.342922  5826 net.cpp:411] conv4_1 -> conv4_1
I0419 18:00:10.346897  5826 net.cpp:150] Setting up conv4_1
I0419 18:00:10.346917  5826 net.cpp:157] Top shape: 1 512 75 125 (4800000)
I0419 18:00:10.346921  5826 net.cpp:165] Memory required for data: 1260000084
I0419 18:00:10.346932  5826 layer_factory.hpp:77] Creating layer relu4_1
I0419 18:00:10.346941  5826 net.cpp:106] Creating Layer relu4_1
I0419 18:00:10.346949  5826 net.cpp:454] relu4_1 <- conv4_1
I0419 18:00:10.346959  5826 net.cpp:397] relu4_1 -> conv4_1 (in-place)
I0419 18:00:10.346971  5826 net.cpp:150] Setting up relu4_1
I0419 18:00:10.346978  5826 net.cpp:157] Top shape: 1 512 75 125 (4800000)
I0419 18:00:10.346982  5826 net.cpp:165] Memory required for data: 1279200084
I0419 18:00:10.346988  5826 layer_factory.hpp:77] Creating layer conv4_2
I0419 18:00:10.347000  5826 net.cpp:106] Creating Layer conv4_2
I0419 18:00:10.347005  5826 net.cpp:454] conv4_2 <- conv4_1
I0419 18:00:10.347013  5826 net.cpp:411] conv4_2 -> conv4_2
I0419 18:00:10.352653  5826 net.cpp:150] Setting up conv4_2
I0419 18:00:10.352674  5826 net.cpp:157] Top shape: 1 512 75 125 (4800000)
I0419 18:00:10.352679  5826 net.cpp:165] Memory required for data: 1298400084
I0419 18:00:10.352694  5826 layer_factory.hpp:77] Creating layer relu4_2
I0419 18:00:10.352710  5826 net.cpp:106] Creating Layer relu4_2
I0419 18:00:10.352717  5826 net.cpp:454] relu4_2 <- conv4_2
I0419 18:00:10.352725  5826 net.cpp:397] relu4_2 -> conv4_2 (in-place)
I0419 18:00:10.352735  5826 net.cpp:150] Setting up relu4_2
I0419 18:00:10.352741  5826 net.cpp:157] Top shape: 1 512 75 125 (4800000)
I0419 18:00:10.352744  5826 net.cpp:165] Memory required for data: 1317600084
I0419 18:00:10.352749  5826 layer_factory.hpp:77] Creating layer conv4_3
I0419 18:00:10.352766  5826 net.cpp:106] Creating Layer conv4_3
I0419 18:00:10.352772  5826 net.cpp:454] conv4_3 <- conv4_2
I0419 18:00:10.352780  5826 net.cpp:411] conv4_3 -> conv4_3
I0419 18:00:10.358436  5826 net.cpp:150] Setting up conv4_3
I0419 18:00:10.358456  5826 net.cpp:157] Top shape: 1 512 75 125 (4800000)
I0419 18:00:10.358461  5826 net.cpp:165] Memory required for data: 1336800084
I0419 18:00:10.358470  5826 layer_factory.hpp:77] Creating layer relu4_3
I0419 18:00:10.358479  5826 net.cpp:106] Creating Layer relu4_3
I0419 18:00:10.358487  5826 net.cpp:454] relu4_3 <- conv4_3
I0419 18:00:10.358494  5826 net.cpp:397] relu4_3 -> conv4_3 (in-place)
I0419 18:00:10.358505  5826 net.cpp:150] Setting up relu4_3
I0419 18:00:10.358515  5826 net.cpp:157] Top shape: 1 512 75 125 (4800000)
I0419 18:00:10.358520  5826 net.cpp:165] Memory required for data: 1356000084
I0419 18:00:10.358525  5826 layer_factory.hpp:77] Creating layer pool4
I0419 18:00:10.358537  5826 net.cpp:106] Creating Layer pool4
I0419 18:00:10.358543  5826 net.cpp:454] pool4 <- conv4_3
I0419 18:00:10.358551  5826 net.cpp:411] pool4 -> pool4
I0419 18:00:10.358598  5826 net.cpp:150] Setting up pool4
I0419 18:00:10.358609  5826 net.cpp:157] Top shape: 1 512 38 63 (1225728)
I0419 18:00:10.358614  5826 net.cpp:165] Memory required for data: 1360902996
I0419 18:00:10.358618  5826 layer_factory.hpp:77] Creating layer conv5_1
I0419 18:00:10.358633  5826 net.cpp:106] Creating Layer conv5_1
I0419 18:00:10.358641  5826 net.cpp:454] conv5_1 <- pool4
I0419 18:00:10.358649  5826 net.cpp:411] conv5_1 -> conv5_1
I0419 18:00:10.364287  5826 net.cpp:150] Setting up conv5_1
I0419 18:00:10.364308  5826 net.cpp:157] Top shape: 1 512 38 63 (1225728)
I0419 18:00:10.364313  5826 net.cpp:165] Memory required for data: 1365805908
I0419 18:00:10.364323  5826 layer_factory.hpp:77] Creating layer relu5_1
I0419 18:00:10.364331  5826 net.cpp:106] Creating Layer relu5_1
I0419 18:00:10.364339  5826 net.cpp:454] relu5_1 <- conv5_1
I0419 18:00:10.364346  5826 net.cpp:397] relu5_1 -> conv5_1 (in-place)
I0419 18:00:10.364356  5826 net.cpp:150] Setting up relu5_1
I0419 18:00:10.364365  5826 net.cpp:157] Top shape: 1 512 38 63 (1225728)
I0419 18:00:10.364369  5826 net.cpp:165] Memory required for data: 1370708820
I0419 18:00:10.364374  5826 layer_factory.hpp:77] Creating layer conv5_2
I0419 18:00:10.364389  5826 net.cpp:106] Creating Layer conv5_2
I0419 18:00:10.364400  5826 net.cpp:454] conv5_2 <- conv5_1
I0419 18:00:10.364410  5826 net.cpp:411] conv5_2 -> conv5_2
I0419 18:00:10.370092  5826 net.cpp:150] Setting up conv5_2
I0419 18:00:10.370112  5826 net.cpp:157] Top shape: 1 512 38 63 (1225728)
I0419 18:00:10.370117  5826 net.cpp:165] Memory required for data: 1375611732
I0419 18:00:10.370127  5826 layer_factory.hpp:77] Creating layer relu5_2
I0419 18:00:10.370136  5826 net.cpp:106] Creating Layer relu5_2
I0419 18:00:10.370143  5826 net.cpp:454] relu5_2 <- conv5_2
I0419 18:00:10.370154  5826 net.cpp:397] relu5_2 -> conv5_2 (in-place)
I0419 18:00:10.370165  5826 net.cpp:150] Setting up relu5_2
I0419 18:00:10.370172  5826 net.cpp:157] Top shape: 1 512 38 63 (1225728)
I0419 18:00:10.370177  5826 net.cpp:165] Memory required for data: 1380514644
I0419 18:00:10.370182  5826 layer_factory.hpp:77] Creating layer conv5_3
I0419 18:00:10.370199  5826 net.cpp:106] Creating Layer conv5_3
I0419 18:00:10.370205  5826 net.cpp:454] conv5_3 <- conv5_2
I0419 18:00:10.370216  5826 net.cpp:411] conv5_3 -> conv5_3
I0419 18:00:10.375975  5826 net.cpp:150] Setting up conv5_3
I0419 18:00:10.375998  5826 net.cpp:157] Top shape: 1 512 38 63 (1225728)
I0419 18:00:10.376003  5826 net.cpp:165] Memory required for data: 1385417556
I0419 18:00:10.376013  5826 layer_factory.hpp:77] Creating layer relu5_3
I0419 18:00:10.376022  5826 net.cpp:106] Creating Layer relu5_3
I0419 18:00:10.376027  5826 net.cpp:454] relu5_3 <- conv5_3
I0419 18:00:10.376037  5826 net.cpp:397] relu5_3 -> conv5_3 (in-place)
I0419 18:00:10.376049  5826 net.cpp:150] Setting up relu5_3
I0419 18:00:10.376056  5826 net.cpp:157] Top shape: 1 512 38 63 (1225728)
I0419 18:00:10.376062  5826 net.cpp:165] Memory required for data: 1390320468
I0419 18:00:10.376067  5826 layer_factory.hpp:77] Creating layer conv5_3_relu5_3_0_split
I0419 18:00:10.376077  5826 net.cpp:106] Creating Layer conv5_3_relu5_3_0_split
I0419 18:00:10.376085  5826 net.cpp:454] conv5_3_relu5_3_0_split <- conv5_3
I0419 18:00:10.376092  5826 net.cpp:411] conv5_3_relu5_3_0_split -> conv5_3_relu5_3_0_split_0
I0419 18:00:10.376102  5826 net.cpp:411] conv5_3_relu5_3_0_split -> conv5_3_relu5_3_0_split_1
I0419 18:00:10.376150  5826 net.cpp:150] Setting up conv5_3_relu5_3_0_split
I0419 18:00:10.376163  5826 net.cpp:157] Top shape: 1 512 38 63 (1225728)
I0419 18:00:10.376169  5826 net.cpp:157] Top shape: 1 512 38 63 (1225728)
I0419 18:00:10.376173  5826 net.cpp:165] Memory required for data: 1400126292
I0419 18:00:10.376178  5826 layer_factory.hpp:77] Creating layer rpn_conv/3x3
I0419 18:00:10.376194  5826 net.cpp:106] Creating Layer rpn_conv/3x3
I0419 18:00:10.376204  5826 net.cpp:454] rpn_conv/3x3 <- conv5_3_relu5_3_0_split_0
I0419 18:00:10.376216  5826 net.cpp:411] rpn_conv/3x3 -> rpn/output
I0419 18:00:10.444949  5826 net.cpp:150] Setting up rpn_conv/3x3
I0419 18:00:10.444989  5826 net.cpp:157] Top shape: 1 512 38 63 (1225728)
I0419 18:00:10.444994  5826 net.cpp:165] Memory required for data: 1405029204
I0419 18:00:10.445008  5826 layer_factory.hpp:77] Creating layer rpn_relu/3x3
I0419 18:00:10.445021  5826 net.cpp:106] Creating Layer rpn_relu/3x3
I0419 18:00:10.445034  5826 net.cpp:454] rpn_relu/3x3 <- rpn/output
I0419 18:00:10.445049  5826 net.cpp:397] rpn_relu/3x3 -> rpn/output (in-place)
I0419 18:00:10.445065  5826 net.cpp:150] Setting up rpn_relu/3x3
I0419 18:00:10.445076  5826 net.cpp:157] Top shape: 1 512 38 63 (1225728)
I0419 18:00:10.445080  5826 net.cpp:165] Memory required for data: 1409932116
I0419 18:00:10.445089  5826 layer_factory.hpp:77] Creating layer rpn/output_rpn_relu/3x3_0_split
I0419 18:00:10.445098  5826 net.cpp:106] Creating Layer rpn/output_rpn_relu/3x3_0_split
I0419 18:00:10.445104  5826 net.cpp:454] rpn/output_rpn_relu/3x3_0_split <- rpn/output
I0419 18:00:10.445111  5826 net.cpp:411] rpn/output_rpn_relu/3x3_0_split -> rpn/output_rpn_relu/3x3_0_split_0
I0419 18:00:10.445122  5826 net.cpp:411] rpn/output_rpn_relu/3x3_0_split -> rpn/output_rpn_relu/3x3_0_split_1
I0419 18:00:10.445168  5826 net.cpp:150] Setting up rpn/output_rpn_relu/3x3_0_split
I0419 18:00:10.445180  5826 net.cpp:157] Top shape: 1 512 38 63 (1225728)
I0419 18:00:10.445186  5826 net.cpp:157] Top shape: 1 512 38 63 (1225728)
I0419 18:00:10.445191  5826 net.cpp:165] Memory required for data: 1419737940
I0419 18:00:10.445199  5826 layer_factory.hpp:77] Creating layer rpn_cls_score
I0419 18:00:10.445214  5826 net.cpp:106] Creating Layer rpn_cls_score
I0419 18:00:10.445222  5826 net.cpp:454] rpn_cls_score <- rpn/output_rpn_relu/3x3_0_split_0
I0419 18:00:10.445235  5826 net.cpp:411] rpn_cls_score -> rpn_cls_score
I0419 18:00:10.445724  5826 net.cpp:150] Setting up rpn_cls_score
I0419 18:00:10.445740  5826 net.cpp:157] Top shape: 1 18 38 63 (43092)
I0419 18:00:10.445745  5826 net.cpp:165] Memory required for data: 1419910308
I0419 18:00:10.445755  5826 layer_factory.hpp:77] Creating layer rpn_cls_score_rpn_cls_score_0_split
I0419 18:00:10.445761  5826 net.cpp:106] Creating Layer rpn_cls_score_rpn_cls_score_0_split
I0419 18:00:10.445766  5826 net.cpp:454] rpn_cls_score_rpn_cls_score_0_split <- rpn_cls_score
I0419 18:00:10.445775  5826 net.cpp:411] rpn_cls_score_rpn_cls_score_0_split -> rpn_cls_score_rpn_cls_score_0_split_0
I0419 18:00:10.445792  5826 net.cpp:411] rpn_cls_score_rpn_cls_score_0_split -> rpn_cls_score_rpn_cls_score_0_split_1
I0419 18:00:10.445847  5826 net.cpp:150] Setting up rpn_cls_score_rpn_cls_score_0_split
I0419 18:00:10.445859  5826 net.cpp:157] Top shape: 1 18 38 63 (43092)
I0419 18:00:10.445865  5826 net.cpp:157] Top shape: 1 18 38 63 (43092)
I0419 18:00:10.445873  5826 net.cpp:165] Memory required for data: 1420255044
I0419 18:00:10.445878  5826 layer_factory.hpp:77] Creating layer rpn_bbox_pred
I0419 18:00:10.445894  5826 net.cpp:106] Creating Layer rpn_bbox_pred
I0419 18:00:10.445902  5826 net.cpp:454] rpn_bbox_pred <- rpn/output_rpn_relu/3x3_0_split_1
I0419 18:00:10.445914  5826 net.cpp:411] rpn_bbox_pred -> rpn_bbox_pred
I0419 18:00:10.446655  5826 net.cpp:150] Setting up rpn_bbox_pred
I0419 18:00:10.446669  5826 net.cpp:157] Top shape: 1 36 38 63 (86184)
I0419 18:00:10.446674  5826 net.cpp:165] Memory required for data: 1420599780
I0419 18:00:10.446683  5826 layer_factory.hpp:77] Creating layer rpn_bbox_pred_rpn_bbox_pred_0_split
I0419 18:00:10.446696  5826 net.cpp:106] Creating Layer rpn_bbox_pred_rpn_bbox_pred_0_split
I0419 18:00:10.446703  5826 net.cpp:454] rpn_bbox_pred_rpn_bbox_pred_0_split <- rpn_bbox_pred
I0419 18:00:10.446710  5826 net.cpp:411] rpn_bbox_pred_rpn_bbox_pred_0_split -> rpn_bbox_pred_rpn_bbox_pred_0_split_0
I0419 18:00:10.446727  5826 net.cpp:411] rpn_bbox_pred_rpn_bbox_pred_0_split -> rpn_bbox_pred_rpn_bbox_pred_0_split_1
I0419 18:00:10.446768  5826 net.cpp:150] Setting up rpn_bbox_pred_rpn_bbox_pred_0_split
I0419 18:00:10.446779  5826 net.cpp:157] Top shape: 1 36 38 63 (86184)
I0419 18:00:10.446785  5826 net.cpp:157] Top shape: 1 36 38 63 (86184)
I0419 18:00:10.446789  5826 net.cpp:165] Memory required for data: 1421289252
I0419 18:00:10.446797  5826 layer_factory.hpp:77] Creating layer rpn_cls_score_reshape
I0419 18:00:10.446811  5826 net.cpp:106] Creating Layer rpn_cls_score_reshape
I0419 18:00:10.446820  5826 net.cpp:454] rpn_cls_score_reshape <- rpn_cls_score_rpn_cls_score_0_split_0
I0419 18:00:10.446827  5826 net.cpp:411] rpn_cls_score_reshape -> rpn_cls_score_reshape
I0419 18:00:10.446866  5826 net.cpp:150] Setting up rpn_cls_score_reshape
I0419 18:00:10.446877  5826 net.cpp:157] Top shape: 1 2 342 63 (43092)
I0419 18:00:10.446882  5826 net.cpp:165] Memory required for data: 1421461620
I0419 18:00:10.446887  5826 layer_factory.hpp:77] Creating layer rpn_cls_score_reshape_rpn_cls_score_reshape_0_split
I0419 18:00:10.446893  5826 net.cpp:106] Creating Layer rpn_cls_score_reshape_rpn_cls_score_reshape_0_split
I0419 18:00:10.446899  5826 net.cpp:454] rpn_cls_score_reshape_rpn_cls_score_reshape_0_split <- rpn_cls_score_reshape
I0419 18:00:10.446909  5826 net.cpp:411] rpn_cls_score_reshape_rpn_cls_score_reshape_0_split -> rpn_cls_score_reshape_rpn_cls_score_reshape_0_split_0
I0419 18:00:10.446923  5826 net.cpp:411] rpn_cls_score_reshape_rpn_cls_score_reshape_0_split -> rpn_cls_score_reshape_rpn_cls_score_reshape_0_split_1
I0419 18:00:10.446960  5826 net.cpp:150] Setting up rpn_cls_score_reshape_rpn_cls_score_reshape_0_split
I0419 18:00:10.446971  5826 net.cpp:157] Top shape: 1 2 342 63 (43092)
I0419 18:00:10.446980  5826 net.cpp:157] Top shape: 1 2 342 63 (43092)
I0419 18:00:10.446985  5826 net.cpp:165] Memory required for data: 1421806356
I0419 18:00:10.446991  5826 layer_factory.hpp:77] Creating layer rpn-data
I0419 18:00:10.447496  5826 net.cpp:106] Creating Layer rpn-data
I0419 18:00:10.447515  5826 net.cpp:454] rpn-data <- rpn_cls_score_rpn_cls_score_0_split_1
I0419 18:00:10.447523  5826 net.cpp:454] rpn-data <- gt_boxes_input-data_2_split_0
I0419 18:00:10.447530  5826 net.cpp:454] rpn-data <- im_info_input-data_1_split_0
I0419 18:00:10.447535  5826 net.cpp:454] rpn-data <- data_input-data_0_split_1
I0419 18:00:10.447543  5826 net.cpp:411] rpn-data -> rpn_labels
I0419 18:00:10.447554  5826 net.cpp:411] rpn-data -> rpn_bbox_targets
I0419 18:00:10.447566  5826 net.cpp:411] rpn-data -> rpn_bbox_inside_weights
I0419 18:00:10.447577  5826 net.cpp:411] rpn-data -> rpn_bbox_outside_weights
I0419 18:00:10.448318  5826 net.cpp:150] Setting up rpn-data
I0419 18:00:10.448341  5826 net.cpp:157] Top shape: 1 1 342 63 (21546)
I0419 18:00:10.448348  5826 net.cpp:157] Top shape: 1 36 38 63 (86184)
I0419 18:00:10.448354  5826 net.cpp:157] Top shape: 1 36 38 63 (86184)
I0419 18:00:10.448359  5826 net.cpp:157] Top shape: 1 36 38 63 (86184)
I0419 18:00:10.448364  5826 net.cpp:165] Memory required for data: 1422926748
I0419 18:00:10.448369  5826 layer_factory.hpp:77] Creating layer rpn_loss_cls
I0419 18:00:10.448386  5826 net.cpp:106] Creating Layer rpn_loss_cls
I0419 18:00:10.448393  5826 net.cpp:454] rpn_loss_cls <- rpn_cls_score_reshape_rpn_cls_score_reshape_0_split_0
I0419 18:00:10.448401  5826 net.cpp:454] rpn_loss_cls <- rpn_labels
…
I0419 18:00:10.449280  5826 net.cpp:157] Top shape: (1)
I0419 18:00:10.449285  5826 net.cpp:160]     with loss weight 1
I0419 18:00:10.449291  5826 net.cpp:165] Memory required for data: 1422926756
I0419 18:00:10.449298  5826 layer_factory.hpp:77] Creating layer rpn_cls_prob
I0419 18:00:10.449306  5826 net.cpp:106] Creating Layer rpn_cls_prob
I0419 18:00:10.449316  5826 net.cpp:454] rpn_cls_prob <- rpn_cls_score_reshape_rpn_cls_score_reshape_0_split_1
I0419 18:00:10.449324  5826 net.cpp:411] rpn_cls_prob -> rpn_cls_prob
I0419 18:00:10.449394  5826 net.cpp:150] Setting up rpn_cls_prob
I0419 18:00:10.449406  5826 net.cpp:157] Top shape: 1 2 342 63 (43092)
I0419 18:00:10.449410  5826 net.cpp:165] Memory required for data: 1423099124
I0419 18:00:10.449415  5826 layer_factory.hpp:77] Creating layer rpn_cls_prob_reshape
I0419 18:00:10.449426  5826 net.cpp:106] Creating Layer rpn_cls_prob_reshape
I0419 18:00:10.449431  5826 net.cpp:454] rpn_cls_prob_reshape <- rpn_cls_prob
I0419 18:00:10.449442  5826 net.cpp:411] rpn_cls_prob_reshape -> rpn_cls_prob_reshape
I0419 18:00:10.449472  5826 net.cpp:150] Setting up rpn_cls_prob_reshape
I0419 18:00:10.449486  5826 net.cpp:157] Top shape: 1 18 38 63 (43092)
I0419 18:00:10.449489  5826 net.cpp:165] Memory required for data: 1423271492
I0419 18:00:10.449494  5826 layer_factory.hpp:77] Creating layer proposal
I0419 18:00:10.450424  5826 net.cpp:106] Creating Layer proposal
I0419 18:00:10.450443  5826 net.cpp:454] proposal <- rpn_cls_prob_reshape
I0419 18:00:10.450453  5826 net.cpp:454] proposal <- rpn_bbox_pred_rpn_bbox_pred_0_split_1
I0419 18:00:10.450459  5826 net.cpp:454] proposal <- im_info_input-data_1_split_1
I0419 18:00:10.450466  5826 net.cpp:411] proposal -> rpn_rois
I0419 18:00:10.452474  5826 net.cpp:150] Setting up proposal
I0419 18:00:10.452497  5826 net.cpp:157] Top shape: 1 5 (5)
I0419 18:00:10.452503  5826 net.cpp:165] Memory required for data: 1423271512
I0419 18:00:10.452508  5826 layer_factory.hpp:77] Creating layer roi-data
I0419 18:00:10.453948  5826 net.cpp:106] Creating Layer roi-data
I0419 18:00:10.453969  5826 net.cpp:454] roi-data <- rpn_rois
I0419 18:00:10.453977  5826 net.cpp:454] roi-data <- gt_boxes_input-data_2_split_1
I0419 18:00:10.453985  5826 net.cpp:411] roi-data -> rois
I0419 18:00:10.454005  5826 net.cpp:411] roi-data -> labels
I0419 18:00:10.454016  5826 net.cpp:411] roi-data -> bbox_targets
I0419 18:00:10.454027  5826 net.cpp:411] roi-data -> bbox_inside_weights
I0419 18:00:10.454035  5826 net.cpp:411] roi-data -> bbox_outside_weights
I0419 18:00:10.454427  5826 net.cpp:150] Setting up roi-data
I0419 18:00:10.454447  5826 net.cpp:157] Top shape: 1 5 (5)
I0419 18:00:10.454452  5826 net.cpp:157] Top shape: 1 1 (1)
I0419 18:00:10.454457  5826 net.cpp:157] Top shape: 1 176 (176)
I0419 18:00:10.454463  5826 net.cpp:157] Top shape: 1 176 (176)
I0419 18:00:10.454471  5826 net.cpp:157] Top shape: 1 176 (176)
I0419 18:00:10.454476  5826 net.cpp:165] Memory required for data: 1423273648
I0419 18:00:10.454483  5826 layer_factory.hpp:77] Creating layer roi_pool5
I0419 18:00:10.454496  5826 net.cpp:106] Creating Layer roi_pool5
I0419 18:00:10.454509  5826 net.cpp:454] roi_pool5 <- conv5_3_relu5_3_0_split_1
I0419 18:00:10.454515  5826 net.cpp:454] roi_pool5 <- rois
I0419 18:00:10.454524  5826 net.cpp:411] roi_pool5 -> pool5
I0419 18:00:10.454540  5826 roi_pooling_layer.cpp:30] Spatial scale: 0.0625
I0419 18:00:10.454592  5826 net.cpp:150] Setting up roi_pool5
I0419 18:00:10.454604  5826 net.cpp:157] Top shape: 1 512 7 7 (25088)
I0419 18:00:10.454609  5826 net.cpp:165] Memory required for data: 1423374000
I0419 18:00:10.454614  5826 layer_factory.hpp:77] Creating layer fc6
I0419 18:00:10.454627  5826 net.cpp:106] Creating Layer fc6
I0419 18:00:10.454638  5826 net.cpp:454] fc6 <- pool5
I0419 18:00:10.454645  5826 net.cpp:411] fc6 -> fc6
I0419 18:00:10.723785  5826 net.cpp:150] Setting up fc6
I0419 18:00:10.723829  5826 net.cpp:157] Top shape: 1 4096 (4096)
I0419 18:00:10.723835  5826 net.cpp:165] Memory required for data: 1423390384
I0419 18:00:10.723858  5826 layer_factory.hpp:77] Creating layer relu6
I0419 18:00:10.723873  5826 net.cpp:106] Creating Layer relu6
I0419 18:00:10.723884  5826 net.cpp:454] relu6 <- fc6
I0419 18:00:10.723894  5826 net.cpp:397] relu6 -> fc6 (in-place)
I0419 18:00:10.723913  5826 net.cpp:150] Setting up relu6
I0419 18:00:10.723920  5826 net.cpp:157] Top shape: 1 4096 (4096)
I0419 18:00:10.723927  5826 net.cpp:165] Memory required for data: 1423406768
I0419 18:00:10.723932  5826 layer_factory.hpp:77] Creating layer drop6
I0419 18:00:10.723953  5826 net.cpp:106] Creating Layer drop6
I0419 18:00:10.723961  5826 net.cpp:454] drop6 <- fc6
I0419 18:00:10.723968  5826 net.cpp:397] drop6 -> fc6 (in-place)
I0419 18:00:10.724001  5826 net.cpp:150] Setting up drop6
I0419 18:00:10.724014  5826 net.cpp:157] Top shape: 1 4096 (4096)
I0419 18:00:10.724017  5826 net.cpp:165] Memory required for data: 1423423152
I0419 18:00:10.724022  5826 layer_factory.hpp:77] Creating layer fc7
I0419 18:00:10.724035  5826 net.cpp:106] Creating Layer fc7
I0419 18:00:10.724045  5826 net.cpp:454] fc7 <- fc6
I0419 18:00:10.724052  5826 net.cpp:411] fc7 -> fc7
I0419 18:00:10.767590  5826 net.cpp:150] Setting up fc7
I0419 18:00:10.767630  5826 net.cpp:157] Top shape: 1 4096 (4096)
I0419 18:00:10.767637  5826 net.cpp:165] Memory required for data: 1423439536
I0419 18:00:10.767649  5826 layer_factory.hpp:77] Creating layer relu7
I0419 18:00:10.767664  5826 net.cpp:106] Creating Layer relu7
I0419 18:00:10.767673  5826 net.cpp:454] relu7 <- fc7
I0419 18:00:10.767683  5826 net.cpp:397] relu7 -> fc7 (in-place)
I0419 18:00:10.767702  5826 net.cpp:150] Setting up relu7
I0419 18:00:10.767710  5826 net.cpp:157] Top shape: 1 4096 (4096)
I0419 18:00:10.767715  5826 net.cpp:165] Memory required for data: 1423455920
I0419 18:00:10.767719  5826 layer_factory.hpp:77] Creating layer drop7
I0419 18:00:10.767732  5826 net.cpp:106] Creating Layer drop7
I0419 18:00:10.767740  5826 net.cpp:454] drop7 <- fc7
I0419 18:00:10.767746  5826 net.cpp:397] drop7 -> fc7 (in-place)
I0419 18:00:10.767779  5826 net.cpp:150] Setting up drop7
I0419 18:00:10.767786  5826 net.cpp:157] Top shape: 1 4096 (4096)
I0419 18:00:10.767792  5826 net.cpp:165] Memory required for data: 1423472304
I0419 18:00:10.767797  5826 layer_factory.hpp:77] Creating layer fc7_drop7_0_split
I0419 18:00:10.767805  5826 net.cpp:106] Creating Layer fc7_drop7_0_split
I0419 18:00:10.767812  5826 net.cpp:454] fc7_drop7_0_split <- fc7
I0419 18:00:10.767819  5826 net.cpp:411] fc7_drop7_0_split -> fc7_drop7_0_split_0
I0419 18:00:10.767829  5826 net.cpp:411] fc7_drop7_0_split -> fc7_drop7_0_split_1
I0419 18:00:10.767875  5826 net.cpp:150] Setting up fc7_drop7_0_split
I0419 18:00:10.767889  5826 net.cpp:157] Top shape: 1 4096 (4096)
I0419 18:00:10.767894  5826 net.cpp:157] Top shape: 1 4096 (4096)
I0419 18:00:10.767899  5826 net.cpp:165] Memory required for data: 1423505072
I0419 18:00:10.767902  5826 layer_factory.hpp:77] Creating layer cls_score
I0419 18:00:10.767917  5826 net.cpp:106] Creating Layer cls_score
I0419 18:00:10.767927  5826 net.cpp:454] cls_score <- fc7_drop7_0_split_0
I0419 18:00:10.767937  5826 net.cpp:411] cls_score -> cls_score
I0419 18:00:10.773485  5826 net.cpp:150] Setting up cls_score
I0419 18:00:10.773504  5826 net.cpp:157] Top shape: 1 44 (44)
I0419 18:00:10.773509  5826 net.cpp:165] Memory required for data: 1423505248
I0419 18:00:10.773519  5826 layer_factory.hpp:77] Creating layer bbox_pred
I0419 18:00:10.773530  5826 net.cpp:106] Creating Layer bbox_pred
I0419 18:00:10.773536  5826 net.cpp:454] bbox_pred <- fc7_drop7_0_split_1
I0419 18:00:10.773546  5826 net.cpp:411] bbox_pred -> bbox_pred
I0419 18:00:10.794224  5826 net.cpp:150] Setting up bbox_pred
I0419 18:00:10.794245  5826 net.cpp:157] Top shape: 1 176 (176)
I0419 18:00:10.794250  5826 net.cpp:165] Memory required for data: 1423505952
I0419 18:00:10.794260  5826 layer_factory.hpp:77] Creating layer loss_cls
I0419 18:00:10.794275  5826 net.cpp:106] Creating Layer loss_cls
I0419 18:00:10.794282  5826 net.cpp:454] loss_cls <- cls_score
I0419 18:00:10.794291  5826 net.cpp:454] loss_cls <- labels
I0419 18:00:10.794301  5826 net.cpp:411] loss_cls -> loss_cls
…
           'RPN_POST_NMS_TOP_N': 2000,
           'RPN_PRE_NMS_TOP_N': 12000,
           'SCALES': [600],
           'SNAPSHOT_INFIX': '',
           'SNAPSHOT_ITERS': 10000,
           'USE_FLIPPED': True,
           'USE_PREFETCH': False},
 'USE_GPU_NMS': True}
WARNING: Logging before InitGoogleLogging() is written to STDERR
I0419 22:40:45.276545  6086 net.cpp:49] Initializing net from parameters: 
name: "VGG_ILSVRC_16_layers"
input: "data"
input: "im_info"
state {
  phase: TEST
}
input_shape {
  dim: 1
  dim: 3
  dim: 1360
  dim: 800
}
input_shape {
  dim: 1
  dim: 3
}
layer {
  name: "conv1_1"
  type: "Convolution"
  bottom: "data"
  top: "conv1_1"
  param {
    lr_mult: 0
    decay_mult: 0
  }
  param {
    lr_mult: 0
    decay_mult: 0
  }
  convolution_param {
    num_output: 64
    pad: 1
    kernel_size: 3
  }
}
layer {
  name: "relu1_1"
  type: "ReLU"
  bottom: "conv1_1"
  top: "conv1_1"
}
layer {
  name: "conv1_2"
  type: "Convolution"
  bottom: "conv1_1"
  top: "conv1_2"
  param {
    lr_mult: 0
    decay_mult: 0
  }
  param {
    lr_mult: 0
    decay_mult: 0
  }
  convolution_param {
    num_output: 64
    pad: 1
    kernel_size: 3
  }
}
layer {
  name: "relu1_2"
  type: "ReLU"
  bottom: "conv1_2"
  top: "conv1_2"
}
layer {
  name: "pool1"
  type: "Pooling"
  bottom: "conv1_2"
  top: "pool1"
  pooling_param {
    pool: MAX
    kernel_size: 2
    stride: 2
  }
}
layer {
  name: "conv2_1"
  type: "Convolution"
  bottom: "pool1"
  top: "conv2_1"
  param {
    lr_mult: 0
    decay_mult: 0
  }
  param {
    lr_mult: 0
    decay_mult: 0
  }
  convolution_param {
    num_output: 128
    pad: 1
    kernel_size: 3
  }
}
layer {
  name: "relu2_1"
  type: "ReLU"
  bottom: "conv2_1"
  top: "conv2_1"
}
layer {
  name: "conv2_2"
  type: "Convolution"
  bottom: "conv2_1"
  top: "conv2_2"
  param {
    lr_mult: 0
    decay_mult: 0
  }
  param {
    lr_mult: 0
    decay_mult: 0
  }
  convolution_param {
    num_output: 128
    pad: 1
    kernel_size: 3
  }
}
layer {
  name: "relu2_2"
  type: "ReLU"
  bottom: "conv2_2"
  top: "conv2_2"
}
layer {
  name: "pool2"
  type: "Pooling"
  bottom: "conv2_2"
  top: "pool2"
  pooling_param {
    pool: MAX
    kernel_size: 2
    stride: 2
  }
}
layer {
  name: "conv3_1"
  type: "Convolution"
  bottom: "pool2"
  top: "conv3_1"
  param {
    lr_mult: 1
    decay_mult: 1
  }
  param {
    lr_mult: 2
    decay_mult: 0
  }
  convolution_param {
    num_output: 256
    pad: 1
    kernel_size: 3
  }
}
layer {
  name: "relu3_1"
  type: "ReLU"
  bottom: "conv3_1"
  top: "conv3_1"
}
layer {
  name: "conv3_2"
  type: "Convolution"
  bottom: "conv3_1"
  top: "conv3_2"
  param {
    lr_mult: 1
    decay_mult: 1
  }
  param {
    lr_mult: 2
    decay_mult: 0
  }
  convolution_param {
    num_output: 256
    pad: 1
    kernel_size: 3
  }
}
layer {
  name: "relu3_2"
  type: "ReLU"
  bottom: "conv3_2"
  top: "conv3_2"
}
layer {
  name: "conv3_3"
  type: "Convolution"
  bottom: "conv3_2"
  top: "conv3_3"
  param {
    lr_mult: 1
    decay_mult: 1
  }
  param {
    lr_mult: 2
    decay_mult: 0
  }
  convolution_param {
    num_output: 256
    pad: 1
    kernel_size: 3
  }
}
layer {
  name: "relu3_3"
  type: "ReLU"
  bottom: "conv3_3"
  top: "conv3_3"
}
layer {
  name: "pool3"
  type: "Pooling"
  bottom: "conv3_3"
  top: "pool3"
  pooling_param {
    pool: MAX
    kernel_size: 2
    stride: 2
  }
}
layer {
  name: "conv4_1"
  type: "Convolution"
  bottom: "pool3"
  top: "conv4_1"
  param {
    lr_mult: 1
    decay_mult: 1
  }
  param {
    lr_mult: 2
    decay_mult: 0
  }
  convolution_param {
    num_output: 512
    pad: 1
    kernel_size: 3
  }
}
layer {
  name: "relu4_1"
  type: "ReLU"
  bottom: "conv4_1"
  top: "conv4_1"
}
layer {
  name: "conv4_2"
  type: "Convolution"
  bottom: "conv4_1"
  top: "conv4_2"
  param {
    lr_mult: 1
    decay_mult: 1
  }
  param {
    lr_mult: 2
    decay_mult: 0
  }
  convolution_param {
    num_output: 512
    pad: 1
    kernel_size: 3
  }
}
layer {
  name: "relu4_2"
  type: "ReLU"
  bottom: "conv4_2"
  top: "conv4_2"
}
layer {
  name: "conv4_3"
  type: "Convolution"
  bottom: "conv4_2"
  top: "conv4_3"
  param {
    lr_mult: 1
    decay_mult: 1
  }
  param {
    lr_mult: 2
    decay_mult: 0
  }
  convolution_param {
    num_output: 512
    pad: 1
    kernel_size: 3
  }
}
layer {
  name: "relu4_3"
  type: "ReLU"
  bottom: "conv4_3"
  top: "conv4_3"
}
layer {
  name: "pool4"
  type: "Pooling"
  bottom: "conv4_3"
  top: "pool4"
  pooling_param {
    pool: MAX
    kernel_size: 2
    stride: 2
  }
}
layer {
  name: "conv5_1"
  type: "Convolution"
  bottom: "pool4"
  top: "conv5_1"
  param {
    lr_mult: 1
    decay_mult: 1
  }
  param {
    lr_mult: 2
    decay_mult: 0
  }
  convolution_param {
    num_output: 512
    pad: 1
    kernel_size: 3
  }
}
layer {
  name: "relu5_1"
  type: "ReLU"
  bottom: "conv5_1"
  top: "conv5_1"
}
layer {
  name: "conv5_2"
  type: "Convolution"
  bottom: "conv5_1"
  top: "conv5_2"
  param {
    lr_mult: 1
    decay_mult: 1
  }
  param {
    lr_mult: 2
    decay_mult: 0
  }
  convolution_param {
    num_output: 512
    pad: 1
    kernel_size: 3
  }
}
layer {
  name: "relu5_2"
  type: "ReLU"
  bottom: "conv5_2"
  top: "conv5_2"
}
layer {
  name: "conv5_3"
  type: "Convolution"
  bottom: "conv5_2"
  top: "conv5_3"
  param {
    lr_mult: 1
    decay_mult: 1
  }
  param {
    lr_mult: 2
    decay_mult: 0
  }
  convolution_param {
    num_output: 512
    pad: 1
    kernel_size: 3
  }
}
layer {
  name: "relu5_3"
  type: "ReLU"
  bottom: "conv5_3"
  top: "conv5_3"
}
layer {
  name: "rpn_conv/3x3"
  type: "Convolution"
  bottom: "conv5_3"
  top: "rpn/output"
  param {
    lr_mult: 1
    decay_mult: 1
  }
  param {
    lr_mult: 2
    decay_mult: 0
  }
  convolution_param {
    num_output: 512
    pad: 1
    kernel_size: 3
    stride: 1
    weight_filler {
      type: "gaussian"
      std: 0.01
    }
    bias_filler {
      type: "constant"
      value: 0
    }
  }
}
layer {
  name: "rpn_relu/3x3"
  type: "ReLU"
  bottom: "rpn/output"
  top: "rpn/output"
}
layer {
  name: "rpn_cls_score"
  type: "Convolution"
  bottom: "rpn/output"
  top: "rpn_cls_score"
  param {
    lr_mult: 1
    decay_mult: 1
  }
  param {
    lr_mult: 2
    decay_mult: 0
  }
  convolution_param {
    num_output: 18
    pad: 0
    kernel_size: 1
    stride: 1
    weight_filler {
      type: "gaussian"
      std: 0.01
    }
    bias_filler {
      type: "constant"
      value: 0
    }
  }
}
layer {
  name: "rpn_bbox_pred"
  type: "Convolution"
  bottom: "rpn/output"
  top: "rpn_bbox_pred"
  param {
    lr_mult: 1
    decay_mult: 1
  }
  param {
    lr_mult: 2
    decay_mult: 0
  }
  convolution_param {
    num_output: 36
    pad: 0
    kernel_size: 1
    stride: 1
    weight_filler {
      type: "gaussian"
      std: 0.01
    }
    bias_filler {
      type: "constant"
      value: 0
    }
  }
}
layer {
  name: "rpn_cls_score_reshape"
  type: "Reshape"
  bottom: "rpn_cls_score"
  top: "rpn_cls_score_reshape"
  reshape_param {
    shape {
      dim: 0
      dim: 2
      dim: -1
      dim: 0
    }
  }
}
layer {
  name: "rpn_cls_prob"
  type: "Softmax"
  bottom: "rpn_cls_score_reshape"
  top: "rpn_cls_prob"
}
layer {
  name: "rpn_cls_prob_reshape"
  type: "Reshape"
  bottom: "rpn_cls_prob"
  top: "rpn_cls_prob_reshape"
  reshape_param {
    shape {
      dim: 0
      dim: 18
      dim: -1
      dim: 0
    }
  }
}
layer {
  name: "proposal"
  type: "Python"
  bottom: "rpn_cls_prob_reshape"
  bottom: "rpn_bbox_pred"
  bottom: "im_info"
  top: "rois"
  python_param {
    module: "rpn.proposal_layer"
    layer: "ProposalLayer"
    param_str: "\'feat_stride\': 16"
  }
}
layer {
  name: "roi_pool5"
  type: "ROIPooling"
  bottom: "conv5_3"
  bottom: "rois"
  top: "pool5"
  roi_pooling_param {
    pooled_h: 7
    pooled_w: 7
    spatial_scale: 0.0625
  }
}
layer {
  name: "fc6"
  type: "InnerProduct"
  bottom: "pool5"
  top: "fc6"
  param {
    lr_mult: 1
    decay_mult: 1
  }
  param {
    lr_mult: 2
    decay_mult: 0
  }
  inner_product_param {
    num_output: 4096
  }
}
layer {
  name: "relu6"
  type: "ReLU"
  bottom: "fc6"
  top: "fc6"
}
layer {
  name: "drop6"
  type: "Dropout"
  bottom: "fc6"
  top: "fc6"
  dropout_param {
    dropout_ratio: 0.5
  }
}
layer {
  name: "fc7"
  type: "InnerProduct"
  bottom: "fc6"
  top: "fc7"
  param {
    lr_mult: 1
    decay_mult: 1
  }
  param {
    lr_mult: 2
    decay_mult: 0
  }
  inner_product_param {
    num_output: 4096
  }
}
layer {
  name: "relu7"
  type: "ReLU"
  bottom: "fc7"
  top: "fc7"
}
layer {
  name: "drop7"
  type: "Dropout"
  bottom: "fc7"
  top: "fc7"
  dropout_param {
    dropout_ratio: 0.5
  }
}
layer {
  name: "cls_score"
  type: "InnerProduct"
  bottom: "fc7"
  top: "cls_score"
  param {
    lr_mult: 1
    decay_mult: 1
  }
  param {
    lr_mult: 2
    decay_mult: 0
  }
  inner_product_param {
    num_output: 44
    weight_filler {
      type: "gaussian"
      std: 0.01
    }
    bias_filler {
      type: "constant"
      value: 0
    }
  }
}
layer {
  name: "bbox_pred"
  type: "InnerProduct"
  bottom: "fc7"
  top: "bbox_pred"
  param {
    lr_mult: 1
    decay_mult: 1
  }
  param {
    lr_mult: 2
    decay_mult: 0
  }
  inner_product_param {
    num_output: 176
    weight_filler {
      type: "gaussian"
      std: 0.001
    }
    bias_filler {
      type: "constant"
      value: 0
    }
  }
}
layer {
  name: "cls_prob"
  type: "Softmax"
  bottom: "cls_score"
  top: "cls_prob"
}
I0419 22:40:45.276798  6086 net.cpp:413] Input 0 -> data
I0419 22:40:45.360077  6086 net.cpp:413] Input 1 -> im_info
I0419 22:40:45.360158  6086 layer_factory.hpp:77] Creating layer conv1_1
I0419 22:40:45.360198  6086 net.cpp:106] Creating Layer conv1_1
I0419 22:40:45.360206  6086 net.cpp:454] conv1_1 <- data
I0419 22:40:45.360226  6086 net.cpp:411] conv1_1 -> conv1_1
I0419 22:40:45.363543  6086 net.cpp:150] Setting up conv1_1
I0419 22:40:45.363571  6086 net.cpp:157] Top shape: 1 64 1360 800 (69632000)
I0419 22:40:45.363576  6086 net.cpp:165] Memory required for data: 278528000
I0419 22:40:45.363598  6086 layer_factory.hpp:77] Creating layer relu1_1
I0419 22:40:45.363616  6086 net.cpp:106] Creating Layer relu1_1
I0419 22:40:45.363627  6086 net.cpp:454] relu1_1 <- conv1_1
I0419 22:40:45.363636  6086 net.cpp:397] relu1_1 -> conv1_1 (in-place)
I0419 22:40:45.363652  6086 net.cpp:150] Setting up relu1_1
I0419 22:40:45.363665  6086 net.cpp:157] Top shape: 1 64 1360 800 (69632000)
I0419 22:40:45.363669  6086 net.cpp:165] Memory required for data: 557056000
I0419 22:40:45.363674  6086 layer_factory.hpp:77] Creating layer conv1_2
I0419 22:40:45.363689  6086 net.cpp:106] Creating Layer conv1_2
I0419 22:40:45.363695  6086 net.cpp:454] conv1_2 <- conv1_1
I0419 22:40:45.363703  6086 net.cpp:411] conv1_2 -> conv1_2
I0419 22:40:45.367029  6086 net.cpp:150] Setting up conv1_2
I0419 22:40:45.367055  6086 net.cpp:157] Top shape: 1 64 1360 800 (69632000)
I0419 22:40:45.367060  6086 net.cpp:165] Memory required for data: 835584000
I0419 22:40:45.367075  6086 layer_factory.hpp:77] Creating layer relu1_2
I0419 22:40:45.367090  6086 net.cpp:106] Creating Layer relu1_2
I0419 22:40:45.367095  6086 net.cpp:454] relu1_2 <- conv1_2
I0419 22:40:45.367106  6086 net.cpp:397] relu1_2 -> conv1_2 (in-place)
I0419 22:40:45.367116  6086 net.cpp:150] Setting up relu1_2
I0419 22:40:45.367127  6086 net.cpp:157] Top shape: 1 64 1360 800 (69632000)
I0419 22:40:45.367132  6086 net.cpp:165] Memory required for data: 1114112000
I0419 22:40:45.367137  6086 layer_factory.hpp:77] Creating layer pool1
I0419 22:40:45.367151  6086 net.cpp:106] Creating Layer pool1
I0419 22:40:45.367157  6086 net.cpp:454] pool1 <- conv1_2
I0419 22:40:45.367167  6086 net.cpp:411] pool1 -> pool1
I0419 22:40:45.367226  6086 net.cpp:150] Setting up pool1
I0419 22:40:45.367238  6086 net.cpp:157] Top shape: 1 64 680 400 (17408000)
I0419 22:40:45.367244  6086 net.cpp:165] Memory required for data: 1183744000
I0419 22:40:45.367247  6086 layer_factory.hpp:77] Creating layer conv2_1
I0419 22:40:45.367262  6086 net.cpp:106] Creating Layer conv2_1
I0419 22:40:45.367271  6086 net.cpp:454] conv2_1 <- pool1
I0419 22:40:45.367280  6086 net.cpp:411] conv2_1 -> conv2_1
I0419 22:40:45.368726  6086 net.cpp:150] Setting up conv2_1
I0419 22:40:45.368744  6086 net.cpp:157] Top shape: 1 128 680 400 (34816000)
I0419 22:40:45.368749  6086 net.cpp:165] Memory required for data: 1323008000
I0419 22:40:45.368763  6086 layer_factory.hpp:77] Creating layer relu2_1
I0419 22:40:45.368773  6086 net.cpp:106] Creating Layer relu2_1
I0419 22:40:45.368779  6086 net.cpp:454] relu2_1 <- conv2_1
I0419 22:40:45.368789  6086 net.cpp:397] relu2_1 -> conv2_1 (in-place)
I0419 22:40:45.368803  6086 net.cpp:150] Setting up relu2_1
I0419 22:40:45.368811  6086 net.cpp:157] Top shape: 1 128 680 400 (34816000)
I0419 22:40:45.368816  6086 net.cpp:165] Memory required for data: 1462272000
I0419 22:40:45.368820  6086 layer_factory.hpp:77] Creating layer conv2_2
I0419 22:40:45.368832  6086 net.cpp:106] Creating Layer conv2_2
I0419 22:40:45.368837  6086 net.cpp:454] conv2_2 <- conv2_1
I0419 22:40:45.368849  6086 net.cpp:411] conv2_2 -> conv2_2
I0419 22:40:45.369837  6086 net.cpp:150] Setting up conv2_2
I0419 22:40:45.369856  6086 net.cpp:157] Top shape: 1 128 680 400 (34816000)
I0419 22:40:45.369861  6086 net.cpp:165] Memory required for data: 1601536000
I0419 22:40:45.369870  6086 layer_factory.hpp:77] Creating layer relu2_2
I0419 22:40:45.369886  6086 net.cpp:106] Creating Layer relu2_2
I0419 22:40:45.369897  6086 net.cpp:454] relu2_2 <- conv2_2
I0419 22:40:45.369904  6086 net.cpp:397] relu2_2 -> conv2_2 (in-place)
I0419 22:40:45.369913  6086 net.cpp:150] Setting up relu2_2
I0419 22:40:45.369925  6086 net.cpp:157] Top shape: 1 128 680 400 (34816000)
I0419 22:40:45.369930  6086 net.cpp:165] Memory required for data: 1740800000
I0419 22:40:45.369935  6086 layer_factory.hpp:77] Creating layer pool2
I0419 22:40:45.369946  6086 net.cpp:106] Creating Layer pool2
I0419 22:40:45.369952  6086 net.cpp:454] pool2 <- conv2_2
I0419 22:40:45.369959  6086 net.cpp:411] pool2 -> pool2
I0419 22:40:45.370009  6086 net.cpp:150] Setting up pool2
I0419 22:40:45.370021  6086 net.cpp:157] Top shape: 1 128 340 200 (8704000)
I0419 22:40:45.370025  6086 net.cpp:165] Memory required for data: 1775616000
I0419 22:40:45.370029  6086 layer_factory.hpp:77] Creating layer conv3_1
I0419 22:40:45.370040  6086 net.cpp:106] Creating Layer conv3_1
I0419 22:40:45.370049  6086 net.cpp:454] conv3_1 <- pool2
I0419 22:40:45.370060  6086 net.cpp:411] conv3_1 -> conv3_1
I0419 22:40:45.371583  6086 net.cpp:150] Setting up conv3_1
I0419 22:40:45.371604  6086 net.cpp:157] Top shape: 1 256 340 200 (17408000)
I0419 22:40:45.371609  6086 net.cpp:165] Memory required for data: 1845248000
I0419 22:40:45.371623  6086 layer_factory.hpp:77] Creating layer relu3_1
I0419 22:40:45.371632  6086 net.cpp:106] Creating Layer relu3_1
I0419 22:40:45.371639  6086 net.cpp:454] relu3_1 <- conv3_1
I0419 22:40:45.371646  6086 net.cpp:397] relu3_1 -> conv3_1 (in-place)
I0419 22:40:45.371655  6086 net.cpp:150] Setting up relu3_1
I0419 22:40:45.371667  6086 net.cpp:157] Top shape: 1 256 340 200 (17408000)
I0419 22:40:45.371671  6086 net.cpp:165] Memory required for data: 1914880000
I0419 22:40:45.371676  6086 layer_factory.hpp:77] Creating layer conv3_2
I0419 22:40:45.371688  6086 net.cpp:106] Creating Layer conv3_2
I0419 22:40:45.371698  6086 net.cpp:454] conv3_2 <- conv3_1
I0419 22:40:45.371707  6086 net.cpp:411] conv3_2 -> conv3_2
I0419 22:40:45.373383  6086 net.cpp:150] Setting up conv3_2
I0419 22:40:45.373401  6086 net.cpp:157] Top shape: 1 256 340 200 (17408000)
I0419 22:40:45.373406  6086 net.cpp:165] Memory required for data: 1984512000
I0419 22:40:45.373415  6086 layer_factory.hpp:77] Creating layer relu3_2
I0419 22:40:45.373427  6086 net.cpp:106] Creating Layer relu3_2
I0419 22:40:45.373438  6086 net.cpp:454] relu3_2 <- conv3_2
I0419 22:40:45.373445  6086 net.cpp:397] relu3_2 -> conv3_2 (in-place)
I0419 22:40:45.373455  6086 net.cpp:150] Setting up relu3_2
I0419 22:40:45.373462  6086 net.cpp:157] Top shape: 1 256 340 200 (17408000)
I0419 22:40:45.373468  6086 net.cpp:165] Memory required for data: 2054144000
I0419 22:40:45.373473  6086 layer_factory.hpp:77] Creating layer conv3_3
I0419 22:40:45.373486  6086 net.cpp:106] Creating Layer conv3_3
I0419 22:40:45.373497  6086 net.cpp:454] conv3_3 <- conv3_2
I0419 22:40:45.373504  6086 net.cpp:411] conv3_3 -> conv3_3
I0419 22:40:45.375185  6086 net.cpp:150] Setting up conv3_3
I0419 22:40:45.375203  6086 net.cpp:157] Top shape: 1 256 340 200 (17408000)
I0419 22:40:45.375208  6086 net.cpp:165] Memory required for data: 2123776000
I0419 22:40:45.375217  6086 layer_factory.hpp:77] Creating layer relu3_3
I0419 22:40:45.375228  6086 net.cpp:106] Creating Layer relu3_3
I0419 22:40:45.375239  6086 net.cpp:454] relu3_3 <- conv3_3
I0419 22:40:45.375247  6086 net.cpp:397] relu3_3 -> conv3_3 (in-place)
I0419 22:40:45.375255  6086 net.cpp:150] Setting up relu3_3
I0419 22:40:45.375263  6086 net.cpp:157] Top shape: 1 256 340 200 (17408000)
I0419 22:40:45.375268  6086 net.cpp:165] Memory required for data: 2193408000
I0419 22:40:45.375274  6086 layer_factory.hpp:77] Creating layer pool3
I0419 22:40:45.375288  6086 net.cpp:106] Creating Layer pool3
I0419 22:40:45.375296  6086 net.cpp:454] pool3 <- conv3_3
I0419 22:40:45.375303  6086 net.cpp:411] pool3 -> pool3
I0419 22:40:45.375346  6086 net.cpp:150] Setting up pool3
I0419 22:40:45.375357  6086 net.cpp:157] Top shape: 1 256 170 100 (4352000)
I0419 22:40:45.375362  6086 net.cpp:165] Memory required for data: 2210816000
I0419 22:40:45.375366  6086 layer_factory.hpp:77] Creating layer conv4_1
I0419 22:40:45.375378  6086 net.cpp:106] Creating Layer conv4_1
I0419 22:40:45.375388  6086 net.cpp:454] conv4_1 <- pool3
I0419 22:40:45.375398  6086 net.cpp:411] conv4_1 -> conv4_1
I0419 22:40:45.378906  6086 net.cpp:150] Setting up conv4_1
I0419 22:40:45.378926  6086 net.cpp:157] Top shape: 1 512 170 100 (8704000)
I0419 22:40:45.378931  6086 net.cpp:165] Memory required for data: 2245632000
I0419 22:40:45.378940  6086 layer_factory.hpp:77] Creating layer relu4_1
I0419 22:40:45.378955  6086 net.cpp:106] Creating Layer relu4_1
I0419 22:40:45.378962  6086 net.cpp:454] relu4_1 <- conv4_1
I0419 22:40:45.378968  6086 net.cpp:397] relu4_1 -> conv4_1 (in-place)
I0419 22:40:45.378979  6086 net.cpp:150] Setting up relu4_1
I0419 22:40:45.378986  6086 net.cpp:157] Top shape: 1 512 170 100 (8704000)
I0419 22:40:45.378991  6086 net.cpp:165] Memory required for data: 2280448000
I0419 22:40:45.378996  6086 layer_factory.hpp:77] Creating layer conv4_2
I0419 22:40:45.379011  6086 net.cpp:106] Creating Layer conv4_2
I0419 22:40:45.379021  6086 net.cpp:454] conv4_2 <- conv4_1
I0419 22:40:45.379029  6086 net.cpp:411] conv4_2 -> conv4_2
I0419 22:40:45.384685  6086 net.cpp:150] Setting up conv4_2
I0419 22:40:45.384706  6086 net.cpp:157] Top shape: 1 512 170 100 (8704000)
I0419 22:40:45.384709  6086 net.cpp:165] Memory required for data: 2315264000
I0419 22:40:45.384727  6086 layer_factory.hpp:77] Creating layer relu4_2
I0419 22:40:45.384739  6086 net.cpp:106] Creating Layer relu4_2
I0419 22:40:45.384744  6086 net.cpp:454] relu4_2 <- conv4_2
I0419 22:40:45.384754  6086 net.cpp:397] relu4_2 -> conv4_2 (in-place)
I0419 22:40:45.384763  6086 net.cpp:150] Setting up relu4_2
I0419 22:40:45.384776  6086 net.cpp:157] Top shape: 1 512 170 100 (8704000)
I0419 22:40:45.384780  6086 net.cpp:165] Memory required for data: 2350080000
I0419 22:40:45.384785  6086 layer_factory.hpp:77] Creating layer conv4_3
I0419 22:40:45.384801  6086 net.cpp:106] Creating Layer conv4_3
I0419 22:40:45.384811  6086 net.cpp:454] conv4_3 <- conv4_2
I0419 22:40:45.384822  6086 net.cpp:411] conv4_3 -> conv4_3
I0419 22:40:45.390467  6086 net.cpp:150] Setting up conv4_3
I0419 22:40:45.390486  6086 net.cpp:157] Top shape: 1 512 170 100 (8704000)
I0419 22:40:45.390491  6086 net.cpp:165] Memory required for data: 2384896000
I0419 22:40:45.390501  6086 layer_factory.hpp:77] Creating layer relu4_3
I0419 22:40:45.390511  6086 net.cpp:106] Creating Layer relu4_3
I0419 22:40:45.390518  6086 net.cpp:454] relu4_3 <- conv4_3
I0419 22:40:45.390528  6086 net.cpp:397] relu4_3 -> conv4_3 (in-place)
I0419 22:40:45.390539  6086 net.cpp:150] Setting up relu4_3
I0419 22:40:45.390547  6086 net.cpp:157] Top shape: 1 512 170 100 (8704000)
I0419 22:40:45.390552  6086 net.cpp:165] Memory required for data: 2419712000
I0419 22:40:45.390559  6086 layer_factory.hpp:77] Creating layer pool4
I0419 22:40:45.390568  6086 net.cpp:106] Creating Layer pool4
I0419 22:40:45.390573  6086 net.cpp:454] pool4 <- conv4_3
I0419 22:40:45.390580  6086 net.cpp:411] pool4 -> pool4
I0419 22:40:45.390628  6086 net.cpp:150] Setting up pool4
I0419 22:40:45.390640  6086 net.cpp:157] Top shape: 1 512 85 50 (2176000)
I0419 22:40:45.390645  6086 net.cpp:165] Memory required for data: 2428416000
I0419 22:40:45.390650  6086 layer_factory.hpp:77] Creating layer conv5_1
I0419 22:40:45.390661  6086 net.cpp:106] Creating Layer conv5_1
I0419 22:40:45.390671  6086 net.cpp:454] conv5_1 <- pool4
I0419 22:40:45.390679  6086 net.cpp:411] conv5_1 -> conv5_1
I0419 22:40:45.397173  6086 net.cpp:150] Setting up conv5_1
I0419 22:40:45.397197  6086 net.cpp:157] Top shape: 1 512 85 50 (2176000)
I0419 22:40:45.397202  6086 net.cpp:165] Memory required for data: 2437120000
I0419 22:40:45.397213  6086 layer_factory.hpp:77] Creating layer relu5_1
I0419 22:40:45.397222  6086 net.cpp:106] Creating Layer relu5_1
I0419 22:40:45.397229  6086 net.cpp:454] relu5_1 <- conv5_1
I0419 22:40:45.397236  6086 net.cpp:397] relu5_1 -> conv5_1 (in-place)
I0419 22:40:45.397248  6086 net.cpp:150] Setting up relu5_1
I0419 22:40:45.397258  6086 net.cpp:157] Top shape: 1 512 85 50 (2176000)
I0419 22:40:45.397263  6086 net.cpp:165] Memory required for data: 2445824000
I0419 22:40:45.397267  6086 layer_factory.hpp:77] Creating layer conv5_2
I0419 22:40:45.397282  6086 net.cpp:106] Creating Layer conv5_2
I0419 22:40:45.397292  6086 net.cpp:454] conv5_2 <- conv5_1
I0419 22:40:45.397303  6086 net.cpp:411] conv5_2 -> conv5_2
I0419 22:40:45.403014  6086 net.cpp:150] Setting up conv5_2
I0419 22:40:45.403034  6086 net.cpp:157] Top shape: 1 512 85 50 (2176000)
I0419 22:40:45.403040  6086 net.cpp:165] Memory required for data: 2454528000
I0419 22:40:45.403049  6086 layer_factory.hpp:77] Creating layer relu5_2
I0419 22:40:45.403059  6086 net.cpp:106] Creating Layer relu5_2
I0419 22:40:45.403066  6086 net.cpp:454] relu5_2 <- conv5_2
I0419 22:40:45.403074  6086 net.cpp:397] relu5_2 -> conv5_2 (in-place)
I0419 22:40:45.403087  6086 net.cpp:150] Setting up relu5_2
I0419 22:40:45.403095  6086 net.cpp:157] Top shape: 1 512 85 50 (2176000)
I0419 22:40:45.403100  6086 net.cpp:165] Memory required for data: 2463232000
I0419 22:40:45.403105  6086 layer_factory.hpp:77] Creating layer conv5_3
I0419 22:40:45.403115  6086 net.cpp:106] Creating Layer conv5_3
I0419 22:40:45.403120  6086 net.cpp:454] conv5_3 <- conv5_2
I0419 22:40:45.403131  6086 net.cpp:411] conv5_3 -> conv5_3
I0419 22:40:45.408788  6086 net.cpp:150] Setting up conv5_3
I0419 22:40:45.408809  6086 net.cpp:157] Top shape: 1 512 85 50 (2176000)
I0419 22:40:45.408814  6086 net.cpp:165] Memory required for data: 2471936000
I0419 22:40:45.408824  6086 layer_factory.hpp:77] Creating layer relu5_3
I0419 22:40:45.408835  6086 net.cpp:106] Creating Layer relu5_3
I0419 22:40:45.408843  6086 net.cpp:454] relu5_3 <- conv5_3
I0419 22:40:45.408850  6086 net.cpp:397] relu5_3 -> conv5_3 (in-place)
I0419 22:40:45.408860  6086 net.cpp:150] Setting up relu5_3
I0419 22:40:45.408871  6086 net.cpp:157] Top shape: 1 512 85 50 (2176000)
I0419 22:40:45.408875  6086 net.cpp:165] Memory required for data: 2480640000
I0419 22:40:45.408880  6086 layer_factory.hpp:77] Creating layer conv5_3_relu5_3_0_split
I0419 22:40:45.408895  6086 net.cpp:106] Creating Layer conv5_3_relu5_3_0_split
I0419 22:40:45.408905  6086 net.cpp:454] conv5_3_relu5_3_0_split <- conv5_3
I0419 22:40:45.408915  6086 net.cpp:411] conv5_3_relu5_3_0_split -> conv5_3_relu5_3_0_split_0
I0419 22:40:45.408924  6086 net.cpp:411] conv5_3_relu5_3_0_split -> conv5_3_relu5_3_0_split_1
I0419 22:40:45.408972  6086 net.cpp:150] Setting up conv5_3_relu5_3_0_split
I0419 22:40:45.408983  6086 net.cpp:157] Top shape: 1 512 85 50 (2176000)
I0419 22:40:45.408989  6086 net.cpp:157] Top shape: 1 512 85 50 (2176000)
I0419 22:40:45.408993  6086 net.cpp:165] Memory required for data: 2498048000
I0419 22:40:45.408998  6086 layer_factory.hpp:77] Creating layer rpn_conv/3x3
I0419 22:40:45.409015  6086 net.cpp:106] Creating Layer rpn_conv/3x3
I0419 22:40:45.409025  6086 net.cpp:454] rpn_conv/3x3 <- conv5_3_relu5_3_0_split_0
I0419 22:40:45.409035  6086 net.cpp:411] rpn_conv/3x3 -> rpn/output
I0419 22:40:45.477712  6086 net.cpp:150] Setting up rpn_conv/3x3
I0419 22:40:45.477744  6086 net.cpp:157] Top shape: 1 512 85 50 (2176000)
I0419 22:40:45.477749  6086 net.cpp:165] Memory required for data: 2506752000
I0419 22:40:45.477761  6086 layer_factory.hpp:77] Creating layer rpn_relu/3x3
I0419 22:40:45.477783  6086 net.cpp:106] Creating Layer rpn_relu/3x3
I0419 22:40:45.477794  6086 net.cpp:454] rpn_relu/3x3 <- rpn/output
I0419 22:40:45.477803  6086 net.cpp:397] rpn_relu/3x3 -> rpn/output (in-place)
I0419 22:40:45.477818  6086 net.cpp:150] Setting up rpn_relu/3x3
I0419 22:40:45.477825  6086 net.cpp:157] Top shape: 1 512 85 50 (2176000)
I0419 22:40:45.477830  6086 net.cpp:165] Memory required for data: 2515456000
I0419 22:40:45.477835  6086 layer_factory.hpp:77] Creating layer rpn/output_rpn_relu/3x3_0_split
I0419 22:40:45.477845  6086 net.cpp:106] Creating Layer rpn/output_rpn_relu/3x3_0_split
I0419 22:40:45.477849  6086 net.cpp:454] rpn/output_rpn_relu/3x3_0_split <- rpn/output
I0419 22:40:45.477859  6086 net.cpp:411] rpn/output_rpn_relu/3x3_0_split -> rpn/output_rpn_relu/3x3_0_split_0
I0419 22:40:45.477874  6086 net.cpp:411] rpn/output_rpn_relu/3x3_0_split -> rpn/output_rpn_relu/3x3_0_split_1
I0419 22:40:45.477916  6086 net.cpp:150] Setting up rpn/output_rpn_relu/3x3_0_split
I0419 22:40:45.477931  6086 net.cpp:157] Top shape: 1 512 85 50 (2176000)
I0419 22:40:45.477937  6086 net.cpp:157] Top shape: 1 512 85 50 (2176000)
I0419 22:40:45.477941  6086 net.cpp:165] Memory required for data: 2532864000
I0419 22:40:45.477947  6086 layer_factory.hpp:77] Creating layer rpn_cls_score
I0419 22:40:45.477962  6086 net.cpp:106] Creating Layer rpn_cls_score
I0419 22:40:45.477967  6086 net.cpp:454] rpn_cls_score <- rpn/output_rpn_relu/3x3_0_split_0
I0419 22:40:45.477977  6086 net.cpp:411] rpn_cls_score -> rpn_cls_score
I0419 22:40:45.478461  6086 net.cpp:150] Setting up rpn_cls_score
I0419 22:40:45.478476  6086 net.cpp:157] Top shape: 1 18 85 50 (76500)
I0419 22:40:45.478480  6086 net.cpp:165] Memory required for data: 2533170000
I0419 22:40:45.478489  6086 layer_factory.hpp:77] Creating layer rpn_bbox_pred
I0419 22:40:45.478504  6086 net.cpp:106] Creating Layer rpn_bbox_pred
I0419 22:40:45.478509  6086 net.cpp:454] rpn_bbox_pred <- rpn/output_rpn_relu/3x3_0_split_1
I0419 22:40:45.478520  6086 net.cpp:411] rpn_bbox_pred -> rpn_bbox_pred
I0419 22:40:45.479257  6086 net.cpp:150] Setting up rpn_bbox_pred
I0419 22:40:45.479271  6086 net.cpp:157] Top shape: 1 36 85 50 (153000)
I0419 22:40:45.479276  6086 net.cpp:165] Memory required for data: 2533782000
I0419 22:40:45.479285  6086 layer_factory.hpp:77] Creating layer rpn_cls_score_reshape
I0419 22:40:45.479298  6086 net.cpp:106] Creating Layer rpn_cls_score_reshape
I0419 22:40:45.479305  6086 net.cpp:454] rpn_cls_score_reshape <- rpn_cls_score
I0419 22:40:45.479316  6086 net.cpp:411] rpn_cls_score_reshape -> rpn_cls_score_reshape
I0419 22:40:45.479359  6086 net.cpp:150] Setting up rpn_cls_score_reshape
I0419 22:40:45.479370  6086 net.cpp:157] Top shape: 1 2 765 50 (76500)
I0419 22:40:45.479374  6086 net.cpp:165] Memory required for data: 2534088000
I0419 22:40:45.479379  6086 layer_factory.hpp:77] Creating layer rpn_cls_prob
I0419 22:40:45.479391  6086 net.cpp:106] Creating Layer rpn_cls_prob
I0419 22:40:45.479400  6086 net.cpp:454] rpn_cls_prob <- rpn_cls_score_reshape
I0419 22:40:45.479408  6086 net.cpp:411] rpn_cls_prob -> rpn_cls_prob
I0419 22:40:45.479475  6086 net.cpp:150] Setting up rpn_cls_prob
I0419 22:40:45.479487  6086 net.cpp:157] Top shape: 1 2 765 50 (76500)
I0419 22:40:45.479491  6086 net.cpp:165] Memory required for data: 2534394000
I0419 22:40:45.479496  6086 layer_factory.hpp:77] Creating layer rpn_cls_prob_reshape
I0419 22:40:45.479516  6086 net.cpp:106] Creating Layer rpn_cls_prob_reshape
I0419 22:40:45.479526  6086 net.cpp:454] rpn_cls_prob_reshape <- rpn_cls_prob
I0419 22:40:45.479532  6086 net.cpp:411] rpn_cls_prob_reshape -> rpn_cls_prob_reshape
I0419 22:40:45.479565  6086 net.cpp:150] Setting up rpn_cls_prob_reshape
I0419 22:40:45.479576  6086 net.cpp:157] Top shape: 1 18 85 50 (76500)
I0419 22:40:45.479581  6086 net.cpp:165] Memory required for data: 2534700000
I0419 22:40:45.479585  6086 layer_factory.hpp:77] Creating layer proposal
I0419 22:40:45.480067  6086 net.cpp:106] Creating Layer proposal
I0419 22:40:45.480085  6086 net.cpp:454] proposal <- rpn_cls_prob_reshape
I0419 22:40:45.480093  6086 net.cpp:454] proposal <- rpn_bbox_pred
I0419 22:40:45.480098  6086 net.cpp:454] proposal <- im_info
I0419 22:40:45.480108  6086 net.cpp:411] proposal -> rois
I0419 22:40:45.480788  6086 net.cpp:150] Setting up proposal
I0419 22:40:45.480810  6086 net.cpp:157] Top shape: 1 5 (5)
I0419 22:40:45.480815  6086 net.cpp:165] Memory required for data: 2534700020
I0419 22:40:45.480821  6086 layer_factory.hpp:77] Creating layer roi_pool5
I0419 22:40:45.480834  6086 net.cpp:106] Creating Layer roi_pool5
I0419 22:40:45.480846  6086 net.cpp:454] roi_pool5 <- conv5_3_relu5_3_0_split_1
I0419 22:40:45.480854  6086 net.cpp:454] roi_pool5 <- rois
I0419 22:40:45.480864  6086 net.cpp:411] roi_pool5 -> pool5
I0419 22:40:45.480882  6086 roi_pooling_layer.cpp:30] Spatial scale: 0.0625
I0419 22:40:45.480947  6086 net.cpp:150] Setting up roi_pool5
I0419 22:40:45.480958  6086 net.cpp:157] Top shape: 1 512 7 7 (25088)
I0419 22:40:45.480963  6086 net.cpp:165] Memory required for data: 2534800372
I0419 22:40:45.480968  6086 layer_factory.hpp:77] Creating layer fc6
I0419 22:40:45.480983  6086 net.cpp:106] Creating Layer fc6
I0419 22:40:45.480993  6086 net.cpp:454] fc6 <- pool5
I0419 22:40:45.481000  6086 net.cpp:411] fc6 -> fc6
I0419 22:40:45.750430  6086 net.cpp:150] Setting up fc6
I0419 22:40:45.750473  6086 net.cpp:157] Top shape: 1 4096 (4096)
I0419 22:40:45.750479  6086 net.cpp:165] Memory required for data: 2534816756
I0419 22:40:45.750505  6086 layer_factory.hpp:77] Creating layer relu6
I0419 22:40:45.750530  6086 net.cpp:106] Creating Layer relu6
I0419 22:40:45.750543  6086 net.cpp:454] relu6 <- fc6
I0419 22:40:45.750553  6086 net.cpp:397] relu6 -> fc6 (in-place)
I0419 22:40:45.750569  6086 net.cpp:150] Setting up relu6
I0419 22:40:45.750577  6086 net.cpp:157] Top shape: 1 4096 (4096)
I0419 22:40:45.750581  6086 net.cpp:165] Memory required for data: 2534833140
I0419 22:40:45.750586  6086 layer_factory.hpp:77] Creating layer drop6
I0419 22:40:45.750599  6086 net.cpp:106] Creating Layer drop6
I0419 22:40:45.750603  6086 net.cpp:454] drop6 <- fc6
I0419 22:40:45.750613  6086 net.cpp:397] drop6 -> fc6 (in-place)
I0419 22:40:45.750649  6086 net.cpp:150] Setting up drop6
I0419 22:40:45.750661  6086 net.cpp:157] Top shape: 1 4096 (4096)
I0419 22:40:45.750665  6086 net.cpp:165] Memory required for data: 2534849524
I0419 22:40:45.750670  6086 layer_factory.hpp:77] Creating layer fc7
I0419 22:40:45.750684  6086 net.cpp:106] Creating Layer fc7
I0419 22:40:45.750694  6086 net.cpp:454] fc7 <- fc6
I0419 22:40:45.750700  6086 net.cpp:411] fc7 -> fc7
I0419 22:40:45.794347  6086 net.cpp:150] Setting up fc7
I0419 22:40:45.794384  6086 net.cpp:157] Top shape: 1 4096 (4096)
I0419 22:40:45.794389  6086 net.cpp:165] Memory required for data: 2534865908
I0419 22:40:45.794404  6086 layer_factory.hpp:77] Creating layer relu7
I0419 22:40:45.794417  6086 net.cpp:106] Creating Layer relu7
I0419 22:40:45.794430  6086 net.cpp:454] relu7 <- fc7
I0419 22:40:45.794441  6086 net.cpp:397] relu7 -> fc7 (in-place)
I0419 22:40:45.794459  6086 net.cpp:150] Setting up relu7
I0419 22:40:45.794471  6086 net.cpp:157] Top shape: 1 4096 (4096)
I0419 22:40:45.794476  6086 net.cpp:165] Memory required for data: 2534882292
I0419 22:40:45.794481  6086 layer_factory.hpp:77] Creating layer drop7
I0419 22:40:45.794490  6086 net.cpp:106] Creating Layer drop7
I0419 22:40:45.794498  6086 net.cpp:454] drop7 <- fc7
I0419 22:40:45.794505  6086 net.cpp:397] drop7 -> fc7 (in-place)
I0419 22:40:45.794536  6086 net.cpp:150] Setting up drop7
I0419 22:40:45.794548  6086 net.cpp:157] Top shape: 1 4096 (4096)
I0419 22:40:45.794553  6086 net.cpp:165] Memory required for data: 2534898676
I0419 22:40:45.794556  6086 layer_factory.hpp:77] Creating layer fc7_drop7_0_split
I0419 22:40:45.794564  6086 net.cpp:106] Creating Layer fc7_drop7_0_split
I0419 22:40:45.794574  6086 net.cpp:454] fc7_drop7_0_split <- fc7
I0419 22:40:45.794585  6086 net.cpp:411] fc7_drop7_0_split -> fc7_drop7_0_split_0
I0419 22:40:45.794600  6086 net.cpp:411] fc7_drop7_0_split -> fc7_drop7_0_split_1
I0419 22:40:45.794643  6086 net.cpp:150] Setting up fc7_drop7_0_split
I0419 22:40:45.794654  6086 net.cpp:157] Top shape: 1 4096 (4096)
I0419 22:40:45.794661  6086 net.cpp:157] Top shape: 1 4096 (4096)
I0419 22:40:45.794664  6086 net.cpp:165] Memory required for data: 2534931444
I0419 22:40:45.794669  6086 layer_factory.hpp:77] Creating layer cls_score
I0419 22:40:45.794687  6086 net.cpp:106] Creating Layer cls_score
I0419 22:40:45.794695  6086 net.cpp:454] cls_score <- fc7_drop7_0_split_0
I0419 22:40:45.794705  6086 net.cpp:411] cls_score -> cls_score
I0419 22:40:45.800245  6086 net.cpp:150] Setting up cls_score
I0419 22:40:45.800261  6086 net.cpp:157] Top shape: 1 44 (44)
I0419 22:40:45.800266  6086 net.cpp:165] Memory required for data: 2534931620
I0419 22:40:45.800276  6086 layer_factory.hpp:77] Creating layer bbox_pred
I0419 22:40:45.800298  6086 net.cpp:106] Creating Layer bbox_pred
I0419 22:40:45.800305  6086 net.cpp:454] bbox_pred <- fc7_drop7_0_split_1
I0419 22:40:45.800313  6086 net.cpp:411] bbox_pred -> bbox_pred
I0419 22:40:45.821027  6086 net.cpp:150] Setting up bbox_pred
I0419 22:40:45.821046  6086 net.cpp:157] Top shape: 1 176 (176)
I0419 22:40:45.821051  6086 net.cpp:165] Memory required for data: 2534932324
I0419 22:40:45.821061  6086 layer_factory.hpp:77] Creating layer cls_prob
I0419 22:40:45.821070  6086 net.cpp:106] Creating Layer cls_prob
I0419 22:40:45.821074  6086 net.cpp:454] cls_prob <- cls_score
I0419 22:40:45.821084  6086 net.cpp:411] cls_prob -> cls_prob
I0419 22:40:45.821151  6086 net.cpp:150] Setting up cls_prob
I0419 22:40:45.821164  6086 net.cpp:157] Top shape: 1 44 (44)
I0419 22:40:45.821169  6086 net.cpp:165] Memory required for data: 2534932500
I0419 22:40:45.821174  6086 net.cpp:228] cls_prob does not need backward computation.
I0419 22:40:45.821179  6086 net.cpp:228] bbox_pred does not need backward computation.
I0419 22:40:45.821183  6086 net.cpp:228] cls_score does not need backward computation.
I0419 22:40:45.821188  6086 net.cpp:228] fc7_drop7_0_split does not need backward computation.
…
