…
weight_decay: 0.0005
stepsize: 60000
snapshot: 0
snapshot_prefix: "zf_rpn"
average_loss: 100
I0419 15:46:18.216732  3386 solver.cpp:81] Creating training net from train_net file: models/pascal_voc/ZF/faster_rcnn_alt_opt/stage1_rpn_train.pt
I0419 15:46:18.217474  3386 net.cpp:49] Initializing net from parameters: 
name: "ZF"
state {
  phase: TRAIN
}
layer {
  name: "input-data"
  type: "Python"
  top: "data"
  top: "im_info"
  top: "gt_boxes"
  python_param {
    module: "roi_data_layer.layer"
    layer: "RoIDataLayer"
    param_str: "\'num_classes\': 44"
  }
}
layer {
  name: "conv1"
  type: "Convolution"
  bottom: "data"
  top: "conv1"
  param {
    lr_mult: 1
  }
  param {
    lr_mult: 2
  }
  convolution_param {
    num_output: 96
    pad: 3
    kernel_size: 7
    stride: 2
  }
}
layer {
  name: "relu1"
  type: "ReLU"
  bottom: "conv1"
  top: "conv1"
}
layer {
  name: "norm1"
  type: "LRN"
  bottom: "conv1"
  top: "norm1"
  lrn_param {
    local_size: 3
    alpha: 5e-05
    beta: 0.75
    norm_region: WITHIN_CHANNEL
    engine: CAFFE
  }
}
layer {
  name: "pool1"
  type: "Pooling"
  bottom: "norm1"
  top: "pool1"
  pooling_param {
    pool: MAX
    kernel_size: 3
    stride: 2
    pad: 1
  }
}
layer {
  name: "conv2"
  type: "Convolution"
  bottom: "pool1"
  top: "conv2"
  param {
    lr_mult: 1
  }
  param {
    lr_mult: 2
  }
  convolution_param {
    num_output: 256
    pad: 2
    kernel_size: 5
    stride: 2
  }
}
layer {
  name: "relu2"
  type: "ReLU"
  bottom: "conv2"
  top: "conv2"
}
layer {
  name: "norm2"
  type: "LRN"
  bottom: "conv2"
  top: "norm2"
  lrn_param {
    local_size: 3
    alpha: 5e-05
    beta: 0.75
    norm_region: WITHIN_CHANNEL
    engine: CAFFE
  }
}
layer {
  name: "pool2"
  type: "Pooling"
  bottom: "norm2"
  top: "pool2"
  pooling_param {
    pool: MAX
    kernel_size: 3
    stride: 2
    pad: 1
  }
}
layer {
  name: "conv3"
  type: "Convolution"
  bottom: "pool2"
  top: "conv3"
  param {
    lr_mult: 1
  }
  param {
    lr_mult: 2
  }
  convolution_param {
    num_output: 384
    pad: 1
    kernel_size: 3
    stride: 1
  }
}
layer {
  name: "relu3"
  type: "ReLU"
  bottom: "conv3"
  top: "conv3"
}
layer {
  name: "conv4"
  type: "Convolution"
  bottom: "conv3"
  top: "conv4"
  param {
    lr_mult: 1
  }
  param {
    lr_mult: 2
  }
  convolution_param {
    num_output: 384
    pad: 1
    kernel_size: 3
    stride: 1
  }
}
layer {
  name: "relu4"
  type: "ReLU"
  bottom: "conv4"
  top: "conv4"
}
layer {
  name: "conv5"
  type: "Convolution"
  bottom: "conv4"
  top: "conv5"
  param {
    lr_mult: 1
  }
  param {
    lr_mult: 2
  }
  convolution_param {
    num_output: 256
    pad: 1
    kernel_size: 3
    stride: 1
  }
}
layer {
  name: "relu5"
  type: "ReLU"
  bottom: "conv5"
  top: "conv5"
}
layer {
  name: "rpn_conv1"
  type: "Convolution"
  bottom: "conv5"
  top: "rpn_conv1"
  param {
    lr_mult: 1
  }
  param {
    lr_mult: 2
  }
  convolution_param {
    num_output: 256
    pad: 1
    kernel_size: 3
    stride: 1
    weight_filler {
      type: "gaussian"
      std: 0.01
    }
    bias_filler {
      type: "constant"
      value: 0
    }
  }
}
layer {
  name: "rpn_relu1"
  type: "ReLU"
  bottom: "rpn_conv1"
  top: "rpn_conv1"
}
layer {
  name: "rpn_cls_score"
  type: "Convolution"
  bottom: "rpn_conv1"
  top: "rpn_cls_score"
  param {
    lr_mult: 1
  }
  param {
    lr_mult: 2
  }
  convolution_param {
    num_output: 18
    pad: 0
    kernel_size: 1
    stride: 1
    weight_filler {
      type: "gaussian"
      std: 0.01
    }
    bias_filler {
      type: "constant"
      value: 0
    }
  }
}
layer {
  name: "rpn_bbox_pred"
  type: "Convolution"
  bottom: "rpn_conv1"
  top: "rpn_bbox_pred"
  param {
    lr_mult: 1
  }
  param {
    lr_mult: 2
  }
  convolution_param {
    num_output: 36
    pad: 0
    kernel_size: 1
    stride: 1
    weight_filler {
      type: "gaussian"
      std: 0.01
    }
    bias_filler {
      type: "constant"
      value: 0
    }
  }
}
layer {
  name: "rpn_cls_score_reshape"
  type: "Reshape"
  bottom: "rpn_cls_score"
  top: "rpn_cls_score_reshape"
  reshape_param {
    shape {
      dim: 0
      dim: 2
      dim: -1
      dim: 0
    }
  }
}
layer {
  name: "rpn-data"
  type: "Python"
  bottom: "rpn_cls_score"
  bottom: "gt_boxes"
  bottom: "im_info"
  bottom: "data"
  top: "rpn_labels"
  top: "rpn_bbox_targets"
  top: "rpn_bbox_inside_weights"
  top: "rpn_bbox_outside_weights"
  python_param {
    module: "rpn.anchor_target_layer"
    layer: "AnchorTargetLayer"
    param_str: "\'feat_stride\': 16"
  }
}
layer {
  name: "rpn_loss_cls"
  type: "SoftmaxWithLoss"
  bottom: "rpn_cls_score_reshape"
  bottom: "rpn_labels"
  top: "rpn_cls_loss"
  loss_weight: 1
  propagate_down: true
  propagate_down: false
  loss_param {
    ignore_label: -1
    normalize: true
  }
}
layer {
  name: "rpn_loss_bbox"
  type: "SmoothL1Loss"
  bottom: "rpn_bbox_pred"
  bottom: "rpn_bbox_targets"
  bottom: "rpn_bbox_inside_weights"
  bottom: "rpn_bbox_outside_weights"
  top: "rpn_loss_bbox"
  loss_weight: 1
  smooth_l1_loss_param {
    sigma: 3
  }
}
layer {
  name: "dummy_roi_pool_conv5"
  type: "DummyData"
  top: "dummy_roi_pool_conv5"
  dummy_data_param {
    data_filler {
      type: "gaussian"
      std: 0.01
    }
    shape {
      dim: 1
      dim: 9216
    }
  }
}
layer {
  name: "fc6"
  type: "InnerProduct"
  bottom: "dummy_roi_pool_conv5"
  top: "fc6"
  param {
    lr_mult: 0
    decay_mult: 0
  }
  param {
    lr_mult: 0
    decay_mult: 0
  }
  inner_product_param {
    num_output: 4096
  }
}
layer {
  name: "relu6"
  type: "ReLU"
  bottom: "fc6"
  top: "fc6"
}
layer {
  name: "fc7"
  type: "InnerProduct"
  bottom: "fc6"
  top: "fc7"
  param {
    lr_mult: 0
    decay_mult: 0
  }
  param {
    lr_mult: 0
    decay_mult: 0
  }
  inner_product_param {
    num_output: 4096
  }
}
layer {
  name: "silence_fc7"
  type: "Silence"
  bottom: "fc7"
}
I0419 15:46:18.217630  3386 layer_factory.hpp:77] Creating layer input-data
I0419 15:46:18.218180  3386 net.cpp:106] Creating Layer input-data
I0419 15:46:18.218192  3386 net.cpp:411] input-data -> data
I0419 15:46:18.218207  3386 net.cpp:411] input-data -> im_info
I0419 15:46:18.218212  3386 net.cpp:411] input-data -> gt_boxes
RoiDataLayer: name_to_top: {'gt_boxes': 2, 'data': 0, 'im_info': 1}
I0419 15:46:18.234274  3386 net.cpp:150] Setting up input-data
I0419 15:46:18.234299  3386 net.cpp:157] Top shape: 1 3 600 1000 (1800000)
I0419 15:46:18.234308  3386 net.cpp:157] Top shape: 1 3 (3)
I0419 15:46:18.234313  3386 net.cpp:157] Top shape: 1 4 (4)
I0419 15:46:18.234318  3386 net.cpp:165] Memory required for data: 7200028
I0419 15:46:18.234323  3386 layer_factory.hpp:77] Creating layer data_input-data_0_split
I0419 15:46:18.234361  3386 net.cpp:106] Creating Layer data_input-data_0_split
I0419 15:46:18.234369  3386 net.cpp:454] data_input-data_0_split <- data
I0419 15:46:18.234381  3386 net.cpp:411] data_input-data_0_split -> data_input-data_0_split_0
I0419 15:46:18.234391  3386 net.cpp:411] data_input-data_0_split -> data_input-data_0_split_1
I0419 15:46:18.234441  3386 net.cpp:150] Setting up data_input-data_0_split
I0419 15:46:18.234453  3386 net.cpp:157] Top shape: 1 3 600 1000 (1800000)
I0419 15:46:18.234460  3386 net.cpp:157] Top shape: 1 3 600 1000 (1800000)
I0419 15:46:18.234464  3386 net.cpp:165] Memory required for data: 21600028
I0419 15:46:18.234468  3386 layer_factory.hpp:77] Creating layer conv1
I0419 15:46:18.234488  3386 net.cpp:106] Creating Layer conv1
I0419 15:46:18.234498  3386 net.cpp:454] conv1 <- data_input-data_0_split_0
I0419 15:46:18.234508  3386 net.cpp:411] conv1 -> conv1
I0419 15:46:18.235867  3386 net.cpp:150] Setting up conv1
I0419 15:46:18.235887  3386 net.cpp:157] Top shape: 1 96 300 500 (14400000)
I0419 15:46:18.235891  3386 net.cpp:165] Memory required for data: 79200028
I0419 15:46:18.235914  3386 layer_factory.hpp:77] Creating layer relu1
I0419 15:46:18.235927  3386 net.cpp:106] Creating Layer relu1
I0419 15:46:18.235936  3386 net.cpp:454] relu1 <- conv1
I0419 15:46:18.235946  3386 net.cpp:397] relu1 -> conv1 (in-place)
I0419 15:46:18.235960  3386 net.cpp:150] Setting up relu1
I0419 15:46:18.235970  3386 net.cpp:157] Top shape: 1 96 300 500 (14400000)
I0419 15:46:18.235973  3386 net.cpp:165] Memory required for data: 136800028
I0419 15:46:18.235977  3386 layer_factory.hpp:77] Creating layer norm1
I0419 15:46:18.235987  3386 net.cpp:106] Creating Layer norm1
I0419 15:46:18.235993  3386 net.cpp:454] norm1 <- conv1
I0419 15:46:18.235999  3386 net.cpp:411] norm1 -> norm1
I0419 15:46:18.236111  3386 net.cpp:150] Setting up norm1
I0419 15:46:18.236125  3386 net.cpp:157] Top shape: 1 96 300 500 (14400000)
I0419 15:46:18.236130  3386 net.cpp:165] Memory required for data: 194400028
I0419 15:46:18.236135  3386 layer_factory.hpp:77] Creating layer pool1
I0419 15:46:18.236145  3386 net.cpp:106] Creating Layer pool1
I0419 15:46:18.236150  3386 net.cpp:454] pool1 <- norm1
I0419 15:46:18.236156  3386 net.cpp:411] pool1 -> pool1
I0419 15:46:18.236202  3386 net.cpp:150] Setting up pool1
I0419 15:46:18.236213  3386 net.cpp:157] Top shape: 1 96 151 251 (3638496)
I0419 15:46:18.236218  3386 net.cpp:165] Memory required for data: 208954012
I0419 15:46:18.236222  3386 layer_factory.hpp:77] Creating layer conv2
I0419 15:46:18.236232  3386 net.cpp:106] Creating Layer conv2
I0419 15:46:18.236237  3386 net.cpp:454] conv2 <- pool1
I0419 15:46:18.236243  3386 net.cpp:411] conv2 -> conv2
I0419 15:46:18.237941  3386 net.cpp:150] Setting up conv2
I0419 15:46:18.237959  3386 net.cpp:157] Top shape: 1 256 76 126 (2451456)
I0419 15:46:18.237964  3386 net.cpp:165] Memory required for data: 218759836
I0419 15:46:18.237977  3386 layer_factory.hpp:77] Creating layer relu2
I0419 15:46:18.237985  3386 net.cpp:106] Creating Layer relu2
I0419 15:46:18.237993  3386 net.cpp:454] relu2 <- conv2
I0419 15:46:18.238005  3386 net.cpp:397] relu2 -> conv2 (in-place)
I0419 15:46:18.238015  3386 net.cpp:150] Setting up relu2
I0419 15:46:18.238023  3386 net.cpp:157] Top shape: 1 256 76 126 (2451456)
I0419 15:46:18.238028  3386 net.cpp:165] Memory required for data: 228565660
I0419 15:46:18.238032  3386 layer_factory.hpp:77] Creating layer norm2
I0419 15:46:18.238047  3386 net.cpp:106] Creating Layer norm2
I0419 15:46:18.238059  3386 net.cpp:454] norm2 <- conv2
I0419 15:46:18.238065  3386 net.cpp:411] norm2 -> norm2
I0419 15:46:18.238157  3386 net.cpp:150] Setting up norm2
I0419 15:46:18.238169  3386 net.cpp:157] Top shape: 1 256 76 126 (2451456)
I0419 15:46:18.238173  3386 net.cpp:165] Memory required for data: 238371484
I0419 15:46:18.238178  3386 layer_factory.hpp:77] Creating layer pool2
I0419 15:46:18.238184  3386 net.cpp:106] Creating Layer pool2
I0419 15:46:18.238189  3386 net.cpp:454] pool2 <- norm2
I0419 15:46:18.238201  3386 net.cpp:411] pool2 -> pool2
I0419 15:46:18.238236  3386 net.cpp:150] Setting up pool2
I0419 15:46:18.238247  3386 net.cpp:157] Top shape: 1 256 39 64 (638976)
I0419 15:46:18.238251  3386 net.cpp:165] Memory required for data: 240927388
I0419 15:46:18.238255  3386 layer_factory.hpp:77] Creating layer conv3
I0419 15:46:18.238267  3386 net.cpp:106] Creating Layer conv3
I0419 15:46:18.238273  3386 net.cpp:454] conv3 <- pool2
I0419 15:46:18.238281  3386 net.cpp:411] conv3 -> conv3
I0419 15:46:18.241585  3386 net.cpp:150] Setting up conv3
I0419 15:46:18.241603  3386 net.cpp:157] Top shape: 1 384 39 64 (958464)
I0419 15:46:18.241608  3386 net.cpp:165] Memory required for data: 244761244
I0419 15:46:18.241621  3386 layer_factory.hpp:77] Creating layer relu3
I0419 15:46:18.241632  3386 net.cpp:106] Creating Layer relu3
I0419 15:46:18.241643  3386 net.cpp:454] relu3 <- conv3
I0419 15:46:18.241650  3386 net.cpp:397] relu3 -> conv3 (in-place)
I0419 15:46:18.241659  3386 net.cpp:150] Setting up relu3
I0419 15:46:18.241667  3386 net.cpp:157] Top shape: 1 384 39 64 (958464)
I0419 15:46:18.241672  3386 net.cpp:165] Memory required for data: 248595100
I0419 15:46:18.241677  3386 layer_factory.hpp:77] Creating layer conv4
I0419 15:46:18.241688  3386 net.cpp:106] Creating Layer conv4
I0419 15:46:18.241693  3386 net.cpp:454] conv4 <- conv3
I0419 15:46:18.241701  3386 net.cpp:411] conv4 -> conv4
I0419 15:46:18.245051  3386 net.cpp:150] Setting up conv4
I0419 15:46:18.245070  3386 net.cpp:157] Top shape: 1 384 39 64 (958464)
I0419 15:46:18.245075  3386 net.cpp:165] Memory required for data: 252428956
I0419 15:46:18.245085  3386 layer_factory.hpp:77] Creating layer relu4
I0419 15:46:18.245092  3386 net.cpp:106] Creating Layer relu4
I0419 15:46:18.245097  3386 net.cpp:454] relu4 <- conv4
I0419 15:46:18.245107  3386 net.cpp:397] relu4 -> conv4 (in-place)
I0419 15:46:18.245116  3386 net.cpp:150] Setting up relu4
I0419 15:46:18.245131  3386 net.cpp:157] Top shape: 1 384 39 64 (958464)
I0419 15:46:18.245136  3386 net.cpp:165] Memory required for data: 256262812
I0419 15:46:18.245139  3386 layer_factory.hpp:77] Creating layer conv5
I0419 15:46:18.245149  3386 net.cpp:106] Creating Layer conv5
I0419 15:46:18.245154  3386 net.cpp:454] conv5 <- conv4
I0419 15:46:18.245164  3386 net.cpp:411] conv5 -> conv5
I0419 15:46:18.247514  3386 net.cpp:150] Setting up conv5
I0419 15:46:18.247534  3386 net.cpp:157] Top shape: 1 256 39 64 (638976)
I0419 15:46:18.247537  3386 net.cpp:165] Memory required for data: 258818716
I0419 15:46:18.247553  3386 layer_factory.hpp:77] Creating layer relu5
I0419 15:46:18.247562  3386 net.cpp:106] Creating Layer relu5
I0419 15:46:18.247573  3386 net.cpp:454] relu5 <- conv5
I0419 15:46:18.247586  3386 net.cpp:397] relu5 -> conv5 (in-place)
I0419 15:46:18.247598  3386 net.cpp:150] Setting up relu5
I0419 15:46:18.247606  3386 net.cpp:157] Top shape: 1 256 39 64 (638976)
I0419 15:46:18.247611  3386 net.cpp:165] Memory required for data: 261374620
I0419 15:46:18.247618  3386 layer_factory.hpp:77] Creating layer rpn_conv1
I0419 15:46:18.247634  3386 net.cpp:106] Creating Layer rpn_conv1
I0419 15:46:18.247642  3386 net.cpp:454] rpn_conv1 <- conv5
I0419 15:46:18.247650  3386 net.cpp:411] rpn_conv1 -> rpn_conv1
I0419 15:46:18.264714  3386 net.cpp:150] Setting up rpn_conv1
I0419 15:46:18.264732  3386 net.cpp:157] Top shape: 1 256 39 64 (638976)
I0419 15:46:18.264736  3386 net.cpp:165] Memory required for data: 263930524
I0419 15:46:18.264746  3386 layer_factory.hpp:77] Creating layer rpn_relu1
I0419 15:46:18.264757  3386 net.cpp:106] Creating Layer rpn_relu1
I0419 15:46:18.264762  3386 net.cpp:454] rpn_relu1 <- rpn_conv1
I0419 15:46:18.264777  3386 net.cpp:397] rpn_relu1 -> rpn_conv1 (in-place)
I0419 15:46:18.264786  3386 net.cpp:150] Setting up rpn_relu1
I0419 15:46:18.264797  3386 net.cpp:157] Top shape: 1 256 39 64 (638976)
I0419 15:46:18.264802  3386 net.cpp:165] Memory required for data: 266486428
I0419 15:46:18.264807  3386 layer_factory.hpp:77] Creating layer rpn_conv1_rpn_relu1_0_split
I0419 15:46:18.264825  3386 net.cpp:106] Creating Layer rpn_conv1_rpn_relu1_0_split
I0419 15:46:18.264832  3386 net.cpp:454] rpn_conv1_rpn_relu1_0_split <- rpn_conv1
I0419 15:46:18.264838  3386 net.cpp:411] rpn_conv1_rpn_relu1_0_split -> rpn_conv1_rpn_relu1_0_split_0
I0419 15:46:18.264847  3386 net.cpp:411] rpn_conv1_rpn_relu1_0_split -> rpn_conv1_rpn_relu1_0_split_1
I0419 15:46:18.264890  3386 net.cpp:150] Setting up rpn_conv1_rpn_relu1_0_split
I0419 15:46:18.264902  3386 net.cpp:157] Top shape: 1 256 39 64 (638976)
I0419 15:46:18.264909  3386 net.cpp:157] Top shape: 1 256 39 64 (638976)
I0419 15:46:18.264914  3386 net.cpp:165] Memory required for data: 271598236
I0419 15:46:18.264919  3386 layer_factory.hpp:77] Creating layer rpn_cls_score
I0419 15:46:18.264933  3386 net.cpp:106] Creating Layer rpn_cls_score
I0419 15:46:18.264945  3386 net.cpp:454] rpn_cls_score <- rpn_conv1_rpn_relu1_0_split_0
I0419 15:46:18.264956  3386 net.cpp:411] rpn_cls_score -> rpn_cls_score
I0419 15:46:18.265290  3386 net.cpp:150] Setting up rpn_cls_score
I0419 15:46:18.265305  3386 net.cpp:157] Top shape: 1 18 39 64 (44928)
I0419 15:46:18.265310  3386 net.cpp:165] Memory required for data: 271777948
I0419 15:46:18.265318  3386 layer_factory.hpp:77] Creating layer rpn_cls_score_rpn_cls_score_0_split
I0419 15:46:18.265326  3386 net.cpp:106] Creating Layer rpn_cls_score_rpn_cls_score_0_split
I0419 15:46:18.265331  3386 net.cpp:454] rpn_cls_score_rpn_cls_score_0_split <- rpn_cls_score
I0419 15:46:18.265337  3386 net.cpp:411] rpn_cls_score_rpn_cls_score_0_split -> rpn_cls_score_rpn_cls_score_0_split_0
I0419 15:46:18.265348  3386 net.cpp:411] rpn_cls_score_rpn_cls_score_0_split -> rpn_cls_score_rpn_cls_score_0_split_1
I0419 15:46:18.265389  3386 net.cpp:150] Setting up rpn_cls_score_rpn_cls_score_0_split
I0419 15:46:18.265401  3386 net.cpp:157] Top shape: 1 18 39 64 (44928)
I0419 15:46:18.265408  3386 net.cpp:157] Top shape: 1 18 39 64 (44928)
I0419 15:46:18.265411  3386 net.cpp:165] Memory required for data: 272137372
I0419 15:46:18.265415  3386 layer_factory.hpp:77] Creating layer rpn_bbox_pred
I0419 15:46:18.265429  3386 net.cpp:106] Creating Layer rpn_bbox_pred
I0419 15:46:18.265436  3386 net.cpp:454] rpn_bbox_pred <- rpn_conv1_rpn_relu1_0_split_1
I0419 15:46:18.265449  3386 net.cpp:411] rpn_bbox_pred -> rpn_bbox_pred
I0419 15:46:18.265898  3386 net.cpp:150] Setting up rpn_bbox_pred
I0419 15:46:18.265913  3386 net.cpp:157] Top shape: 1 36 39 64 (89856)
I0419 15:46:18.265918  3386 net.cpp:165] Memory required for data: 272496796
I0419 15:46:18.265925  3386 layer_factory.hpp:77] Creating layer rpn_cls_score_reshape
I0419 15:46:18.265935  3386 net.cpp:106] Creating Layer rpn_cls_score_reshape
I0419 15:46:18.265943  3386 net.cpp:454] rpn_cls_score_reshape <- rpn_cls_score_rpn_cls_score_0_split_0
I0419 15:46:18.265950  3386 net.cpp:411] rpn_cls_score_reshape -> rpn_cls_score_reshape
I0419 15:46:18.265986  3386 net.cpp:150] Setting up rpn_cls_score_reshape
I0419 15:46:18.265998  3386 net.cpp:157] Top shape: 1 2 351 64 (44928)
I0419 15:46:18.266002  3386 net.cpp:165] Memory required for data: 272676508
I0419 15:46:18.266007  3386 layer_factory.hpp:77] Creating layer rpn-data
I0419 15:46:18.266549  3386 net.cpp:106] Creating Layer rpn-data
I0419 15:46:18.266567  3386 net.cpp:454] rpn-data <- rpn_cls_score_rpn_cls_score_0_split_1
I0419 15:46:18.266575  3386 net.cpp:454] rpn-data <- gt_boxes
I0419 15:46:18.266582  3386 net.cpp:454] rpn-data <- im_info
I0419 15:46:18.266587  3386 net.cpp:454] rpn-data <- data_input-data_0_split_1
I0419 15:46:18.266594  3386 net.cpp:411] rpn-data -> rpn_labels
I0419 15:46:18.266605  3386 net.cpp:411] rpn-data -> rpn_bbox_targets
I0419 15:46:18.266619  3386 net.cpp:411] rpn-data -> rpn_bbox_inside_weights
I0419 15:46:18.266629  3386 net.cpp:411] rpn-data -> rpn_bbox_outside_weights
I0419 15:46:18.267926  3386 net.cpp:150] Setting up rpn-data
I0419 15:46:18.267949  3386 net.cpp:157] Top shape: 1 1 351 64 (22464)
I0419 15:46:18.267956  3386 net.cpp:157] Top shape: 1 36 39 64 (89856)
I0419 15:46:18.267962  3386 net.cpp:157] Top shape: 1 36 39 64 (89856)
I0419 15:46:18.267967  3386 net.cpp:157] Top shape: 1 36 39 64 (89856)
I0419 15:46:18.267971  3386 net.cpp:165] Memory required for data: 273844636
I0419 15:46:18.267977  3386 layer_factory.hpp:77] Creating layer rpn_loss_cls
I0419 15:46:18.267997  3386 net.cpp:106] Creating Layer rpn_loss_cls
I0419 15:46:18.268005  3386 net.cpp:454] rpn_loss_cls <- rpn_cls_score_reshape
I0419 15:46:18.268013  3386 net.cpp:454] rpn_loss_cls <- rpn_labels
I0419 15:46:18.268025  3386 net.cpp:411] rpn_loss_cls -> rpn_cls_loss
…
           'RPN_PRE_NMS_TOP_N': 12000,
           'SCALES': [600],
           'SNAPSHOT_INFIX': 'stage1',
           'SNAPSHOT_ITERS': 10000,
           'USE_FLIPPED': True,
           'USE_PREFETCH': False},
 'USE_GPU_NMS': True}
Loaded dataset `voc_2007_trainval` for proposal generation
WARNING: Logging before InitGoogleLogging() is written to STDERR
I0419 15:46:50.901124  3406 net.cpp:49] Initializing net from parameters: 
name: "ZF"
input: "data"
input: "im_info"
state {
  phase: TEST
}
input_shape {
  dim: 1
  dim: 3
  dim: 224
  dim: 224
}
input_shape {
  dim: 1
  dim: 3
}
layer {
  name: "conv1"
  type: "Convolution"
  bottom: "data"
  top: "conv1"
  convolution_param {
    num_output: 96
    pad: 3
    kernel_size: 7
    stride: 2
  }
}
layer {
  name: "relu1"
  type: "ReLU"
  bottom: "conv1"
  top: "conv1"
}
layer {
  name: "norm1"
  type: "LRN"
  bottom: "conv1"
  top: "norm1"
  lrn_param {
    local_size: 3
    alpha: 5e-05
    beta: 0.75
    norm_region: WITHIN_CHANNEL
    engine: CAFFE
  }
}
layer {
  name: "pool1"
  type: "Pooling"
  bottom: "norm1"
  top: "pool1"
  pooling_param {
    pool: MAX
    kernel_size: 3
    stride: 2
    pad: 1
  }
}
layer {
  name: "conv2"
  type: "Convolution"
  bottom: "pool1"
  top: "conv2"
  convolution_param {
    num_output: 256
    pad: 2
    kernel_size: 5
    stride: 2
  }
}
layer {
  name: "relu2"
  type: "ReLU"
  bottom: "conv2"
  top: "conv2"
}
layer {
  name: "norm2"
  type: "LRN"
  bottom: "conv2"
  top: "norm2"
  lrn_param {
    local_size: 3
    alpha: 5e-05
    beta: 0.75
    norm_region: WITHIN_CHANNEL
    engine: CAFFE
  }
}
layer {
  name: "pool2"
  type: "Pooling"
  bottom: "norm2"
  top: "pool2"
  pooling_param {
    pool: MAX
    kernel_size: 3
    stride: 2
    pad: 1
  }
}
layer {
  name: "conv3"
  type: "Convolution"
  bottom: "pool2"
  top: "conv3"
  convolution_param {
    num_output: 384
    pad: 1
    kernel_size: 3
    stride: 1
  }
}
layer {
  name: "relu3"
  type: "ReLU"
  bottom: "conv3"
  top: "conv3"
}
layer {
  name: "conv4"
  type: "Convolution"
  bottom: "conv3"
  top: "conv4"
  convolution_param {
    num_output: 384
    pad: 1
    kernel_size: 3
    stride: 1
  }
}
layer {
  name: "relu4"
  type: "ReLU"
  bottom: "conv4"
  top: "conv4"
}
layer {
  name: "conv5"
  type: "Convolution"
  bottom: "conv4"
  top: "conv5"
  convolution_param {
    num_output: 256
    pad: 1
    kernel_size: 3
    stride: 1
  }
}
layer {
  name: "relu5"
  type: "ReLU"
  bottom: "conv5"
  top: "conv5"
}
layer {
  name: "rpn_conv1"
  type: "Convolution"
  bottom: "conv5"
  top: "rpn_conv1"
  convolution_param {
    num_output: 256
    pad: 1
    kernel_size: 3
    stride: 1
  }
}
layer {
  name: "rpn_relu1"
  type: "ReLU"
  bottom: "rpn_conv1"
  top: "rpn_conv1"
}
layer {
  name: "rpn_cls_score"
  type: "Convolution"
  bottom: "rpn_conv1"
  top: "rpn_cls_score"
  convolution_param {
    num_output: 18
    pad: 0
    kernel_size: 1
    stride: 1
  }
}
layer {
  name: "rpn_bbox_pred"
  type: "Convolution"
  bottom: "rpn_conv1"
  top: "rpn_bbox_pred"
  convolution_param {
    num_output: 36
    pad: 0
    kernel_size: 1
    stride: 1
  }
}
layer {
  name: "rpn_cls_score_reshape"
  type: "Reshape"
  bottom: "rpn_cls_score"
  top: "rpn_cls_score_reshape"
  reshape_param {
    shape {
      dim: 0
      dim: 2
      dim: -1
      dim: 0
    }
  }
}
layer {
  name: "rpn_cls_prob"
  type: "Softmax"
  bottom: "rpn_cls_score_reshape"
  top: "rpn_cls_prob"
}
layer {
  name: "rpn_cls_prob_reshape"
  type: "Reshape"
  bottom: "rpn_cls_prob"
  top: "rpn_cls_prob_reshape"
  reshape_param {
    shape {
      dim: 0
      dim: 18
      dim: -1
      dim: 0
    }
  }
}
layer {
  name: "proposal"
  type: "Python"
  bottom: "rpn_cls_prob_reshape"
  bottom: "rpn_bbox_pred"
  bottom: "im_info"
  top: "rois"
  top: "scores"
  python_param {
    module: "rpn.proposal_layer"
    layer: "ProposalLayer"
    param_str: "\'feat_stride\': 16"
  }
}
I0419 15:46:50.901301  3406 net.cpp:413] Input 0 -> data
I0419 15:46:50.916885  3406 net.cpp:413] Input 1 -> im_info
I0419 15:46:50.916939  3406 layer_factory.hpp:77] Creating layer conv1
I0419 15:46:50.916968  3406 net.cpp:106] Creating Layer conv1
I0419 15:46:50.916981  3406 net.cpp:454] conv1 <- data
I0419 15:46:50.916996  3406 net.cpp:411] conv1 -> conv1
I0419 15:46:50.917779  3406 net.cpp:150] Setting up conv1
I0419 15:46:50.917803  3406 net.cpp:157] Top shape: 1 96 112 112 (1204224)
I0419 15:46:50.917806  3406 net.cpp:165] Memory required for data: 4816896
I0419 15:46:50.917827  3406 layer_factory.hpp:77] Creating layer relu1
I0419 15:46:50.917848  3406 net.cpp:106] Creating Layer relu1
I0419 15:46:50.917857  3406 net.cpp:454] relu1 <- conv1
I0419 15:46:50.917867  3406 net.cpp:397] relu1 -> conv1 (in-place)
I0419 15:46:50.917881  3406 net.cpp:150] Setting up relu1
I0419 15:46:50.917896  3406 net.cpp:157] Top shape: 1 96 112 112 (1204224)
I0419 15:46:50.917899  3406 net.cpp:165] Memory required for data: 9633792
I0419 15:46:50.917904  3406 layer_factory.hpp:77] Creating layer norm1
I0419 15:46:50.917913  3406 net.cpp:106] Creating Layer norm1
I0419 15:46:50.917918  3406 net.cpp:454] norm1 <- conv1
I0419 15:46:50.917927  3406 net.cpp:411] norm1 -> norm1
I0419 15:46:50.918051  3406 net.cpp:150] Setting up norm1
I0419 15:46:50.918063  3406 net.cpp:157] Top shape: 1 96 112 112 (1204224)
I0419 15:46:50.918066  3406 net.cpp:165] Memory required for data: 14450688
I0419 15:46:50.918069  3406 layer_factory.hpp:77] Creating layer pool1
I0419 15:46:50.918077  3406 net.cpp:106] Creating Layer pool1
I0419 15:46:50.918088  3406 net.cpp:454] pool1 <- norm1
I0419 15:46:50.918095  3406 net.cpp:411] pool1 -> pool1
I0419 15:46:50.918145  3406 net.cpp:150] Setting up pool1
I0419 15:46:50.918157  3406 net.cpp:157] Top shape: 1 96 57 57 (311904)
I0419 15:46:50.918160  3406 net.cpp:165] Memory required for data: 15698304
I0419 15:46:50.918164  3406 layer_factory.hpp:77] Creating layer conv2
I0419 15:46:50.918172  3406 net.cpp:106] Creating Layer conv2
I0419 15:46:50.918182  3406 net.cpp:454] conv2 <- pool1
I0419 15:46:50.918190  3406 net.cpp:411] conv2 -> conv2
I0419 15:46:50.920387  3406 net.cpp:150] Setting up conv2
I0419 15:46:50.920405  3406 net.cpp:157] Top shape: 1 256 29 29 (215296)
I0419 15:46:50.920408  3406 net.cpp:165] Memory required for data: 16559488
I0419 15:46:50.920419  3406 layer_factory.hpp:77] Creating layer relu2
I0419 15:46:50.920436  3406 net.cpp:106] Creating Layer relu2
I0419 15:46:50.920444  3406 net.cpp:454] relu2 <- conv2
I0419 15:46:50.920451  3406 net.cpp:397] relu2 -> conv2 (in-place)
I0419 15:46:50.920462  3406 net.cpp:150] Setting up relu2
I0419 15:46:50.920469  3406 net.cpp:157] Top shape: 1 256 29 29 (215296)
I0419 15:46:50.920475  3406 net.cpp:165] Memory required for data: 17420672
I0419 15:46:50.920480  3406 layer_factory.hpp:77] Creating layer norm2
I0419 15:46:50.920487  3406 net.cpp:106] Creating Layer norm2
I0419 15:46:50.920493  3406 net.cpp:454] norm2 <- conv2
I0419 15:46:50.920502  3406 net.cpp:411] norm2 -> norm2
I0419 15:46:50.920600  3406 net.cpp:150] Setting up norm2
I0419 15:46:50.920614  3406 net.cpp:157] Top shape: 1 256 29 29 (215296)
I0419 15:46:50.920615  3406 net.cpp:165] Memory required for data: 18281856
I0419 15:46:50.920619  3406 layer_factory.hpp:77] Creating layer pool2
I0419 15:46:50.920626  3406 net.cpp:106] Creating Layer pool2
I0419 15:46:50.920632  3406 net.cpp:454] pool2 <- norm2
I0419 15:46:50.920639  3406 net.cpp:411] pool2 -> pool2
I0419 15:46:50.920691  3406 net.cpp:150] Setting up pool2
I0419 15:46:50.920706  3406 net.cpp:157] Top shape: 1 256 15 15 (57600)
I0419 15:46:50.920708  3406 net.cpp:165] Memory required for data: 18512256
I0419 15:46:50.920711  3406 layer_factory.hpp:77] Creating layer conv3
I0419 15:46:50.920722  3406 net.cpp:106] Creating Layer conv3
I0419 15:46:50.920732  3406 net.cpp:454] conv3 <- pool2
I0419 15:46:50.920740  3406 net.cpp:411] conv3 -> conv3
I0419 15:46:50.923072  3406 net.cpp:150] Setting up conv3
I0419 15:46:50.923089  3406 net.cpp:157] Top shape: 1 384 15 15 (86400)
I0419 15:46:50.923091  3406 net.cpp:165] Memory required for data: 18857856
I0419 15:46:50.923105  3406 layer_factory.hpp:77] Creating layer relu3
I0419 15:46:50.923118  3406 net.cpp:106] Creating Layer relu3
I0419 15:46:50.923123  3406 net.cpp:454] relu3 <- conv3
I0419 15:46:50.923135  3406 net.cpp:397] relu3 -> conv3 (in-place)
I0419 15:46:50.923146  3406 net.cpp:150] Setting up relu3
I0419 15:46:50.923153  3406 net.cpp:157] Top shape: 1 384 15 15 (86400)
I0419 15:46:50.923156  3406 net.cpp:165] Memory required for data: 19203456
I0419 15:46:50.923161  3406 layer_factory.hpp:77] Creating layer conv4
I0419 15:46:50.923169  3406 net.cpp:106] Creating Layer conv4
I0419 15:46:50.923182  3406 net.cpp:454] conv4 <- conv3
I0419 15:46:50.923188  3406 net.cpp:411] conv4 -> conv4
I0419 15:46:50.926522  3406 net.cpp:150] Setting up conv4
I0419 15:46:50.926538  3406 net.cpp:157] Top shape: 1 384 15 15 (86400)
I0419 15:46:50.926542  3406 net.cpp:165] Memory required for data: 19549056
I0419 15:46:50.926548  3406 layer_factory.hpp:77] Creating layer relu4
I0419 15:46:50.926556  3406 net.cpp:106] Creating Layer relu4
I0419 15:46:50.926564  3406 net.cpp:454] relu4 <- conv4
I0419 15:46:50.926573  3406 net.cpp:397] relu4 -> conv4 (in-place)
I0419 15:46:50.926589  3406 net.cpp:150] Setting up relu4
I0419 15:46:50.926596  3406 net.cpp:157] Top shape: 1 384 15 15 (86400)
I0419 15:46:50.926602  3406 net.cpp:165] Memory required for data: 19894656
I0419 15:46:50.926606  3406 layer_factory.hpp:77] Creating layer conv5
I0419 15:46:50.926618  3406 net.cpp:106] Creating Layer conv5
I0419 15:46:50.926630  3406 net.cpp:454] conv5 <- conv4
I0419 15:46:50.926636  3406 net.cpp:411] conv5 -> conv5
I0419 15:46:50.928936  3406 net.cpp:150] Setting up conv5
I0419 15:46:50.928952  3406 net.cpp:157] Top shape: 1 256 15 15 (57600)
I0419 15:46:50.928956  3406 net.cpp:165] Memory required for data: 20125056
I0419 15:46:50.928966  3406 layer_factory.hpp:77] Creating layer relu5
I0419 15:46:50.928979  3406 net.cpp:106] Creating Layer relu5
I0419 15:46:50.928984  3406 net.cpp:454] relu5 <- conv5
I0419 15:46:50.928997  3406 net.cpp:397] relu5 -> conv5 (in-place)
I0419 15:46:50.929005  3406 net.cpp:150] Setting up relu5
I0419 15:46:50.929013  3406 net.cpp:157] Top shape: 1 256 15 15 (57600)
I0419 15:46:50.929018  3406 net.cpp:165] Memory required for data: 20355456
I0419 15:46:50.929023  3406 layer_factory.hpp:77] Creating layer rpn_conv1
I0419 15:46:50.929034  3406 net.cpp:106] Creating Layer rpn_conv1
I0419 15:46:50.929044  3406 net.cpp:454] rpn_conv1 <- conv5
I0419 15:46:50.929055  3406 net.cpp:411] rpn_conv1 -> rpn_conv1
I0419 15:46:50.930697  3406 net.cpp:150] Setting up rpn_conv1
I0419 15:46:50.930713  3406 net.cpp:157] Top shape: 1 256 15 15 (57600)
I0419 15:46:50.930716  3406 net.cpp:165] Memory required for data: 20585856
I0419 15:46:50.930723  3406 layer_factory.hpp:77] Creating layer rpn_relu1
I0419 15:46:50.930733  3406 net.cpp:106] Creating Layer rpn_relu1
I0419 15:46:50.930743  3406 net.cpp:454] rpn_relu1 <- rpn_conv1
I0419 15:46:50.930750  3406 net.cpp:397] rpn_relu1 -> rpn_conv1 (in-place)
I0419 15:46:50.930766  3406 net.cpp:150] Setting up rpn_relu1
I0419 15:46:50.930773  3406 net.cpp:157] Top shape: 1 256 15 15 (57600)
I0419 15:46:50.930779  3406 net.cpp:165] Memory required for data: 20816256
I0419 15:46:50.930783  3406 layer_factory.hpp:77] Creating layer rpn_conv1_rpn_relu1_0_split
I0419 15:46:50.930796  3406 net.cpp:106] Creating Layer rpn_conv1_rpn_relu1_0_split
I0419 15:46:50.930807  3406 net.cpp:454] rpn_conv1_rpn_relu1_0_split <- rpn_conv1
I0419 15:46:50.930816  3406 net.cpp:411] rpn_conv1_rpn_relu1_0_split -> rpn_conv1_rpn_relu1_0_split_0
I0419 15:46:50.930824  3406 net.cpp:411] rpn_conv1_rpn_relu1_0_split -> rpn_conv1_rpn_relu1_0_split_1
I0419 15:46:50.930869  3406 net.cpp:150] Setting up rpn_conv1_rpn_relu1_0_split
I0419 15:46:50.930879  3406 net.cpp:157] Top shape: 1 256 15 15 (57600)
I0419 15:46:50.930882  3406 net.cpp:157] Top shape: 1 256 15 15 (57600)
I0419 15:46:50.930886  3406 net.cpp:165] Memory required for data: 21277056
I0419 15:46:50.930888  3406 layer_factory.hpp:77] Creating layer rpn_cls_score
I0419 15:46:50.930899  3406 net.cpp:106] Creating Layer rpn_cls_score
I0419 15:46:50.930910  3406 net.cpp:454] rpn_cls_score <- rpn_conv1_rpn_relu1_0_split_0
I0419 15:46:50.930922  3406 net.cpp:411] rpn_cls_score -> rpn_cls_score
I0419 15:46:50.931136  3406 net.cpp:150] Setting up rpn_cls_score
I0419 15:46:50.931149  3406 net.cpp:157] Top shape: 1 18 15 15 (4050)
I0419 15:46:50.931151  3406 net.cpp:165] Memory required for data: 21293256
I0419 15:46:50.931157  3406 layer_factory.hpp:77] Creating layer rpn_bbox_pred
I0419 15:46:50.931169  3406 net.cpp:106] Creating Layer rpn_bbox_pred
I0419 15:46:50.931180  3406 net.cpp:454] rpn_bbox_pred <- rpn_conv1_rpn_relu1_0_split_1
I0419 15:46:50.931187  3406 net.cpp:411] rpn_bbox_pred -> rpn_bbox_pred
I0419 15:46:50.931391  3406 net.cpp:150] Setting up rpn_bbox_pred
I0419 15:46:50.931401  3406 net.cpp:157] Top shape: 1 36 15 15 (8100)
I0419 15:46:50.931404  3406 net.cpp:165] Memory required for data: 21325656
I0419 15:46:50.931409  3406 layer_factory.hpp:77] Creating layer rpn_cls_score_reshape
I0419 15:46:50.931418  3406 net.cpp:106] Creating Layer rpn_cls_score_reshape
I0419 15:46:50.931423  3406 net.cpp:454] rpn_cls_score_reshape <- rpn_cls_score
I0419 15:46:50.931435  3406 net.cpp:411] rpn_cls_score_reshape -> rpn_cls_score_reshape
I0419 15:46:50.931476  3406 net.cpp:150] Setting up rpn_cls_score_reshape
I0419 15:46:50.931489  3406 net.cpp:157] Top shape: 1 2 135 15 (4050)
I0419 15:46:50.931491  3406 net.cpp:165] Memory required for data: 21341856
I0419 15:46:50.931495  3406 layer_factory.hpp:77] Creating layer rpn_cls_prob
I0419 15:46:50.931501  3406 net.cpp:106] Creating Layer rpn_cls_prob
I0419 15:46:50.931507  3406 net.cpp:454] rpn_cls_prob <- rpn_cls_score_reshape
I0419 15:46:50.931516  3406 net.cpp:411] rpn_cls_prob -> rpn_cls_prob
I0419 15:46:50.931588  3406 net.cpp:150] Setting up rpn_cls_prob
I0419 15:46:50.931599  3406 net.cpp:157] Top shape: 1 2 135 15 (4050)
I0419 15:46:50.931602  3406 net.cpp:165] Memory required for data: 21358056
I0419 15:46:50.931605  3406 layer_factory.hpp:77] Creating layer rpn_cls_prob_reshape
I0419 15:46:50.931612  3406 net.cpp:106] Creating Layer rpn_cls_prob_reshape
I0419 15:46:50.931617  3406 net.cpp:454] rpn_cls_prob_reshape <- rpn_cls_prob
I0419 15:46:50.931627  3406 net.cpp:411] rpn_cls_prob_reshape -> rpn_cls_prob_reshape
I0419 15:46:50.931660  3406 net.cpp:150] Setting up rpn_cls_prob_reshape
I0419 15:46:50.931674  3406 net.cpp:157] Top shape: 1 18 15 15 (4050)
I0419 15:46:50.931679  3406 net.cpp:165] Memory required for data: 21374256
I0419 15:46:50.931682  3406 layer_factory.hpp:77] Creating layer proposal
I0419 15:46:50.935029  3406 net.cpp:106] Creating Layer proposal
I0419 15:46:50.935048  3406 net.cpp:454] proposal <- rpn_cls_prob_reshape
I0419 15:46:50.935053  3406 net.cpp:454] proposal <- rpn_bbox_pred
I0419 15:46:50.935057  3406 net.cpp:454] proposal <- im_info
I0419 15:46:50.935067  3406 net.cpp:411] proposal -> rois
I0419 15:46:50.935083  3406 net.cpp:411] proposal -> scores
I0419 15:46:50.936379  3406 net.cpp:150] Setting up proposal
I0419 15:46:50.936400  3406 net.cpp:157] Top shape: 1 5 (5)
I0419 15:46:50.936405  3406 net.cpp:157] Top shape: 1 1 1 1 (1)
I0419 15:46:50.936409  3406 net.cpp:165] Memory required for data: 21374280
I0419 15:46:50.936416  3406 net.cpp:228] proposal does not need backward computation.
I0419 15:46:50.936424  3406 net.cpp:228] rpn_cls_prob_reshape does not need backward computation.
I0419 15:46:50.936434  3406 net.cpp:228] rpn_cls_prob does not need backward computation.
I0419 15:46:50.936440  3406 net.cpp:228] rpn_cls_score_reshape does not need backward computation.
…
average_loss: 100
I0419 15:48:24.084563  3417 solver.cpp:81] Creating training net from train_net file: models/pascal_voc/ZF/faster_rcnn_alt_opt/stage1_fast_rcnn_train.pt
I0419 15:48:24.085420  3417 net.cpp:49] Initializing net from parameters: 
name: "ZF"
state {
  phase: TRAIN
}
layer {
  name: "data"
  type: "Python"
  top: "data"
  top: "rois"
  top: "labels"
  top: "bbox_targets"
  top: "bbox_inside_weights"
  top: "bbox_outside_weights"
  python_param {
    module: "roi_data_layer.layer"
    layer: "RoIDataLayer"
    param_str: "\'num_classes\': 44"
  }
}
layer {
  name: "conv1"
  type: "Convolution"
  bottom: "data"
  top: "conv1"
  param {
    lr_mult: 1
  }
  param {
    lr_mult: 2
  }
  convolution_param {
    num_output: 96
    pad: 3
    kernel_size: 7
    stride: 2
  }
}
layer {
  name: "relu1"
  type: "ReLU"
  bottom: "conv1"
  top: "conv1"
}
layer {
  name: "norm1"
  type: "LRN"
  bottom: "conv1"
  top: "norm1"
  lrn_param {
    local_size: 3
    alpha: 5e-05
    beta: 0.75
    norm_region: WITHIN_CHANNEL
    engine: CAFFE
  }
}
layer {
  name: "pool1"
  type: "Pooling"
  bottom: "norm1"
  top: "pool1"
  pooling_param {
    pool: MAX
    kernel_size: 3
    stride: 2
    pad: 1
  }
}
layer {
  name: "conv2"
  type: "Convolution"
  bottom: "pool1"
  top: "conv2"
  param {
    lr_mult: 1
  }
  param {
    lr_mult: 2
  }
  convolution_param {
    num_output: 256
    pad: 2
    kernel_size: 5
    stride: 2
  }
}
layer {
  name: "relu2"
  type: "ReLU"
  bottom: "conv2"
  top: "conv2"
}
layer {
  name: "norm2"
  type: "LRN"
  bottom: "conv2"
  top: "norm2"
  lrn_param {
    local_size: 3
    alpha: 5e-05
    beta: 0.75
    norm_region: WITHIN_CHANNEL
    engine: CAFFE
  }
}
layer {
  name: "pool2"
  type: "Pooling"
  bottom: "norm2"
  top: "pool2"
  pooling_param {
    pool: MAX
    kernel_size: 3
    stride: 2
    pad: 1
  }
}
layer {
  name: "conv3"
  type: "Convolution"
  bottom: "pool2"
  top: "conv3"
  param {
    lr_mult: 1
  }
  param {
    lr_mult: 2
  }
  convolution_param {
    num_output: 384
    pad: 1
    kernel_size: 3
    stride: 1
  }
}
layer {
  name: "relu3"
  type: "ReLU"
  bottom: "conv3"
  top: "conv3"
}
layer {
  name: "conv4"
  type: "Convolution"
  bottom: "conv3"
  top: "conv4"
  param {
    lr_mult: 1
  }
  param {
    lr_mult: 2
  }
  convolution_param {
    num_output: 384
    pad: 1
    kernel_size: 3
    stride: 1
  }
}
layer {
  name: "relu4"
  type: "ReLU"
  bottom: "conv4"
  top: "conv4"
}
layer {
  name: "conv5"
  type: "Convolution"
  bottom: "conv4"
  top: "conv5"
  param {
    lr_mult: 1
  }
  param {
    lr_mult: 2
  }
  convolution_param {
    num_output: 256
    pad: 1
    kernel_size: 3
    stride: 1
  }
}
layer {
  name: "relu5"
  type: "ReLU"
  bottom: "conv5"
  top: "conv5"
}
layer {
  name: "roi_pool_conv5"
  type: "ROIPooling"
  bottom: "conv5"
  bottom: "rois"
  top: "roi_pool_conv5"
  roi_pooling_param {
    pooled_h: 6
    pooled_w: 6
    spatial_scale: 0.0625
  }
}
layer {
  name: "fc6"
  type: "InnerProduct"
  bottom: "roi_pool_conv5"
  top: "fc6"
  param {
    lr_mult: 1
  }
  param {
    lr_mult: 2
  }
  inner_product_param {
    num_output: 4096
  }
}
layer {
  name: "relu6"
  type: "ReLU"
  bottom: "fc6"
  top: "fc6"
}
layer {
  name: "drop6"
  type: "Dropout"
  bottom: "fc6"
  top: "fc6"
  dropout_param {
    dropout_ratio: 0.5
    scale_train: false
  }
}
layer {
  name: "fc7"
  type: "InnerProduct"
  bottom: "fc6"
  top: "fc7"
  param {
    lr_mult: 1
  }
  param {
    lr_mult: 2
  }
  inner_product_param {
    num_output: 4096
  }
}
layer {
  name: "relu7"
  type: "ReLU"
  bottom: "fc7"
  top: "fc7"
}
layer {
  name: "drop7"
  type: "Dropout"
  bottom: "fc7"
  top: "fc7"
  dropout_param {
    dropout_ratio: 0.5
    scale_train: false
  }
}
layer {
  name: "cls_score"
  type: "InnerProduct"
  bottom: "fc7"
  top: "cls_score"
  param {
    lr_mult: 1
  }
  param {
    lr_mult: 2
  }
  inner_product_param {
    num_output: 44
    weight_filler {
      type: "gaussian"
      std: 0.01
    }
    bias_filler {
      type: "constant"
      value: 0
    }
  }
}
layer {
  name: "bbox_pred"
  type: "InnerProduct"
  bottom: "fc7"
  top: "bbox_pred"
  param {
    lr_mult: 1
  }
  param {
    lr_mult: 2
  }
  inner_product_param {
    num_output: 176
    weight_filler {
      type: "gaussian"
      std: 0.001
    }
    bias_filler {
      type: "constant"
      value: 0
    }
  }
}
layer {
  name: "loss_cls"
  type: "SoftmaxWithLoss"
  bottom: "cls_score"
  bottom: "labels"
  top: "cls_loss"
  loss_weight: 1
  propagate_down: true
  propagate_down: false
  loss_param {
    ignore_label: -1
    normalize: true
  }
}
layer {
  name: "loss_bbox"
  type: "SmoothL1Loss"
  bottom: "bbox_pred"
  bottom: "bbox_targets"
  bottom: "bbox_inside_weights"
  bottom: "bbox_outside_weights"
  top: "bbox_loss"
  loss_weight: 1
}
layer {
  name: "rpn_conv1"
  type: "Convolution"
  bottom: "conv5"
  top: "rpn_conv1"
  param {
    lr_mult: 0
    decay_mult: 0
  }
  param {
    lr_mult: 0
    decay_mult: 0
  }
  convolution_param {
    num_output: 256
    pad: 1
    kernel_size: 3
    stride: 1
    weight_filler {
      type: "gaussian"
      std: 0.01
    }
    bias_filler {
      type: "constant"
      value: 0
    }
  }
}
layer {
  name: "rpn_relu1"
  type: "ReLU"
  bottom: "rpn_conv1"
  top: "rpn_conv1"
}
layer {
  name: "rpn_cls_score"
  type: "Convolution"
  bottom: "rpn_conv1"
  top: "rpn_cls_score"
  param {
    lr_mult: 0
    decay_mult: 0
  }
  param {
    lr_mult: 0
    decay_mult: 0
  }
  convolution_param {
    num_output: 18
    pad: 0
    kernel_size: 1
    stride: 1
    weight_filler {
      type: "gaussian"
      std: 0.01
    }
    bias_filler {
      type: "constant"
      value: 0
    }
  }
}
layer {
  name: "rpn_bbox_pred"
  type: "Convolution"
  bottom: "rpn_conv1"
  top: "rpn_bbox_pred"
  param {
    lr_mult: 0
    decay_mult: 0
  }
  param {
    lr_mult: 0
    decay_mult: 0
  }
  convolution_param {
    num_output: 36
    pad: 0
    kernel_size: 1
    stride: 1
    weight_filler {
      type: "gaussian"
      std: 0.01
    }
    bias_filler {
      type: "constant"
      value: 0
    }
  }
}
layer {
  name: "silence_rpn_cls_score"
  type: "Silence"
  bottom: "rpn_cls_score"
}
layer {
  name: "silence_rpn_bbox_pred"
  type: "Silence"
  bottom: "rpn_bbox_pred"
}
I0419 15:48:24.085638  3417 layer_factory.hpp:77] Creating layer data
I0419 15:48:24.086467  3417 net.cpp:106] Creating Layer data
I0419 15:48:24.086494  3417 net.cpp:411] data -> data
I0419 15:48:24.086518  3417 net.cpp:411] data -> rois
I0419 15:48:24.086534  3417 net.cpp:411] data -> labels
I0419 15:48:24.086544  3417 net.cpp:411] data -> bbox_targets
I0419 15:48:24.086552  3417 net.cpp:411] data -> bbox_inside_weights
I0419 15:48:24.086561  3417 net.cpp:411] data -> bbox_outside_weights
RoiDataLayer: name_to_top: {'bbox_inside_weights': 4, 'labels': 2, 'rois': 1, 'bbox_targets': 3, 'bbox_outside_weights': 5, 'data': 0}
I0419 15:48:24.101948  3417 net.cpp:150] Setting up data
I0419 15:48:24.101974  3417 net.cpp:157] Top shape: 2 3 600 1000 (3600000)
I0419 15:48:24.101981  3417 net.cpp:157] Top shape: 1 5 (5)
I0419 15:48:24.101985  3417 net.cpp:157] Top shape: 1 (1)
I0419 15:48:24.101989  3417 net.cpp:157] Top shape: 1 176 (176)
I0419 15:48:24.101994  3417 net.cpp:157] Top shape: 1 176 (176)
I0419 15:48:24.102004  3417 net.cpp:157] Top shape: 1 176 (176)
I0419 15:48:24.102007  3417 net.cpp:165] Memory required for data: 14402136
I0419 15:48:24.102013  3417 layer_factory.hpp:77] Creating layer conv1
I0419 15:48:24.102035  3417 net.cpp:106] Creating Layer conv1
I0419 15:48:24.102048  3417 net.cpp:454] conv1 <- data
I0419 15:48:24.102061  3417 net.cpp:411] conv1 -> conv1
I0419 15:48:24.103489  3417 net.cpp:150] Setting up conv1
I0419 15:48:24.103507  3417 net.cpp:157] Top shape: 2 96 300 500 (28800000)
I0419 15:48:24.103510  3417 net.cpp:165] Memory required for data: 129602136
I0419 15:48:24.103524  3417 layer_factory.hpp:77] Creating layer relu1
I0419 15:48:24.103538  3417 net.cpp:106] Creating Layer relu1
I0419 15:48:24.103549  3417 net.cpp:454] relu1 <- conv1
I0419 15:48:24.103556  3417 net.cpp:397] relu1 -> conv1 (in-place)
I0419 15:48:24.103569  3417 net.cpp:150] Setting up relu1
I0419 15:48:24.103582  3417 net.cpp:157] Top shape: 2 96 300 500 (28800000)
I0419 15:48:24.103587  3417 net.cpp:165] Memory required for data: 244802136
I0419 15:48:24.103591  3417 layer_factory.hpp:77] Creating layer norm1
I0419 15:48:24.103600  3417 net.cpp:106] Creating Layer norm1
I0419 15:48:24.103611  3417 net.cpp:454] norm1 <- conv1
I0419 15:48:24.103622  3417 net.cpp:411] norm1 -> norm1
I0419 15:48:24.103745  3417 net.cpp:150] Setting up norm1
I0419 15:48:24.103756  3417 net.cpp:157] Top shape: 2 96 300 500 (28800000)
I0419 15:48:24.103760  3417 net.cpp:165] Memory required for data: 360002136
I0419 15:48:24.103762  3417 layer_factory.hpp:77] Creating layer pool1
I0419 15:48:24.103768  3417 net.cpp:106] Creating Layer pool1
I0419 15:48:24.103773  3417 net.cpp:454] pool1 <- norm1
I0419 15:48:24.103780  3417 net.cpp:411] pool1 -> pool1
I0419 15:48:24.103828  3417 net.cpp:150] Setting up pool1
I0419 15:48:24.103843  3417 net.cpp:157] Top shape: 2 96 151 251 (7276992)
I0419 15:48:24.103845  3417 net.cpp:165] Memory required for data: 389110104
I0419 15:48:24.103848  3417 layer_factory.hpp:77] Creating layer conv2
I0419 15:48:24.103854  3417 net.cpp:106] Creating Layer conv2
I0419 15:48:24.103858  3417 net.cpp:454] conv2 <- pool1
I0419 15:48:24.103865  3417 net.cpp:411] conv2 -> conv2
I0419 15:48:24.105551  3417 net.cpp:150] Setting up conv2
I0419 15:48:24.105567  3417 net.cpp:157] Top shape: 2 256 76 126 (4902912)
I0419 15:48:24.105571  3417 net.cpp:165] Memory required for data: 408721752
I0419 15:48:24.105579  3417 layer_factory.hpp:77] Creating layer relu2
I0419 15:48:24.105593  3417 net.cpp:106] Creating Layer relu2
I0419 15:48:24.105599  3417 net.cpp:454] relu2 <- conv2
I0419 15:48:24.105607  3417 net.cpp:397] relu2 -> conv2 (in-place)
I0419 15:48:24.105615  3417 net.cpp:150] Setting up relu2
I0419 15:48:24.105623  3417 net.cpp:157] Top shape: 2 256 76 126 (4902912)
I0419 15:48:24.105628  3417 net.cpp:165] Memory required for data: 428333400
I0419 15:48:24.105633  3417 layer_factory.hpp:77] Creating layer norm2
I0419 15:48:24.105645  3417 net.cpp:106] Creating Layer norm2
I0419 15:48:24.105657  3417 net.cpp:454] norm2 <- conv2
I0419 15:48:24.105664  3417 net.cpp:411] norm2 -> norm2
I0419 15:48:24.105763  3417 net.cpp:150] Setting up norm2
I0419 15:48:24.105774  3417 net.cpp:157] Top shape: 2 256 76 126 (4902912)
I0419 15:48:24.105777  3417 net.cpp:165] Memory required for data: 447945048
I0419 15:48:24.105780  3417 layer_factory.hpp:77] Creating layer pool2
I0419 15:48:24.105787  3417 net.cpp:106] Creating Layer pool2
I0419 15:48:24.105790  3417 net.cpp:454] pool2 <- norm2
I0419 15:48:24.105795  3417 net.cpp:411] pool2 -> pool2
I0419 15:48:24.105834  3417 net.cpp:150] Setting up pool2
I0419 15:48:24.105847  3417 net.cpp:157] Top shape: 2 256 39 64 (1277952)
I0419 15:48:24.105850  3417 net.cpp:165] Memory required for data: 453056856
I0419 15:48:24.105854  3417 layer_factory.hpp:77] Creating layer conv3
I0419 15:48:24.105859  3417 net.cpp:106] Creating Layer conv3
I0419 15:48:24.105864  3417 net.cpp:454] conv3 <- pool2
I0419 15:48:24.105868  3417 net.cpp:411] conv3 -> conv3
I0419 15:48:24.109165  3417 net.cpp:150] Setting up conv3
I0419 15:48:24.109184  3417 net.cpp:157] Top shape: 2 384 39 64 (1916928)
I0419 15:48:24.109186  3417 net.cpp:165] Memory required for data: 460724568
I0419 15:48:24.109195  3417 layer_factory.hpp:77] Creating layer relu3
I0419 15:48:24.109205  3417 net.cpp:106] Creating Layer relu3
I0419 15:48:24.109210  3417 net.cpp:454] relu3 <- conv3
I0419 15:48:24.109218  3417 net.cpp:397] relu3 -> conv3 (in-place)
I0419 15:48:24.109226  3417 net.cpp:150] Setting up relu3
I0419 15:48:24.109239  3417 net.cpp:157] Top shape: 2 384 39 64 (1916928)
I0419 15:48:24.109244  3417 net.cpp:165] Memory required for data: 468392280
I0419 15:48:24.109248  3417 layer_factory.hpp:77] Creating layer conv4
I0419 15:48:24.109261  3417 net.cpp:106] Creating Layer conv4
I0419 15:48:24.109272  3417 net.cpp:454] conv4 <- conv3
I0419 15:48:24.109282  3417 net.cpp:411] conv4 -> conv4
I0419 15:48:24.112618  3417 net.cpp:150] Setting up conv4
I0419 15:48:24.112637  3417 net.cpp:157] Top shape: 2 384 39 64 (1916928)
I0419 15:48:24.112640  3417 net.cpp:165] Memory required for data: 476059992
I0419 15:48:24.112646  3417 layer_factory.hpp:77] Creating layer relu4
I0419 15:48:24.112653  3417 net.cpp:106] Creating Layer relu4
I0419 15:48:24.112658  3417 net.cpp:454] relu4 <- conv4
I0419 15:48:24.112664  3417 net.cpp:397] relu4 -> conv4 (in-place)
I0419 15:48:24.112673  3417 net.cpp:150] Setting up relu4
I0419 15:48:24.112686  3417 net.cpp:157] Top shape: 2 384 39 64 (1916928)
I0419 15:48:24.112690  3417 net.cpp:165] Memory required for data: 483727704
I0419 15:48:24.112695  3417 layer_factory.hpp:77] Creating layer conv5
I0419 15:48:24.112707  3417 net.cpp:106] Creating Layer conv5
I0419 15:48:24.112718  3417 net.cpp:454] conv5 <- conv4
I0419 15:48:24.112726  3417 net.cpp:411] conv5 -> conv5
I0419 15:48:24.115061  3417 net.cpp:150] Setting up conv5
I0419 15:48:24.115078  3417 net.cpp:157] Top shape: 2 256 39 64 (1277952)
I0419 15:48:24.115082  3417 net.cpp:165] Memory required for data: 488839512
I0419 15:48:24.115092  3417 layer_factory.hpp:77] Creating layer relu5
I0419 15:48:24.115100  3417 net.cpp:106] Creating Layer relu5
I0419 15:48:24.115105  3417 net.cpp:454] relu5 <- conv5
I0419 15:48:24.115113  3417 net.cpp:397] relu5 -> conv5 (in-place)
I0419 15:48:24.115123  3417 net.cpp:150] Setting up relu5
I0419 15:48:24.115128  3417 net.cpp:157] Top shape: 2 256 39 64 (1277952)
I0419 15:48:24.115135  3417 net.cpp:165] Memory required for data: 493951320
I0419 15:48:24.115140  3417 layer_factory.hpp:77] Creating layer conv5_relu5_0_split
I0419 15:48:24.115154  3417 net.cpp:106] Creating Layer conv5_relu5_0_split
I0419 15:48:24.115159  3417 net.cpp:454] conv5_relu5_0_split <- conv5
I0419 15:48:24.115170  3417 net.cpp:411] conv5_relu5_0_split -> conv5_relu5_0_split_0
I0419 15:48:24.115185  3417 net.cpp:411] conv5_relu5_0_split -> conv5_relu5_0_split_1
I0419 15:48:24.115233  3417 net.cpp:150] Setting up conv5_relu5_0_split
I0419 15:48:24.115248  3417 net.cpp:157] Top shape: 2 256 39 64 (1277952)
I0419 15:48:24.115254  3417 net.cpp:157] Top shape: 2 256 39 64 (1277952)
I0419 15:48:24.115257  3417 net.cpp:165] Memory required for data: 504174936
I0419 15:48:24.115260  3417 layer_factory.hpp:77] Creating layer roi_pool_conv5
I0419 15:48:24.115269  3417 net.cpp:106] Creating Layer roi_pool_conv5
I0419 15:48:24.115274  3417 net.cpp:454] roi_pool_conv5 <- conv5_relu5_0_split_0
I0419 15:48:24.115283  3417 net.cpp:454] roi_pool_conv5 <- rois
I0419 15:48:24.115293  3417 net.cpp:411] roi_pool_conv5 -> roi_pool_conv5
I0419 15:48:24.115314  3417 roi_pooling_layer.cpp:30] Spatial scale: 0.0625
I0419 15:48:24.115367  3417 net.cpp:150] Setting up roi_pool_conv5
I0419 15:48:24.115383  3417 net.cpp:157] Top shape: 1 256 6 6 (9216)
I0419 15:48:24.115387  3417 net.cpp:165] Memory required for data: 504211800
I0419 15:48:24.115392  3417 layer_factory.hpp:77] Creating layer fc6
I0419 15:48:24.115402  3417 net.cpp:106] Creating Layer fc6
I0419 15:48:24.115413  3417 net.cpp:454] fc6 <- roi_pool_conv5
I0419 15:48:24.115420  3417 net.cpp:411] fc6 -> fc6
I0419 15:48:24.214190  3417 net.cpp:150] Setting up fc6
I0419 15:48:24.214229  3417 net.cpp:157] Top shape: 1 4096 (4096)
I0419 15:48:24.214233  3417 net.cpp:165] Memory required for data: 504228184
I0419 15:48:24.214244  3417 layer_factory.hpp:77] Creating layer relu6
I0419 15:48:24.214256  3417 net.cpp:106] Creating Layer relu6
I0419 15:48:24.214267  3417 net.cpp:454] relu6 <- fc6
I0419 15:48:24.214273  3417 net.cpp:397] relu6 -> fc6 (in-place)
I0419 15:48:24.214284  3417 net.cpp:150] Setting up relu6
I0419 15:48:24.214288  3417 net.cpp:157] Top shape: 1 4096 (4096)
I0419 15:48:24.214292  3417 net.cpp:165] Memory required for data: 504244568
I0419 15:48:24.214294  3417 layer_factory.hpp:77] Creating layer drop6
I0419 15:48:24.214309  3417 net.cpp:106] Creating Layer drop6
I0419 15:48:24.214320  3417 net.cpp:454] drop6 <- fc6
I0419 15:48:24.214337  3417 net.cpp:397] drop6 -> fc6 (in-place)
I0419 15:48:24.214388  3417 net.cpp:150] Setting up drop6
I0419 15:48:24.214399  3417 net.cpp:157] Top shape: 1 4096 (4096)
I0419 15:48:24.214402  3417 net.cpp:165] Memory required for data: 504260952
I0419 15:48:24.214406  3417 layer_factory.hpp:77] Creating layer fc7
I0419 15:48:24.214412  3417 net.cpp:106] Creating Layer fc7
I0419 15:48:24.214418  3417 net.cpp:454] fc7 <- fc6
I0419 15:48:24.214424  3417 net.cpp:411] fc7 -> fc7
I0419 15:48:24.258607  3417 net.cpp:150] Setting up fc7
I0419 15:48:24.258648  3417 net.cpp:157] Top shape: 1 4096 (4096)
I0419 15:48:24.258651  3417 net.cpp:165] Memory required for data: 504277336
I0419 15:48:24.258663  3417 layer_factory.hpp:77] Creating layer relu7
I0419 15:48:24.258673  3417 net.cpp:106] Creating Layer relu7
I0419 15:48:24.258682  3417 net.cpp:454] relu7 <- fc7
I0419 15:48:24.258690  3417 net.cpp:397] relu7 -> fc7 (in-place)
I0419 15:48:24.258702  3417 net.cpp:150] Setting up relu7
I0419 15:48:24.258708  3417 net.cpp:157] Top shape: 1 4096 (4096)
I0419 15:48:24.258711  3417 net.cpp:165] Memory required for data: 504293720
I0419 15:48:24.258715  3417 layer_factory.hpp:77] Creating layer drop7
I0419 15:48:24.258723  3417 net.cpp:106] Creating Layer drop7
I0419 15:48:24.258729  3417 net.cpp:454] drop7 <- fc7
I0419 15:48:24.258738  3417 net.cpp:397] drop7 -> fc7 (in-place)
I0419 15:48:24.258767  3417 net.cpp:150] Setting up drop7
I0419 15:48:24.258781  3417 net.cpp:157] Top shape: 1 4096 (4096)
I0419 15:48:24.258786  3417 net.cpp:165] Memory required for data: 504310104
I0419 15:48:24.258790  3417 layer_factory.hpp:77] Creating layer fc7_drop7_0_split
I0419 15:48:24.258798  3417 net.cpp:106] Creating Layer fc7_drop7_0_split
I0419 15:48:24.258808  3417 net.cpp:454] fc7_drop7_0_split <- fc7
I0419 15:48:24.258818  3417 net.cpp:411] fc7_drop7_0_split -> fc7_drop7_0_split_0
I0419 15:48:24.258827  3417 net.cpp:411] fc7_drop7_0_split -> fc7_drop7_0_split_1
I0419 15:48:24.258877  3417 net.cpp:150] Setting up fc7_drop7_0_split
I0419 15:48:24.258890  3417 net.cpp:157] Top shape: 1 4096 (4096)
I0419 15:48:24.258895  3417 net.cpp:157] Top shape: 1 4096 (4096)
I0419 15:48:24.258898  3417 net.cpp:165] Memory required for data: 504342872
I0419 15:48:24.258900  3417 layer_factory.hpp:77] Creating layer cls_score
I0419 15:48:24.258909  3417 net.cpp:106] Creating Layer cls_score
I0419 15:48:24.258919  3417 net.cpp:454] cls_score <- fc7_drop7_0_split_0
I0419 15:48:24.258926  3417 net.cpp:411] cls_score -> cls_score
I0419 15:48:24.264704  3417 net.cpp:150] Setting up cls_score
I0419 15:48:24.264720  3417 net.cpp:157] Top shape: 1 44 (44)
I0419 15:48:24.264724  3417 net.cpp:165] Memory required for data: 504343048
I0419 15:48:24.264729  3417 layer_factory.hpp:77] Creating layer bbox_pred
I0419 15:48:24.264739  3417 net.cpp:106] Creating Layer bbox_pred
I0419 15:48:24.264744  3417 net.cpp:454] bbox_pred <- fc7_drop7_0_split_1
I0419 15:48:24.264750  3417 net.cpp:411] bbox_pred -> bbox_pred
I0419 15:48:24.286234  3417 net.cpp:150] Setting up bbox_pred
I0419 15:48:24.286250  3417 net.cpp:157] Top shape: 1 176 (176)
I0419 15:48:24.286254  3417 net.cpp:165] Memory required for data: 504343752
I0419 15:48:24.286267  3417 layer_factory.hpp:77] Creating layer loss_cls
I0419 15:48:24.286286  3417 net.cpp:106] Creating Layer loss_cls
I0419 15:48:24.286293  3417 net.cpp:454] loss_cls <- cls_score
I0419 15:48:24.286301  3417 net.cpp:454] loss_cls <- labels
I0419 15:48:24.286314  3417 net.cpp:411] loss_cls -> cls_loss
…
I0419 15:48:24.286612  3417 net.cpp:150] Setting up loss_bbox
I0419 15:48:24.286623  3417 net.cpp:157] Top shape: (1)
I0419 15:48:24.286626  3417 net.cpp:160]     with loss weight 1
I0419 15:48:24.286631  3417 net.cpp:165] Memory required for data: 504343760
I0419 15:48:24.286634  3417 layer_factory.hpp:77] Creating layer rpn_conv1
I0419 15:48:24.286645  3417 net.cpp:106] Creating Layer rpn_conv1
I0419 15:48:24.286655  3417 net.cpp:454] rpn_conv1 <- conv5_relu5_0_split_1
I0419 15:48:24.286665  3417 net.cpp:411] rpn_conv1 -> rpn_conv1
I0419 15:48:24.303692  3417 net.cpp:150] Setting up rpn_conv1
I0419 15:48:24.303709  3417 net.cpp:157] Top shape: 2 256 39 64 (1277952)
I0419 15:48:24.303712  3417 net.cpp:165] Memory required for data: 509455568
I0419 15:48:24.303719  3417 layer_factory.hpp:77] Creating layer rpn_relu1
I0419 15:48:24.303727  3417 net.cpp:106] Creating Layer rpn_relu1
I0419 15:48:24.303732  3417 net.cpp:454] rpn_relu1 <- rpn_conv1
I0419 15:48:24.303737  3417 net.cpp:397] rpn_relu1 -> rpn_conv1 (in-place)
I0419 15:48:24.303743  3417 net.cpp:150] Setting up rpn_relu1
I0419 15:48:24.303751  3417 net.cpp:157] Top shape: 2 256 39 64 (1277952)
I0419 15:48:24.303755  3417 net.cpp:165] Memory required for data: 514567376
I0419 15:48:24.303761  3417 layer_factory.hpp:77] Creating layer rpn_conv1_rpn_relu1_0_split
I0419 15:48:24.303767  3417 net.cpp:106] Creating Layer rpn_conv1_rpn_relu1_0_split
I0419 15:48:24.303773  3417 net.cpp:454] rpn_conv1_rpn_relu1_0_split <- rpn_conv1
I0419 15:48:24.303784  3417 net.cpp:411] rpn_conv1_rpn_relu1_0_split -> rpn_conv1_rpn_relu1_0_split_0
I0419 15:48:24.303792  3417 net.cpp:411] rpn_conv1_rpn_relu1_0_split -> rpn_conv1_rpn_relu1_0_split_1
I0419 15:48:24.303838  3417 net.cpp:150] Setting up rpn_conv1_rpn_relu1_0_split
I0419 15:48:24.303851  3417 net.cpp:157] Top shape: 2 256 39 64 (1277952)
I0419 15:48:24.303854  3417 net.cpp:157] Top shape: 2 256 39 64 (1277952)
I0419 15:48:24.303858  3417 net.cpp:165] Memory required for data: 524790992
I0419 15:48:24.303860  3417 layer_factory.hpp:77] Creating layer rpn_cls_score
I0419 15:48:24.303875  3417 net.cpp:106] Creating Layer rpn_cls_score
I0419 15:48:24.303885  3417 net.cpp:454] rpn_cls_score <- rpn_conv1_rpn_relu1_0_split_0
I0419 15:48:24.303894  3417 net.cpp:411] rpn_cls_score -> rpn_cls_score
I0419 15:48:24.304229  3417 net.cpp:150] Setting up rpn_cls_score
I0419 15:48:24.304241  3417 net.cpp:157] Top shape: 2 18 39 64 (89856)
I0419 15:48:24.304244  3417 net.cpp:165] Memory required for data: 525150416
I0419 15:48:24.304250  3417 layer_factory.hpp:77] Creating layer rpn_bbox_pred
I0419 15:48:24.304268  3417 net.cpp:106] Creating Layer rpn_bbox_pred
I0419 15:48:24.304280  3417 net.cpp:454] rpn_bbox_pred <- rpn_conv1_rpn_relu1_0_split_1
I0419 15:48:24.304288  3417 net.cpp:411] rpn_bbox_pred -> rpn_bbox_pred
I0419 15:48:24.304751  3417 net.cpp:150] Setting up rpn_bbox_pred
I0419 15:48:24.304764  3417 net.cpp:157] Top shape: 2 36 39 64 (179712)
I0419 15:48:24.304767  3417 net.cpp:165] Memory required for data: 525869264
I0419 15:48:24.304772  3417 layer_factory.hpp:77] Creating layer silence_rpn_cls_score
I0419 15:48:24.304782  3417 net.cpp:106] Creating Layer silence_rpn_cls_score
I0419 15:48:24.304792  3417 net.cpp:454] silence_rpn_cls_score <- rpn_cls_score
I0419 15:48:24.304800  3417 net.cpp:150] Setting up silence_rpn_cls_score
…
           'RPN_POST_NMS_TOP_N': 2000,
           'RPN_PRE_NMS_TOP_N': 12000,
           'SCALES': [600],
           'SNAPSHOT_INFIX': '',
           'SNAPSHOT_ITERS': 10000,
           'USE_FLIPPED': True,
           'USE_PREFETCH': False},
 'USE_GPU_NMS': True}
WARNING: Logging before InitGoogleLogging() is written to STDERR
I0419 16:11:27.246947  3727 net.cpp:49] Initializing net from parameters: 
name: "ZF"
input: "data"
input: "im_info"
state {
  phase: TEST
}
input_shape {
  dim: 1
  dim: 3
  dim: 1360
  dim: 800
}
input_shape {
  dim: 1
  dim: 3
}
layer {
  name: "conv1"
  type: "Convolution"
  bottom: "data"
  top: "conv1"
  convolution_param {
    num_output: 96
    pad: 3
    kernel_size: 7
    stride: 2
  }
}
layer {
  name: "relu1"
  type: "ReLU"
  bottom: "conv1"
  top: "conv1"
}
layer {
  name: "norm1"
  type: "LRN"
  bottom: "conv1"
  top: "norm1"
  lrn_param {
    local_size: 3
    alpha: 5e-05
    beta: 0.75
    norm_region: WITHIN_CHANNEL
    engine: CAFFE
  }
}
layer {
  name: "pool1"
  type: "Pooling"
  bottom: "norm1"
  top: "pool1"
  pooling_param {
    pool: MAX
    kernel_size: 3
    stride: 2
    pad: 1
  }
}
layer {
  name: "conv2"
  type: "Convolution"
  bottom: "pool1"
  top: "conv2"
  convolution_param {
    num_output: 256
    pad: 2
    kernel_size: 5
    stride: 2
  }
}
layer {
  name: "relu2"
  type: "ReLU"
  bottom: "conv2"
  top: "conv2"
}
layer {
  name: "norm2"
  type: "LRN"
  bottom: "conv2"
  top: "norm2"
  lrn_param {
    local_size: 3
    alpha: 5e-05
    beta: 0.75
    norm_region: WITHIN_CHANNEL
    engine: CAFFE
  }
}
layer {
  name: "pool2"
  type: "Pooling"
  bottom: "norm2"
  top: "pool2"
  pooling_param {
    pool: MAX
    kernel_size: 3
    stride: 2
    pad: 1
  }
}
layer {
  name: "conv3"
  type: "Convolution"
  bottom: "pool2"
  top: "conv3"
  convolution_param {
    num_output: 384
    pad: 1
    kernel_size: 3
    stride: 1
  }
}
layer {
  name: "relu3"
  type: "ReLU"
  bottom: "conv3"
  top: "conv3"
}
layer {
  name: "conv4"
  type: "Convolution"
  bottom: "conv3"
  top: "conv4"
  convolution_param {
    num_output: 384
    pad: 1
    kernel_size: 3
    stride: 1
  }
}
layer {
  name: "relu4"
  type: "ReLU"
  bottom: "conv4"
  top: "conv4"
}
layer {
  name: "conv5"
  type: "Convolution"
  bottom: "conv4"
  top: "conv5"
  convolution_param {
    num_output: 256
    pad: 1
    kernel_size: 3
    stride: 1
  }
}
layer {
  name: "relu5"
  type: "ReLU"
  bottom: "conv5"
  top: "conv5"
}
layer {
  name: "rpn_conv1"
  type: "Convolution"
  bottom: "conv5"
  top: "rpn_conv1"
  convolution_param {
    num_output: 256
    pad: 1
    kernel_size: 3
    stride: 1
  }
}
layer {
  name: "rpn_relu1"
  type: "ReLU"
  bottom: "rpn_conv1"
  top: "rpn_conv1"
}
layer {
  name: "rpn_cls_score"
  type: "Convolution"
  bottom: "rpn_conv1"
  top: "rpn_cls_score"
  convolution_param {
    num_output: 18
    pad: 0
    kernel_size: 1
    stride: 1
  }
}
layer {
  name: "rpn_bbox_pred"
  type: "Convolution"
  bottom: "rpn_conv1"
  top: "rpn_bbox_pred"
  convolution_param {
    num_output: 36
    pad: 0
    kernel_size: 1
    stride: 1
  }
}
layer {
  name: "rpn_cls_score_reshape"
  type: "Reshape"
  bottom: "rpn_cls_score"
  top: "rpn_cls_score_reshape"
  reshape_param {
    shape {
      dim: 0
      dim: 2
      dim: -1
      dim: 0
    }
  }
}
layer {
  name: "rpn_cls_prob"
  type: "Softmax"
  bottom: "rpn_cls_score_reshape"
  top: "rpn_cls_prob"
}
layer {
  name: "rpn_cls_prob_reshape"
  type: "Reshape"
  bottom: "rpn_cls_prob"
  top: "rpn_cls_prob_reshape"
  reshape_param {
    shape {
      dim: 0
      dim: 18
      dim: -1
      dim: 0
    }
  }
}
layer {
  name: "proposal"
  type: "Python"
  bottom: "rpn_cls_prob_reshape"
  bottom: "rpn_bbox_pred"
  bottom: "im_info"
  top: "rois"
  python_param {
    module: "rpn.proposal_layer"
    layer: "ProposalLayer"
    param_str: "\'feat_stride\': 16"
  }
}
layer {
  name: "roi_pool_conv5"
  type: "ROIPooling"
  bottom: "conv5"
  bottom: "rois"
  top: "roi_pool_conv5"
  roi_pooling_param {
    pooled_h: 6
    pooled_w: 6
    spatial_scale: 0.0625
  }
}
layer {
  name: "fc6"
  type: "InnerProduct"
  bottom: "roi_pool_conv5"
  top: "fc6"
  inner_product_param {
    num_output: 4096
  }
}
layer {
  name: "relu6"
  type: "ReLU"
  bottom: "fc6"
  top: "fc6"
}
layer {
  name: "drop6"
  type: "Dropout"
  bottom: "fc6"
  top: "fc6"
  dropout_param {
    dropout_ratio: 0.5
    scale_train: false
  }
}
layer {
  name: "fc7"
  type: "InnerProduct"
  bottom: "fc6"
  top: "fc7"
  inner_product_param {
    num_output: 4096
  }
}
layer {
  name: "relu7"
  type: "ReLU"
  bottom: "fc7"
  top: "fc7"
}
layer {
  name: "drop7"
  type: "Dropout"
  bottom: "fc7"
  top: "fc7"
  dropout_param {
    dropout_ratio: 0.5
    scale_train: false
  }
}
layer {
  name: "cls_score"
  type: "InnerProduct"
  bottom: "fc7"
  top: "cls_score"
  inner_product_param {
    num_output: 44
  }
}
layer {
  name: "bbox_pred"
  type: "InnerProduct"
  bottom: "fc7"
  top: "bbox_pred"
  inner_product_param {
    num_output: 176
  }
}
layer {
  name: "cls_prob"
  type: "Softmax"
  bottom: "cls_score"
  top: "cls_prob"
  loss_param {
    ignore_label: -1
    normalize: true
  }
}
I0419 16:11:27.247102  3727 net.cpp:413] Input 0 -> data
I0419 16:11:27.262117  3727 net.cpp:413] Input 1 -> im_info
I0419 16:11:27.262167  3727 layer_factory.hpp:77] Creating layer conv1
I0419 16:11:27.262197  3727 net.cpp:106] Creating Layer conv1
I0419 16:11:27.262203  3727 net.cpp:454] conv1 <- data
I0419 16:11:27.262218  3727 net.cpp:411] conv1 -> conv1
I0419 16:11:27.263662  3727 net.cpp:150] Setting up conv1
I0419 16:11:27.263684  3727 net.cpp:157] Top shape: 1 96 680 400 (26112000)
I0419 16:11:27.263690  3727 net.cpp:165] Memory required for data: 104448000
I0419 16:11:27.263710  3727 layer_factory.hpp:77] Creating layer relu1
I0419 16:11:27.263725  3727 net.cpp:106] Creating Layer relu1
I0419 16:11:27.263737  3727 net.cpp:454] relu1 <- conv1
I0419 16:11:27.263748  3727 net.cpp:397] relu1 -> conv1 (in-place)
I0419 16:11:27.263764  3727 net.cpp:150] Setting up relu1
I0419 16:11:27.263772  3727 net.cpp:157] Top shape: 1 96 680 400 (26112000)
I0419 16:11:27.263777  3727 net.cpp:165] Memory required for data: 208896000
I0419 16:11:27.263782  3727 layer_factory.hpp:77] Creating layer norm1
I0419 16:11:27.263792  3727 net.cpp:106] Creating Layer norm1
I0419 16:11:27.263797  3727 net.cpp:454] norm1 <- conv1
I0419 16:11:27.263810  3727 net.cpp:411] norm1 -> norm1
I0419 16:11:27.263924  3727 net.cpp:150] Setting up norm1
I0419 16:11:27.263939  3727 net.cpp:157] Top shape: 1 96 680 400 (26112000)
I0419 16:11:27.263944  3727 net.cpp:165] Memory required for data: 313344000
I0419 16:11:27.263948  3727 layer_factory.hpp:77] Creating layer pool1
I0419 16:11:27.263962  3727 net.cpp:106] Creating Layer pool1
I0419 16:11:27.263969  3727 net.cpp:454] pool1 <- norm1
I0419 16:11:27.263979  3727 net.cpp:411] pool1 -> pool1
I0419 16:11:27.264019  3727 net.cpp:150] Setting up pool1
I0419 16:11:27.264032  3727 net.cpp:157] Top shape: 1 96 341 201 (6579936)
I0419 16:11:27.264036  3727 net.cpp:165] Memory required for data: 339663744
I0419 16:11:27.264040  3727 layer_factory.hpp:77] Creating layer conv2
I0419 16:11:27.264050  3727 net.cpp:106] Creating Layer conv2
I0419 16:11:27.264056  3727 net.cpp:454] conv2 <- pool1
I0419 16:11:27.264066  3727 net.cpp:411] conv2 -> conv2
I0419 16:11:27.266232  3727 net.cpp:150] Setting up conv2
I0419 16:11:27.266252  3727 net.cpp:157] Top shape: 1 256 171 101 (4421376)
I0419 16:11:27.266257  3727 net.cpp:165] Memory required for data: 357349248
I0419 16:11:27.266269  3727 layer_factory.hpp:77] Creating layer relu2
I0419 16:11:27.266281  3727 net.cpp:106] Creating Layer relu2
I0419 16:11:27.266288  3727 net.cpp:454] relu2 <- conv2
I0419 16:11:27.266296  3727 net.cpp:397] relu2 -> conv2 (in-place)
I0419 16:11:27.266305  3727 net.cpp:150] Setting up relu2
I0419 16:11:27.266317  3727 net.cpp:157] Top shape: 1 256 171 101 (4421376)
I0419 16:11:27.266321  3727 net.cpp:165] Memory required for data: 375034752
I0419 16:11:27.266340  3727 layer_factory.hpp:77] Creating layer norm2
I0419 16:11:27.266353  3727 net.cpp:106] Creating Layer norm2
I0419 16:11:27.266358  3727 net.cpp:454] norm2 <- conv2
I0419 16:11:27.266368  3727 net.cpp:411] norm2 -> norm2
I0419 16:11:27.266461  3727 net.cpp:150] Setting up norm2
I0419 16:11:27.266475  3727 net.cpp:157] Top shape: 1 256 171 101 (4421376)
I0419 16:11:27.266479  3727 net.cpp:165] Memory required for data: 392720256
I0419 16:11:27.266484  3727 layer_factory.hpp:77] Creating layer pool2
I0419 16:11:27.266491  3727 net.cpp:106] Creating Layer pool2
I0419 16:11:27.266496  3727 net.cpp:454] pool2 <- norm2
I0419 16:11:27.266505  3727 net.cpp:411] pool2 -> pool2
I0419 16:11:27.266544  3727 net.cpp:150] Setting up pool2
I0419 16:11:27.266558  3727 net.cpp:157] Top shape: 1 256 86 51 (1122816)
I0419 16:11:27.266562  3727 net.cpp:165] Memory required for data: 397211520
I0419 16:11:27.266566  3727 layer_factory.hpp:77] Creating layer conv3
I0419 16:11:27.266577  3727 net.cpp:106] Creating Layer conv3
I0419 16:11:27.266583  3727 net.cpp:454] conv3 <- pool2
I0419 16:11:27.266593  3727 net.cpp:411] conv3 -> conv3
I0419 16:11:27.269361  3727 net.cpp:150] Setting up conv3
I0419 16:11:27.269379  3727 net.cpp:157] Top shape: 1 384 86 51 (1684224)
I0419 16:11:27.269384  3727 net.cpp:165] Memory required for data: 403948416
I0419 16:11:27.269400  3727 layer_factory.hpp:77] Creating layer relu3
I0419 16:11:27.269409  3727 net.cpp:106] Creating Layer relu3
I0419 16:11:27.269415  3727 net.cpp:454] relu3 <- conv3
I0419 16:11:27.269423  3727 net.cpp:397] relu3 -> conv3 (in-place)
I0419 16:11:27.269433  3727 net.cpp:150] Setting up relu3
I0419 16:11:27.269439  3727 net.cpp:157] Top shape: 1 384 86 51 (1684224)
I0419 16:11:27.269443  3727 net.cpp:165] Memory required for data: 410685312
I0419 16:11:27.269448  3727 layer_factory.hpp:77] Creating layer conv4
I0419 16:11:27.269459  3727 net.cpp:106] Creating Layer conv4
I0419 16:11:27.269466  3727 net.cpp:454] conv4 <- conv3
I0419 16:11:27.269474  3727 net.cpp:411] conv4 -> conv4
I0419 16:11:27.272761  3727 net.cpp:150] Setting up conv4
I0419 16:11:27.272780  3727 net.cpp:157] Top shape: 1 384 86 51 (1684224)
I0419 16:11:27.272785  3727 net.cpp:165] Memory required for data: 417422208
I0419 16:11:27.272795  3727 layer_factory.hpp:77] Creating layer relu4
I0419 16:11:27.272804  3727 net.cpp:106] Creating Layer relu4
I0419 16:11:27.272809  3727 net.cpp:454] relu4 <- conv4
I0419 16:11:27.272819  3727 net.cpp:397] relu4 -> conv4 (in-place)
I0419 16:11:27.272832  3727 net.cpp:150] Setting up relu4
I0419 16:11:27.272840  3727 net.cpp:157] Top shape: 1 384 86 51 (1684224)
I0419 16:11:27.272848  3727 net.cpp:165] Memory required for data: 424159104
I0419 16:11:27.272853  3727 layer_factory.hpp:77] Creating layer conv5
I0419 16:11:27.272863  3727 net.cpp:106] Creating Layer conv5
I0419 16:11:27.272868  3727 net.cpp:454] conv5 <- conv4
I0419 16:11:27.272879  3727 net.cpp:411] conv5 -> conv5
I0419 16:11:27.275172  3727 net.cpp:150] Setting up conv5
I0419 16:11:27.275192  3727 net.cpp:157] Top shape: 1 256 86 51 (1122816)
I0419 16:11:27.275197  3727 net.cpp:165] Memory required for data: 428650368
I0419 16:11:27.275213  3727 layer_factory.hpp:77] Creating layer relu5
I0419 16:11:27.275221  3727 net.cpp:106] Creating Layer relu5
I0419 16:11:27.275233  3727 net.cpp:454] relu5 <- conv5
I0419 16:11:27.275244  3727 net.cpp:397] relu5 -> conv5 (in-place)
I0419 16:11:27.275255  3727 net.cpp:150] Setting up relu5
I0419 16:11:27.275264  3727 net.cpp:157] Top shape: 1 256 86 51 (1122816)
I0419 16:11:27.275267  3727 net.cpp:165] Memory required for data: 433141632
I0419 16:11:27.275272  3727 layer_factory.hpp:77] Creating layer conv5_relu5_0_split
I0419 16:11:27.275282  3727 net.cpp:106] Creating Layer conv5_relu5_0_split
I0419 16:11:27.275292  3727 net.cpp:454] conv5_relu5_0_split <- conv5
I0419 16:11:27.275300  3727 net.cpp:411] conv5_relu5_0_split -> conv5_relu5_0_split_0
I0419 16:11:27.275307  3727 net.cpp:411] conv5_relu5_0_split -> conv5_relu5_0_split_1
I0419 16:11:27.275352  3727 net.cpp:150] Setting up conv5_relu5_0_split
I0419 16:11:27.275365  3727 net.cpp:157] Top shape: 1 256 86 51 (1122816)
I0419 16:11:27.275372  3727 net.cpp:157] Top shape: 1 256 86 51 (1122816)
I0419 16:11:27.275375  3727 net.cpp:165] Memory required for data: 442124160
I0419 16:11:27.275379  3727 layer_factory.hpp:77] Creating layer rpn_conv1
I0419 16:11:27.275391  3727 net.cpp:106] Creating Layer rpn_conv1
I0419 16:11:27.275401  3727 net.cpp:454] rpn_conv1 <- conv5_relu5_0_split_0
I0419 16:11:27.275409  3727 net.cpp:411] rpn_conv1 -> rpn_conv1
I0419 16:11:27.277029  3727 net.cpp:150] Setting up rpn_conv1
I0419 16:11:27.277047  3727 net.cpp:157] Top shape: 1 256 86 51 (1122816)
I0419 16:11:27.277051  3727 net.cpp:165] Memory required for data: 446615424
I0419 16:11:27.277061  3727 layer_factory.hpp:77] Creating layer rpn_relu1
I0419 16:11:27.277071  3727 net.cpp:106] Creating Layer rpn_relu1
I0419 16:11:27.277078  3727 net.cpp:454] rpn_relu1 <- rpn_conv1
I0419 16:11:27.277089  3727 net.cpp:397] rpn_relu1 -> rpn_conv1 (in-place)
I0419 16:11:27.277099  3727 net.cpp:150] Setting up rpn_relu1
I0419 16:11:27.277107  3727 net.cpp:157] Top shape: 1 256 86 51 (1122816)
I0419 16:11:27.277112  3727 net.cpp:165] Memory required for data: 451106688
I0419 16:11:27.277117  3727 layer_factory.hpp:77] Creating layer rpn_conv1_rpn_relu1_0_split
I0419 16:11:27.277125  3727 net.cpp:106] Creating Layer rpn_conv1_rpn_relu1_0_split
I0419 16:11:27.277129  3727 net.cpp:454] rpn_conv1_rpn_relu1_0_split <- rpn_conv1
I0419 16:11:27.277137  3727 net.cpp:411] rpn_conv1_rpn_relu1_0_split -> rpn_conv1_rpn_relu1_0_split_0
I0419 16:11:27.277145  3727 net.cpp:411] rpn_conv1_rpn_relu1_0_split -> rpn_conv1_rpn_relu1_0_split_1
I0419 16:11:27.277191  3727 net.cpp:150] Setting up rpn_conv1_rpn_relu1_0_split
I0419 16:11:27.277204  3727 net.cpp:157] Top shape: 1 256 86 51 (1122816)
I0419 16:11:27.277210  3727 net.cpp:157] Top shape: 1 256 86 51 (1122816)
I0419 16:11:27.277215  3727 net.cpp:165] Memory required for data: 460089216
I0419 16:11:27.277218  3727 layer_factory.hpp:77] Creating layer rpn_cls_score
I0419 16:11:27.277230  3727 net.cpp:106] Creating Layer rpn_cls_score
I0419 16:11:27.277237  3727 net.cpp:454] rpn_cls_score <- rpn_conv1_rpn_relu1_0_split_0
I0419 16:11:27.277246  3727 net.cpp:411] rpn_cls_score -> rpn_cls_score
I0419 16:11:27.277441  3727 net.cpp:150] Setting up rpn_cls_score
I0419 16:11:27.277454  3727 net.cpp:157] Top shape: 1 18 86 51 (78948)
I0419 16:11:27.277458  3727 net.cpp:165] Memory required for data: 460405008
I0419 16:11:27.277467  3727 layer_factory.hpp:77] Creating layer rpn_bbox_pred
I0419 16:11:27.277482  3727 net.cpp:106] Creating Layer rpn_bbox_pred
I0419 16:11:27.277495  3727 net.cpp:454] rpn_bbox_pred <- rpn_conv1_rpn_relu1_0_split_1
I0419 16:11:27.277503  3727 net.cpp:411] rpn_bbox_pred -> rpn_bbox_pred
I0419 16:11:27.277709  3727 net.cpp:150] Setting up rpn_bbox_pred
I0419 16:11:27.277722  3727 net.cpp:157] Top shape: 1 36 86 51 (157896)
I0419 16:11:27.277727  3727 net.cpp:165] Memory required for data: 461036592
I0419 16:11:27.277735  3727 layer_factory.hpp:77] Creating layer rpn_cls_score_reshape
I0419 16:11:27.277745  3727 net.cpp:106] Creating Layer rpn_cls_score_reshape
I0419 16:11:27.277751  3727 net.cpp:454] rpn_cls_score_reshape <- rpn_cls_score
I0419 16:11:27.277761  3727 net.cpp:411] rpn_cls_score_reshape -> rpn_cls_score_reshape
I0419 16:11:27.277796  3727 net.cpp:150] Setting up rpn_cls_score_reshape
I0419 16:11:27.277808  3727 net.cpp:157] Top shape: 1 2 774 51 (78948)
I0419 16:11:27.277812  3727 net.cpp:165] Memory required for data: 461352384
I0419 16:11:27.277817  3727 layer_factory.hpp:77] Creating layer rpn_cls_prob
I0419 16:11:27.277827  3727 net.cpp:106] Creating Layer rpn_cls_prob
I0419 16:11:27.277834  3727 net.cpp:454] rpn_cls_prob <- rpn_cls_score_reshape
I0419 16:11:27.277842  3727 net.cpp:411] rpn_cls_prob -> rpn_cls_prob
I0419 16:11:27.277904  3727 net.cpp:150] Setting up rpn_cls_prob
I0419 16:11:27.277915  3727 net.cpp:157] Top shape: 1 2 774 51 (78948)
I0419 16:11:27.277920  3727 net.cpp:165] Memory required for data: 461668176
I0419 16:11:27.277923  3727 layer_factory.hpp:77] Creating layer rpn_cls_prob_reshape
I0419 16:11:27.277933  3727 net.cpp:106] Creating Layer rpn_cls_prob_reshape
I0419 16:11:27.277940  3727 net.cpp:454] rpn_cls_prob_reshape <- rpn_cls_prob
I0419 16:11:27.277951  3727 net.cpp:411] rpn_cls_prob_reshape -> rpn_cls_prob_reshape
I0419 16:11:27.277983  3727 net.cpp:150] Setting up rpn_cls_prob_reshape
I0419 16:11:27.277995  3727 net.cpp:157] Top shape: 1 18 86 51 (78948)
I0419 16:11:27.277999  3727 net.cpp:165] Memory required for data: 461983968
I0419 16:11:27.278004  3727 layer_factory.hpp:77] Creating layer proposal
I0419 16:11:27.278501  3727 net.cpp:106] Creating Layer proposal
I0419 16:11:27.278517  3727 net.cpp:454] proposal <- rpn_cls_prob_reshape
I0419 16:11:27.278524  3727 net.cpp:454] proposal <- rpn_bbox_pred
I0419 16:11:27.278530  3727 net.cpp:454] proposal <- im_info
I0419 16:11:27.278538  3727 net.cpp:411] proposal -> rois
I0419 16:11:27.279211  3727 net.cpp:150] Setting up proposal
I0419 16:11:27.279232  3727 net.cpp:157] Top shape: 1 5 (5)
I0419 16:11:27.279237  3727 net.cpp:165] Memory required for data: 461983988
I0419 16:11:27.279243  3727 layer_factory.hpp:77] Creating layer roi_pool_conv5
I0419 16:11:27.279255  3727 net.cpp:106] Creating Layer roi_pool_conv5
I0419 16:11:27.279264  3727 net.cpp:454] roi_pool_conv5 <- conv5_relu5_0_split_1
I0419 16:11:27.279273  3727 net.cpp:454] roi_pool_conv5 <- rois
I0419 16:11:27.279289  3727 net.cpp:411] roi_pool_conv5 -> roi_pool_conv5
I0419 16:11:27.279304  3727 roi_pooling_layer.cpp:30] Spatial scale: 0.0625
I0419 16:11:27.279364  3727 net.cpp:150] Setting up roi_pool_conv5
I0419 16:11:27.279377  3727 net.cpp:157] Top shape: 1 256 6 6 (9216)
I0419 16:11:27.279382  3727 net.cpp:165] Memory required for data: 462020852
I0419 16:11:27.279387  3727 layer_factory.hpp:77] Creating layer fc6
I0419 16:11:27.279399  3727 net.cpp:106] Creating Layer fc6
I0419 16:11:27.279408  3727 net.cpp:454] fc6 <- roi_pool_conv5
I0419 16:11:27.279417  3727 net.cpp:411] fc6 -> fc6
I0419 16:11:27.377741  3727 net.cpp:150] Setting up fc6
I0419 16:11:27.377785  3727 net.cpp:157] Top shape: 1 4096 (4096)
I0419 16:11:27.377790  3727 net.cpp:165] Memory required for data: 462037236
I0419 16:11:27.377813  3727 layer_factory.hpp:77] Creating layer relu6
I0419 16:11:27.377831  3727 net.cpp:106] Creating Layer relu6
I0419 16:11:27.377838  3727 net.cpp:454] relu6 <- fc6
I0419 16:11:27.377846  3727 net.cpp:397] relu6 -> fc6 (in-place)
I0419 16:11:27.377858  3727 net.cpp:150] Setting up relu6
I0419 16:11:27.377866  3727 net.cpp:157] Top shape: 1 4096 (4096)
I0419 16:11:27.377877  3727 net.cpp:165] Memory required for data: 462053620
I0419 16:11:27.377882  3727 layer_factory.hpp:77] Creating layer drop6
I0419 16:11:27.377900  3727 net.cpp:106] Creating Layer drop6
I0419 16:11:27.377912  3727 net.cpp:454] drop6 <- fc6
I0419 16:11:27.377918  3727 net.cpp:397] drop6 -> fc6 (in-place)
I0419 16:11:27.377952  3727 net.cpp:150] Setting up drop6
I0419 16:11:27.377965  3727 net.cpp:157] Top shape: 1 4096 (4096)
I0419 16:11:27.377969  3727 net.cpp:165] Memory required for data: 462070004
I0419 16:11:27.377974  3727 layer_factory.hpp:77] Creating layer fc7
I0419 16:11:27.377986  3727 net.cpp:106] Creating Layer fc7
I0419 16:11:27.377993  3727 net.cpp:454] fc7 <- fc6
I0419 16:11:27.378000  3727 net.cpp:411] fc7 -> fc7
I0419 16:11:27.421516  3727 net.cpp:150] Setting up fc7
I0419 16:11:27.421561  3727 net.cpp:157] Top shape: 1 4096 (4096)
I0419 16:11:27.421566  3727 net.cpp:165] Memory required for data: 462086388
I0419 16:11:27.421581  3727 layer_factory.hpp:77] Creating layer relu7
I0419 16:11:27.421593  3727 net.cpp:106] Creating Layer relu7
I0419 16:11:27.421598  3727 net.cpp:454] relu7 <- fc7
I0419 16:11:27.421609  3727 net.cpp:397] relu7 -> fc7 (in-place)
I0419 16:11:27.421622  3727 net.cpp:150] Setting up relu7
I0419 16:11:27.421633  3727 net.cpp:157] Top shape: 1 4096 (4096)
I0419 16:11:27.421638  3727 net.cpp:165] Memory required for data: 462102772
I0419 16:11:27.421643  3727 layer_factory.hpp:77] Creating layer drop7
I0419 16:11:27.421650  3727 net.cpp:106] Creating Layer drop7
I0419 16:11:27.421658  3727 net.cpp:454] drop7 <- fc7
I0419 16:11:27.421664  3727 net.cpp:397] drop7 -> fc7 (in-place)
I0419 16:11:27.421700  3727 net.cpp:150] Setting up drop7
I0419 16:11:27.421711  3727 net.cpp:157] Top shape: 1 4096 (4096)
I0419 16:11:27.421716  3727 net.cpp:165] Memory required for data: 462119156
I0419 16:11:27.421720  3727 layer_factory.hpp:77] Creating layer fc7_drop7_0_split
I0419 16:11:27.421730  3727 net.cpp:106] Creating Layer fc7_drop7_0_split
I0419 16:11:27.421735  3727 net.cpp:454] fc7_drop7_0_split <- fc7
I0419 16:11:27.421744  3727 net.cpp:411] fc7_drop7_0_split -> fc7_drop7_0_split_0
I0419 16:11:27.421756  3727 net.cpp:411] fc7_drop7_0_split -> fc7_drop7_0_split_1
I0419 16:11:27.421797  3727 net.cpp:150] Setting up fc7_drop7_0_split
I0419 16:11:27.421809  3727 net.cpp:157] Top shape: 1 4096 (4096)
I0419 16:11:27.421815  3727 net.cpp:157] Top shape: 1 4096 (4096)
I0419 16:11:27.421818  3727 net.cpp:165] Memory required for data: 462151924
I0419 16:11:27.421823  3727 layer_factory.hpp:77] Creating layer cls_score
I0419 16:11:27.421842  3727 net.cpp:106] Creating Layer cls_score
I0419 16:11:27.421851  3727 net.cpp:454] cls_score <- fc7_drop7_0_split_0
I0419 16:11:27.421860  3727 net.cpp:411] cls_score -> cls_score
I0419 16:11:27.422715  3727 net.cpp:150] Setting up cls_score
I0419 16:11:27.422734  3727 net.cpp:157] Top shape: 1 44 (44)
I0419 16:11:27.422739  3727 net.cpp:165] Memory required for data: 462152100
I0419 16:11:27.422749  3727 layer_factory.hpp:77] Creating layer bbox_pred
I0419 16:11:27.422760  3727 net.cpp:106] Creating Layer bbox_pred
I0419 16:11:27.422765  3727 net.cpp:454] bbox_pred <- fc7_drop7_0_split_1
I0419 16:11:27.422771  3727 net.cpp:411] bbox_pred -> bbox_pred
I0419 16:11:27.424587  3727 net.cpp:150] Setting up bbox_pred
I0419 16:11:27.424605  3727 net.cpp:157] Top shape: 1 176 (176)
I0419 16:11:27.424610  3727 net.cpp:165] Memory required for data: 462152804
I0419 16:11:27.424619  3727 layer_factory.hpp:77] Creating layer cls_prob
I0419 16:11:27.424630  3727 net.cpp:106] Creating Layer cls_prob
I0419 16:11:27.424635  3727 net.cpp:454] cls_prob <- cls_score
I0419 16:11:27.424645  3727 net.cpp:411] cls_prob -> cls_prob
I0419 16:11:27.424720  3727 net.cpp:150] Setting up cls_prob
I0419 16:11:27.424732  3727 net.cpp:157] Top shape: 1 44 (44)
I0419 16:11:27.424736  3727 net.cpp:165] Memory required for data: 462152980
I0419 16:11:27.424741  3727 net.cpp:228] cls_prob does not need backward computation.
I0419 16:11:27.424746  3727 net.cpp:228] bbox_pred does not need backward computation.
I0419 16:11:27.424751  3727 net.cpp:228] cls_score does not need backward computation.
I0419 16:11:27.424756  3727 net.cpp:228] fc7_drop7_0_split does not need backward computation.
…
weight_decay: 0.0005
stepsize: 60000
snapshot: 0
snapshot_prefix: "zf_rpn"
average_loss: 100
I0421 12:58:46.169311 12236 solver.cpp:81] Creating training net from train_net file: models/pascal_voc/ZF/faster_rcnn_alt_opt/stage1_rpn_train.pt
I0421 12:58:46.170116 12236 net.cpp:49] Initializing net from parameters: 
name: "ZF"
state {
  phase: TRAIN
}
layer {
  name: "input-data"
  type: "Python"
  top: "data"
  top: "im_info"
  top: "gt_boxes"
  python_param {
    module: "roi_data_layer.layer"
    layer: "RoIDataLayer"
    param_str: "\'num_classes\': 44"
  }
}
layer {
  name: "conv1"
  type: "Convolution"
  bottom: "data"
  top: "conv1"
  param {
    lr_mult: 1
  }
  param {
    lr_mult: 2
  }
  convolution_param {
    num_output: 96
    pad: 3
    kernel_size: 7
    stride: 2
  }
}
layer {
  name: "relu1"
  type: "ReLU"
  bottom: "conv1"
  top: "conv1"
}
layer {
  name: "norm1"
  type: "LRN"
  bottom: "conv1"
  top: "norm1"
  lrn_param {
    local_size: 3
    alpha: 5e-05
    beta: 0.75
    norm_region: WITHIN_CHANNEL
    engine: CAFFE
  }
}
layer {
  name: "pool1"
  type: "Pooling"
  bottom: "norm1"
  top: "pool1"
  pooling_param {
    pool: MAX
    kernel_size: 3
    stride: 2
    pad: 1
  }
}
layer {
  name: "conv2"
  type: "Convolution"
  bottom: "pool1"
  top: "conv2"
  param {
    lr_mult: 1
  }
  param {
    lr_mult: 2
  }
  convolution_param {
    num_output: 256
    pad: 2
    kernel_size: 5
    stride: 2
  }
}
layer {
  name: "relu2"
  type: "ReLU"
  bottom: "conv2"
  top: "conv2"
}
layer {
  name: "norm2"
  type: "LRN"
  bottom: "conv2"
  top: "norm2"
  lrn_param {
    local_size: 3
    alpha: 5e-05
    beta: 0.75
    norm_region: WITHIN_CHANNEL
    engine: CAFFE
  }
}
layer {
  name: "pool2"
  type: "Pooling"
  bottom: "norm2"
  top: "pool2"
  pooling_param {
    pool: MAX
    kernel_size: 3
    stride: 2
    pad: 1
  }
}
layer {
  name: "conv3"
  type: "Convolution"
  bottom: "pool2"
  top: "conv3"
  param {
    lr_mult: 1
  }
  param {
    lr_mult: 2
  }
  convolution_param {
    num_output: 384
    pad: 1
    kernel_size: 3
    stride: 1
  }
}
layer {
  name: "relu3"
  type: "ReLU"
  bottom: "conv3"
  top: "conv3"
}
layer {
  name: "conv4"
  type: "Convolution"
  bottom: "conv3"
  top: "conv4"
  param {
    lr_mult: 1
  }
  param {
    lr_mult: 2
  }
  convolution_param {
    num_output: 384
    pad: 1
    kernel_size: 3
    stride: 1
  }
}
layer {
  name: "relu4"
  type: "ReLU"
  bottom: "conv4"
  top: "conv4"
}
layer {
  name: "conv5"
  type: "Convolution"
  bottom: "conv4"
  top: "conv5"
  param {
    lr_mult: 1
  }
  param {
    lr_mult: 2
  }
  convolution_param {
    num_output: 256
    pad: 1
    kernel_size: 3
    stride: 1
  }
}
layer {
  name: "relu5"
  type: "ReLU"
  bottom: "conv5"
  top: "conv5"
}
layer {
  name: "rpn_conv1"
  type: "Convolution"
  bottom: "conv5"
  top: "rpn_conv1"
  param {
    lr_mult: 1
  }
  param {
    lr_mult: 2
  }
  convolution_param {
    num_output: 256
    pad: 1
    kernel_size: 3
    stride: 1
    weight_filler {
      type: "gaussian"
      std: 0.01
    }
    bias_filler {
      type: "constant"
      value: 0
    }
  }
}
layer {
  name: "rpn_conv2"
  type: "Convolution"
  bottom: "conv3"
  top: "rpn_conv2"
  param {
    lr_mult: 1
  }
  param {
    lr_mult: 2
  }
  convolution_param {
    num_output: 256
    pad: 1
    kernel_size: 3
    stride: 1
    weight_filler {
      type: "gaussian"
      std: 0.01
    }
    bias_filler {
      type: "constant"
      value: 0
    }
  }
}
layer {
  name: "rpn_relu1"
  type: "ReLU"
  bottom: "rpn_conv1"
  top: "rpn_conv1"
}
layer {
  name: "rpn_relu2"
  type: "ReLU"
  bottom: "rpn_conv2"
  top: "rpn_conv2"
}
layer {
  name: "rpn_cls_score"
  type: "Convolution"
  bottom: "rpn_conv1"
  bottom: "rpn_conv2"
  top: "rpn_cls_score"
  param {
    lr_mult: 1
  }
  param {
    lr_mult: 2
  }
  convolution_param {
    num_output: 18
    pad: 0
    kernel_size: 1
    stride: 1
    weight_filler {
      type: "gaussian"
      std: 0.01
    }
    bias_filler {
      type: "constant"
      value: 0
    }
  }
}
layer {
  name: "rpn_bbox_pred"
  type: "Convolution"
  bottom: "rpn_conv1"
  bottom: "rpn_conv2"
  top: "rpn_bbox_pred"
  param {
    lr_mult: 1
  }
  param {
    lr_mult: 2
  }
  convolution_param {
    num_output: 36
    pad: 0
    kernel_size: 1
    stride: 1
    weight_filler {
      type: "gaussian"
      std: 0.01
    }
    bias_filler {
      type: "constant"
      value: 0
    }
  }
}
layer {
  name: "rpn_cls_score_reshape"
  type: "Reshape"
  bottom: "rpn_cls_score"
  top: "rpn_cls_score_reshape"
  reshape_param {
    shape {
      dim: 0
      dim: 2
      dim: -1
      dim: 0
    }
  }
}
layer {
  name: "rpn-data"
  type: "Python"
  bottom: "rpn_cls_score"
  bottom: "gt_boxes"
  bottom: "im_info"
  bottom: "data"
  top: "rpn_labels"
  top: "rpn_bbox_targets"
  top: "rpn_bbox_inside_weights"
  top: "rpn_bbox_outside_weights"
  python_param {
    module: "rpn.anchor_target_layer"
    layer: "AnchorTargetLayer"
    param_str: "\'feat_stride\': 16"
  }
}
layer {
  name: "rpn_loss_cls"
  type: "SoftmaxWithLoss"
  bottom: "rpn_cls_score_reshape"
  bottom: "rpn_labels"
  top: "rpn_cls_loss"
  loss_weight: 1
  propagate_down: true
  propagate_down: false
  loss_param {
    ignore_label: -1
    normalize: true
  }
}
layer {
  name: "rpn_loss_bbox"
  type: "SmoothL1Loss"
  bottom: "rpn_bbox_pred"
  bottom: "rpn_bbox_targets"
  bottom: "rpn_bbox_inside_weights"
  bottom: "rpn_bbox_outside_weights"
  top: "rpn_loss_bbox"
  loss_weight: 1
  smooth_l1_loss_param {
    sigma: 3
  }
}
layer {
  name: "dummy_roi_pool_conv5"
  type: "DummyData"
  top: "dummy_roi_pool_conv5"
  dummy_data_param {
    data_filler {
      type: "gaussian"
      std: 0.01
    }
    shape {
      dim: 1
      dim: 9216
    }
  }
}
layer {
  name: "fc6"
  type: "InnerProduct"
  bottom: "dummy_roi_pool_conv5"
  top: "fc6"
  param {
    lr_mult: 0
    decay_mult: 0
  }
  param {
    lr_mult: 0
    decay_mult: 0
  }
  inner_product_param {
    num_output: 4096
  }
}
layer {
  name: "relu6"
  type: "ReLU"
  bottom: "fc6"
  top: "fc6"
}
layer {
  name: "fc7"
  type: "InnerProduct"
  bottom: "fc6"
  top: "fc7"
  param {
    lr_mult: 0
    decay_mult: 0
  }
  param {
    lr_mult: 0
    decay_mult: 0
  }
  inner_product_param {
    num_output: 4096
  }
}
layer {
  name: "silence_fc7"
  type: "Silence"
  bottom: "fc7"
}
I0421 12:58:46.170320 12236 layer_factory.hpp:77] Creating layer input-data
I0421 12:58:46.171027 12236 net.cpp:106] Creating Layer input-data
I0421 12:58:46.171051 12236 net.cpp:411] input-data -> data
I0421 12:58:46.171075 12236 net.cpp:411] input-data -> im_info
I0421 12:58:46.171093 12236 net.cpp:411] input-data -> gt_boxes
RoiDataLayer: name_to_top: {'gt_boxes': 2, 'data': 0, 'im_info': 1}
I0421 12:58:46.187001 12236 net.cpp:150] Setting up input-data
I0421 12:58:46.187036 12236 net.cpp:157] Top shape: 1 3 600 1000 (1800000)
I0421 12:58:46.187054 12236 net.cpp:157] Top shape: 1 3 (3)
I0421 12:58:46.187062 12236 net.cpp:157] Top shape: 1 4 (4)
I0421 12:58:46.187065 12236 net.cpp:165] Memory required for data: 7200028
I0421 12:58:46.187072 12236 layer_factory.hpp:77] Creating layer data_input-data_0_split
I0421 12:58:46.187096 12236 net.cpp:106] Creating Layer data_input-data_0_split
I0421 12:58:46.187108 12236 net.cpp:454] data_input-data_0_split <- data
I0421 12:58:46.187125 12236 net.cpp:411] data_input-data_0_split -> data_input-data_0_split_0
I0421 12:58:46.187137 12236 net.cpp:411] data_input-data_0_split -> data_input-data_0_split_1
I0421 12:58:46.187178 12236 net.cpp:150] Setting up data_input-data_0_split
I0421 12:58:46.187191 12236 net.cpp:157] Top shape: 1 3 600 1000 (1800000)
I0421 12:58:46.187196 12236 net.cpp:157] Top shape: 1 3 600 1000 (1800000)
I0421 12:58:46.187201 12236 net.cpp:165] Memory required for data: 21600028
I0421 12:58:46.187206 12236 layer_factory.hpp:77] Creating layer conv1
I0421 12:58:46.187224 12236 net.cpp:106] Creating Layer conv1
I0421 12:58:46.187233 12236 net.cpp:454] conv1 <- data_input-data_0_split_0
I0421 12:58:46.187242 12236 net.cpp:411] conv1 -> conv1
I0421 12:58:46.188603 12236 net.cpp:150] Setting up conv1
I0421 12:58:46.188623 12236 net.cpp:157] Top shape: 1 96 300 500 (14400000)
I0421 12:58:46.188628 12236 net.cpp:165] Memory required for data: 79200028
I0421 12:58:46.188652 12236 layer_factory.hpp:77] Creating layer relu1
I0421 12:58:46.188665 12236 net.cpp:106] Creating Layer relu1
I0421 12:58:46.188676 12236 net.cpp:454] relu1 <- conv1
I0421 12:58:46.188684 12236 net.cpp:397] relu1 -> conv1 (in-place)
I0421 12:58:46.188697 12236 net.cpp:150] Setting up relu1
I0421 12:58:46.188704 12236 net.cpp:157] Top shape: 1 96 300 500 (14400000)
I0421 12:58:46.188709 12236 net.cpp:165] Memory required for data: 136800028
I0421 12:58:46.188712 12236 layer_factory.hpp:77] Creating layer norm1
I0421 12:58:46.188725 12236 net.cpp:106] Creating Layer norm1
I0421 12:58:46.188735 12236 net.cpp:454] norm1 <- conv1
I0421 12:58:46.188743 12236 net.cpp:411] norm1 -> norm1
I0421 12:58:46.188854 12236 net.cpp:150] Setting up norm1
I0421 12:58:46.188868 12236 net.cpp:157] Top shape: 1 96 300 500 (14400000)
I0421 12:58:46.188871 12236 net.cpp:165] Memory required for data: 194400028
I0421 12:58:46.188876 12236 layer_factory.hpp:77] Creating layer pool1
I0421 12:58:46.188886 12236 net.cpp:106] Creating Layer pool1
I0421 12:58:46.188894 12236 net.cpp:454] pool1 <- norm1
I0421 12:58:46.188900 12236 net.cpp:411] pool1 -> pool1
I0421 12:58:46.188943 12236 net.cpp:150] Setting up pool1
I0421 12:58:46.188956 12236 net.cpp:157] Top shape: 1 96 151 251 (3638496)
I0421 12:58:46.188959 12236 net.cpp:165] Memory required for data: 208954012
I0421 12:58:46.188963 12236 layer_factory.hpp:77] Creating layer conv2
I0421 12:58:46.188973 12236 net.cpp:106] Creating Layer conv2
I0421 12:58:46.188978 12236 net.cpp:454] conv2 <- pool1
I0421 12:58:46.188989 12236 net.cpp:411] conv2 -> conv2
I0421 12:58:46.190721 12236 net.cpp:150] Setting up conv2
I0421 12:58:46.190742 12236 net.cpp:157] Top shape: 1 256 76 126 (2451456)
I0421 12:58:46.190747 12236 net.cpp:165] Memory required for data: 218759836
I0421 12:58:46.190758 12236 layer_factory.hpp:77] Creating layer relu2
I0421 12:58:46.190768 12236 net.cpp:106] Creating Layer relu2
I0421 12:58:46.190775 12236 net.cpp:454] relu2 <- conv2
I0421 12:58:46.190785 12236 net.cpp:397] relu2 -> conv2 (in-place)
I0421 12:58:46.190796 12236 net.cpp:150] Setting up relu2
I0421 12:58:46.190804 12236 net.cpp:157] Top shape: 1 256 76 126 (2451456)
I0421 12:58:46.190809 12236 net.cpp:165] Memory required for data: 228565660
I0421 12:58:46.190812 12236 layer_factory.hpp:77] Creating layer norm2
I0421 12:58:46.190821 12236 net.cpp:106] Creating Layer norm2
I0421 12:58:46.190830 12236 net.cpp:454] norm2 <- conv2
I0421 12:58:46.190840 12236 net.cpp:411] norm2 -> norm2
I0421 12:58:46.190934 12236 net.cpp:150] Setting up norm2
I0421 12:58:46.190946 12236 net.cpp:157] Top shape: 1 256 76 126 (2451456)
I0421 12:58:46.190950 12236 net.cpp:165] Memory required for data: 238371484
I0421 12:58:46.190955 12236 layer_factory.hpp:77] Creating layer pool2
I0421 12:58:46.190964 12236 net.cpp:106] Creating Layer pool2
I0421 12:58:46.190973 12236 net.cpp:454] pool2 <- norm2
I0421 12:58:46.190979 12236 net.cpp:411] pool2 -> pool2
I0421 12:58:46.191018 12236 net.cpp:150] Setting up pool2
I0421 12:58:46.191030 12236 net.cpp:157] Top shape: 1 256 39 64 (638976)
I0421 12:58:46.191035 12236 net.cpp:165] Memory required for data: 240927388
I0421 12:58:46.191038 12236 layer_factory.hpp:77] Creating layer conv3
I0421 12:58:46.191047 12236 net.cpp:106] Creating Layer conv3
I0421 12:58:46.191053 12236 net.cpp:454] conv3 <- pool2
I0421 12:58:46.191061 12236 net.cpp:411] conv3 -> conv3
I0421 12:58:46.194321 12236 net.cpp:150] Setting up conv3
I0421 12:58:46.194352 12236 net.cpp:157] Top shape: 1 384 39 64 (958464)
I0421 12:58:46.194357 12236 net.cpp:165] Memory required for data: 244761244
I0421 12:58:46.194370 12236 layer_factory.hpp:77] Creating layer relu3
I0421 12:58:46.194378 12236 net.cpp:106] Creating Layer relu3
I0421 12:58:46.194386 12236 net.cpp:454] relu3 <- conv3
I0421 12:58:46.194396 12236 net.cpp:397] relu3 -> conv3 (in-place)
I0421 12:58:46.194411 12236 net.cpp:150] Setting up relu3
I0421 12:58:46.194418 12236 net.cpp:157] Top shape: 1 384 39 64 (958464)
I0421 12:58:46.194422 12236 net.cpp:165] Memory required for data: 248595100
I0421 12:58:46.194427 12236 layer_factory.hpp:77] Creating layer conv3_relu3_0_split
I0421 12:58:46.194435 12236 net.cpp:106] Creating Layer conv3_relu3_0_split
I0421 12:58:46.194439 12236 net.cpp:454] conv3_relu3_0_split <- conv3
I0421 12:58:46.194447 12236 net.cpp:411] conv3_relu3_0_split -> conv3_relu3_0_split_0
I0421 12:58:46.194458 12236 net.cpp:411] conv3_relu3_0_split -> conv3_relu3_0_split_1
I0421 12:58:46.194499 12236 net.cpp:150] Setting up conv3_relu3_0_split
I0421 12:58:46.194514 12236 net.cpp:157] Top shape: 1 384 39 64 (958464)
I0421 12:58:46.194519 12236 net.cpp:157] Top shape: 1 384 39 64 (958464)
I0421 12:58:46.194524 12236 net.cpp:165] Memory required for data: 256262812
I0421 12:58:46.194528 12236 layer_factory.hpp:77] Creating layer conv4
I0421 12:58:46.194540 12236 net.cpp:106] Creating Layer conv4
I0421 12:58:46.194550 12236 net.cpp:454] conv4 <- conv3_relu3_0_split_0
I0421 12:58:46.194561 12236 net.cpp:411] conv4 -> conv4
I0421 12:58:46.197835 12236 net.cpp:150] Setting up conv4
I0421 12:58:46.197854 12236 net.cpp:157] Top shape: 1 384 39 64 (958464)
I0421 12:58:46.197860 12236 net.cpp:165] Memory required for data: 260096668
I0421 12:58:46.197870 12236 layer_factory.hpp:77] Creating layer relu4
I0421 12:58:46.197876 12236 net.cpp:106] Creating Layer relu4
I0421 12:58:46.197881 12236 net.cpp:454] relu4 <- conv4
I0421 12:58:46.197891 12236 net.cpp:397] relu4 -> conv4 (in-place)
I0421 12:58:46.197901 12236 net.cpp:150] Setting up relu4
I0421 12:58:46.197908 12236 net.cpp:157] Top shape: 1 384 39 64 (958464)
I0421 12:58:46.197916 12236 net.cpp:165] Memory required for data: 263930524
I0421 12:58:46.197921 12236 layer_factory.hpp:77] Creating layer conv5
I0421 12:58:46.197933 12236 net.cpp:106] Creating Layer conv5
I0421 12:58:46.197943 12236 net.cpp:454] conv5 <- conv4
I0421 12:58:46.197952 12236 net.cpp:411] conv5 -> conv5
I0421 12:58:46.200263 12236 net.cpp:150] Setting up conv5
I0421 12:58:46.200283 12236 net.cpp:157] Top shape: 1 256 39 64 (638976)
I0421 12:58:46.200287 12236 net.cpp:165] Memory required for data: 266486428
I0421 12:58:46.200299 12236 layer_factory.hpp:77] Creating layer relu5
I0421 12:58:46.200314 12236 net.cpp:106] Creating Layer relu5
I0421 12:58:46.200320 12236 net.cpp:454] relu5 <- conv5
I0421 12:58:46.200327 12236 net.cpp:397] relu5 -> conv5 (in-place)
I0421 12:58:46.200341 12236 net.cpp:150] Setting up relu5
I0421 12:58:46.200347 12236 net.cpp:157] Top shape: 1 256 39 64 (638976)
I0421 12:58:46.200353 12236 net.cpp:165] Memory required for data: 269042332
I0421 12:58:46.200357 12236 layer_factory.hpp:77] Creating layer rpn_conv1
I0421 12:58:46.200373 12236 net.cpp:106] Creating Layer rpn_conv1
I0421 12:58:46.200383 12236 net.cpp:454] rpn_conv1 <- conv5
I0421 12:58:46.200394 12236 net.cpp:411] rpn_conv1 -> rpn_conv1
I0421 12:58:46.217424 12236 net.cpp:150] Setting up rpn_conv1
I0421 12:58:46.217443 12236 net.cpp:157] Top shape: 1 256 39 64 (638976)
I0421 12:58:46.217448 12236 net.cpp:165] Memory required for data: 271598236
I0421 12:58:46.217458 12236 layer_factory.hpp:77] Creating layer rpn_conv2
I0421 12:58:46.217474 12236 net.cpp:106] Creating Layer rpn_conv2
I0421 12:58:46.217481 12236 net.cpp:454] rpn_conv2 <- conv3_relu3_0_split_1
I0421 12:58:46.217494 12236 net.cpp:411] rpn_conv2 -> rpn_conv2
I0421 12:58:46.242950 12236 net.cpp:150] Setting up rpn_conv2
I0421 12:58:46.242969 12236 net.cpp:157] Top shape: 1 256 39 64 (638976)
I0421 12:58:46.242974 12236 net.cpp:165] Memory required for data: 274154140
I0421 12:58:46.242985 12236 layer_factory.hpp:77] Creating layer rpn_relu1
I0421 12:58:46.242992 12236 net.cpp:106] Creating Layer rpn_relu1
I0421 12:58:46.242997 12236 net.cpp:454] rpn_relu1 <- rpn_conv1
I0421 12:58:46.243007 12236 net.cpp:397] rpn_relu1 -> rpn_conv1 (in-place)
I0421 12:58:46.243018 12236 net.cpp:150] Setting up rpn_relu1
I0421 12:58:46.243026 12236 net.cpp:157] Top shape: 1 256 39 64 (638976)
I0421 12:58:46.243033 12236 net.cpp:165] Memory required for data: 276710044
I0421 12:58:46.243038 12236 layer_factory.hpp:77] Creating layer rpn_conv1_rpn_relu1_0_split
I0421 12:58:46.243049 12236 net.cpp:106] Creating Layer rpn_conv1_rpn_relu1_0_split
I0421 12:58:46.243054 12236 net.cpp:454] rpn_conv1_rpn_relu1_0_split <- rpn_conv1
I0421 12:58:46.243060 12236 net.cpp:411] rpn_conv1_rpn_relu1_0_split -> rpn_conv1_rpn_relu1_0_split_0
I0421 12:58:46.243068 12236 net.cpp:411] rpn_conv1_rpn_relu1_0_split -> rpn_conv1_rpn_relu1_0_split_1
I0421 12:58:46.243119 12236 net.cpp:150] Setting up rpn_conv1_rpn_relu1_0_split
I0421 12:58:46.243131 12236 net.cpp:157] Top shape: 1 256 39 64 (638976)
I0421 12:58:46.243137 12236 net.cpp:157] Top shape: 1 256 39 64 (638976)
I0421 12:58:46.243141 12236 net.cpp:165] Memory required for data: 281821852
I0421 12:58:46.243145 12236 layer_factory.hpp:77] Creating layer rpn_relu2
I0421 12:58:46.243154 12236 net.cpp:106] Creating Layer rpn_relu2
I0421 12:58:46.243162 12236 net.cpp:454] rpn_relu2 <- rpn_conv2
I0421 12:58:46.243171 12236 net.cpp:397] rpn_relu2 -> rpn_conv2 (in-place)
I0421 12:58:46.243180 12236 net.cpp:150] Setting up rpn_relu2
I0421 12:58:46.243187 12236 net.cpp:157] Top shape: 1 256 39 64 (638976)
I0421 12:58:46.243192 12236 net.cpp:165] Memory required for data: 284377756
I0421 12:58:46.243197 12236 layer_factory.hpp:77] Creating layer rpn_conv2_rpn_relu2_0_split
I0421 12:58:46.243203 12236 net.cpp:106] Creating Layer rpn_conv2_rpn_relu2_0_split
I0421 12:58:46.243208 12236 net.cpp:454] rpn_conv2_rpn_relu2_0_split <- rpn_conv2
I0421 12:58:46.243217 12236 net.cpp:411] rpn_conv2_rpn_relu2_0_split -> rpn_conv2_rpn_relu2_0_split_0
I0421 12:58:46.243227 12236 net.cpp:411] rpn_conv2_rpn_relu2_0_split -> rpn_conv2_rpn_relu2_0_split_1
I0421 12:58:46.243266 12236 net.cpp:150] Setting up rpn_conv2_rpn_relu2_0_split
I0421 12:58:46.243278 12236 net.cpp:157] Top shape: 1 256 39 64 (638976)
I0421 12:58:46.243284 12236 net.cpp:157] Top shape: 1 256 39 64 (638976)
I0421 12:58:46.243288 12236 net.cpp:165] Memory required for data: 289489564
I0421 12:58:46.243293 12236 layer_factory.hpp:77] Creating layer rpn_cls_score
I0421 12:58:46.243311 12236 net.cpp:106] Creating Layer rpn_cls_score
I0421 12:58:46.243320 12236 net.cpp:454] rpn_cls_score <- rpn_conv1_rpn_relu1_0_split_0
I0421 12:58:46.243326 12236 net.cpp:454] rpn_cls_score <- rpn_conv2_rpn_relu2_0_split_0
…
