…
snapshot_prefix: "vgg16_faster_rcnn"
average_loss: 100
iter_size: 2
I0419 23:42:24.892176  6531 solver.cpp:81] Creating training net from train_net file: models/pascal_voc/VGG16/faster_rcnn_end2end/train.prototxt
I0419 23:42:24.893370  6531 net.cpp:49] Initializing net from parameters: 
name: "VGG_ILSVRC_16_layers"
state {
  phase: TRAIN
}
layer {
  name: "input-data"
  type: "Python"
  top: "data"
  top: "im_info"
  top: "gt_boxes"
  python_param {
    module: "roi_data_layer.layer"
    layer: "RoIDataLayer"
    param_str: "\'num_classes\': 44"
  }
}
layer {
  name: "conv1_1"
  type: "Convolution"
  bottom: "data"
  top: "conv1_1"
  param {
    lr_mult: 0
    decay_mult: 0
  }
  param {
    lr_mult: 0
    decay_mult: 0
  }
  convolution_param {
    num_output: 64
    pad: 1
    kernel_size: 3
  }
}
layer {
  name: "relu1_1"
  type: "ReLU"
  bottom: "conv1_1"
  top: "conv1_1"
}
layer {
  name: "conv1_2"
  type: "Convolution"
  bottom: "conv1_1"
  top: "conv1_2"
  param {
    lr_mult: 0
    decay_mult: 0
  }
  param {
    lr_mult: 0
    decay_mult: 0
  }
  convolution_param {
    num_output: 64
    pad: 1
    kernel_size: 3
  }
}
layer {
  name: "relu1_2"
  type: "ReLU"
  bottom: "conv1_2"
  top: "conv1_2"
}
layer {
  name: "pool1"
  type: "Pooling"
  bottom: "conv1_2"
  top: "pool1"
  pooling_param {
    pool: MAX
    kernel_size: 2
    stride: 2
  }
}
layer {
  name: "conv2_1"
  type: "Convolution"
  bottom: "pool1"
  top: "conv2_1"
  param {
    lr_mult: 0
    decay_mult: 0
  }
  param {
    lr_mult: 0
    decay_mult: 0
  }
  convolution_param {
    num_output: 128
    pad: 1
    kernel_size: 3
  }
}
layer {
  name: "relu2_1"
  type: "ReLU"
  bottom: "conv2_1"
  top: "conv2_1"
}
layer {
  name: "conv2_2"
  type: "Convolution"
  bottom: "conv2_1"
  top: "conv2_2"
  param {
    lr_mult: 0
    decay_mult: 0
  }
  param {
    lr_mult: 0
    decay_mult: 0
  }
  convolution_param {
    num_output: 128
    pad: 1
    kernel_size: 3
  }
}
layer {
  name: "relu2_2"
  type: "ReLU"
  bottom: "conv2_2"
  top: "conv2_2"
}
layer {
  name: "pool2"
  type: "Pooling"
  bottom: "conv2_2"
  top: "pool2"
  pooling_param {
    pool: MAX
    kernel_size: 2
    stride: 2
  }
}
layer {
  name: "conv3_1"
  type: "Convolution"
  bottom: "pool2"
  top: "conv3_1"
  param {
    lr_mult: 1
  }
  param {
    lr_mult: 2
  }
  convolution_param {
    num_output: 256
    pad: 1
    kernel_size: 3
  }
}
layer {
  name: "relu3_1"
  type: "ReLU"
  bottom: "conv3_1"
  top: "conv3_1"
}
layer {
  name: "conv3_2"
  type: "Convolution"
  bottom: "conv3_1"
  top: "conv3_2"
  param {
    lr_mult: 1
  }
  param {
    lr_mult: 2
  }
  convolution_param {
    num_output: 256
    pad: 1
    kernel_size: 3
  }
}
layer {
  name: "relu3_2"
  type: "ReLU"
  bottom: "conv3_2"
  top: "conv3_2"
}
layer {
  name: "conv3_3"
  type: "Convolution"
  bottom: "conv3_2"
  top: "conv3_3"
  param {
    lr_mult: 1
  }
  param {
    lr_mult: 2
  }
  convolution_param {
    num_output: 256
    pad: 1
    kernel_size: 3
  }
}
layer {
  name: "relu3_3"
  type: "ReLU"
  bottom: "conv3_3"
  top: "conv3_3"
}
layer {
  name: "pool3"
  type: "Pooling"
  bottom: "conv3_3"
  top: "pool3"
  pooling_param {
    pool: MAX
    kernel_size: 2
    stride: 2
  }
}
layer {
  name: "conv4_1"
  type: "Convolution"
  bottom: "pool3"
  top: "conv4_1"
  param {
    lr_mult: 1
  }
  param {
    lr_mult: 2
  }
  convolution_param {
    num_output: 512
    pad: 1
    kernel_size: 3
  }
}
layer {
  name: "relu4_1"
  type: "ReLU"
  bottom: "conv4_1"
  top: "conv4_1"
}
layer {
  name: "conv4_2"
  type: "Convolution"
  bottom: "conv4_1"
  top: "conv4_2"
  param {
    lr_mult: 1
  }
  param {
    lr_mult: 2
  }
  convolution_param {
    num_output: 512
    pad: 1
    kernel_size: 3
  }
}
layer {
  name: "relu4_2"
  type: "ReLU"
  bottom: "conv4_2"
  top: "conv4_2"
}
layer {
  name: "conv4_3"
  type: "Convolution"
  bottom: "conv4_2"
  top: "conv4_3"
  param {
    lr_mult: 1
  }
  param {
    lr_mult: 2
  }
  convolution_param {
    num_output: 512
    pad: 1
    kernel_size: 3
  }
}
layer {
  name: "relu4_3"
  type: "ReLU"
  bottom: "conv4_3"
  top: "conv4_3"
}
layer {
  name: "pool4"
  type: "Pooling"
  bottom: "conv4_3"
  top: "pool4"
  pooling_param {
    pool: MAX
    kernel_size: 2
    stride: 2
  }
}
layer {
  name: "conv5_1"
  type: "Convolution"
  bottom: "pool4"
  top: "conv5_1"
  param {
    lr_mult: 1
  }
  param {
    lr_mult: 2
  }
  convolution_param {
    num_output: 512
    pad: 1
    kernel_size: 3
  }
}
layer {
  name: "relu5_1"
  type: "ReLU"
  bottom: "conv5_1"
  top: "conv5_1"
}
layer {
  name: "conv5_2"
  type: "Convolution"
  bottom: "conv5_1"
  top: "conv5_2"
  param {
    lr_mult: 1
  }
  param {
    lr_mult: 2
  }
  convolution_param {
    num_output: 512
    pad: 1
    kernel_size: 3
  }
}
layer {
  name: "relu5_2"
  type: "ReLU"
  bottom: "conv5_2"
  top: "conv5_2"
}
layer {
  name: "conv5_3"
  type: "Convolution"
  bottom: "conv5_2"
  top: "conv5_3"
  param {
    lr_mult: 1
  }
  param {
    lr_mult: 2
  }
  convolution_param {
    num_output: 512
    pad: 1
    kernel_size: 3
  }
}
layer {
  name: "relu5_3"
  type: "ReLU"
  bottom: "conv5_3"
  top: "conv5_3"
}
layer {
  name: "rpn_conv/3x3"
  type: "Convolution"
  bottom: "conv5_3"
  top: "rpn/output"
  param {
    lr_mult: 1
  }
  param {
    lr_mult: 2
  }
  convolution_param {
    num_output: 512
    pad: 1
    kernel_size: 3
    stride: 1
    weight_filler {
      type: "gaussian"
      std: 0.01
    }
    bias_filler {
      type: "constant"
      value: 0
    }
  }
}
layer {
  name: "rpn_relu/3x3"
  type: "ReLU"
  bottom: "rpn/output"
  top: "rpn/output"
}
layer {
  name: "rpn_cls_score"
  type: "Convolution"
  bottom: "rpn/output"
  top: "rpn_cls_score"
  param {
    lr_mult: 1
  }
  param {
    lr_mult: 2
  }
  convolution_param {
    num_output: 18
    pad: 0
    kernel_size: 1
    stride: 1
    weight_filler {
      type: "gaussian"
      std: 0.01
    }
    bias_filler {
      type: "constant"
      value: 0
    }
  }
}
layer {
  name: "rpn_bbox_pred"
  type: "Convolution"
  bottom: "rpn/output"
  top: "rpn_bbox_pred"
  param {
    lr_mult: 1
  }
  param {
    lr_mult: 2
  }
  convolution_param {
    num_output: 36
    pad: 0
    kernel_size: 1
    stride: 1
    weight_filler {
      type: "gaussian"
      std: 0.01
    }
    bias_filler {
      type: "constant"
      value: 0
    }
  }
}
layer {
  name: "rpn_cls_score_reshape"
  type: "Reshape"
  bottom: "rpn_cls_score"
  top: "rpn_cls_score_reshape"
  reshape_param {
    shape {
      dim: 0
      dim: 2
      dim: -1
      dim: 0
    }
  }
}
layer {
  name: "rpn-data"
  type: "Python"
  bottom: "rpn_cls_score"
  bottom: "gt_boxes"
  bottom: "im_info"
  bottom: "data"
  top: "rpn_labels"
  top: "rpn_bbox_targets"
  top: "rpn_bbox_inside_weights"
  top: "rpn_bbox_outside_weights"
  python_param {
    module: "rpn.anchor_target_layer"
    layer: "AnchorTargetLayer"
    param_str: "\'feat_stride\': 16"
  }
}
layer {
  name: "rpn_loss_cls"
  type: "SoftmaxWithLoss"
  bottom: "rpn_cls_score_reshape"
  bottom: "rpn_labels"
  top: "rpn_cls_loss"
  loss_weight: 1
  propagate_down: true
  propagate_down: false
  loss_param {
    ignore_label: -1
    normalize: true
  }
}
layer {
  name: "rpn_loss_bbox"
  type: "SmoothL1Loss"
  bottom: "rpn_bbox_pred"
  bottom: "rpn_bbox_targets"
  bottom: "rpn_bbox_inside_weights"
  bottom: "rpn_bbox_outside_weights"
  top: "rpn_loss_bbox"
  loss_weight: 1
  smooth_l1_loss_param {
    sigma: 3
  }
}
layer {
  name: "rpn_cls_prob"
  type: "Softmax"
  bottom: "rpn_cls_score_reshape"
  top: "rpn_cls_prob"
}
layer {
  name: "rpn_cls_prob_reshape"
  type: "Reshape"
  bottom: "rpn_cls_prob"
  top: "rpn_cls_prob_reshape"
  reshape_param {
    shape {
      dim: 0
      dim: 18
      dim: -1
      dim: 0
    }
  }
}
layer {
  name: "proposal"
  type: "Python"
  bottom: "rpn_cls_prob_reshape"
  bottom: "rpn_bbox_pred"
  bottom: "im_info"
  top: "rpn_rois"
  python_param {
    module: "rpn.proposal_layer"
    layer: "ProposalLayer"
    param_str: "\'feat_stride\': 16"
  }
}
layer {
  name: "roi-data"
  type: "Python"
  bottom: "rpn_rois"
  bottom: "gt_boxes"
  top: "rois"
  top: "labels"
  top: "bbox_targets"
  top: "bbox_inside_weights"
  top: "bbox_outside_weights"
  python_param {
    module: "rpn.proposal_target_layer"
    layer: "ProposalTargetLayer"
    param_str: "\'num_classes\': 44"
  }
}
layer {
  name: "roi_pool5"
  type: "ROIPooling"
  bottom: "conv5_3"
  bottom: "rois"
  top: "pool5"
  roi_pooling_param {
    pooled_h: 7
    pooled_w: 7
    spatial_scale: 0.0625
  }
}
layer {
  name: "fc6"
  type: "InnerProduct"
  bottom: "pool5"
  top: "fc6"
  param {
    lr_mult: 1
  }
  param {
    lr_mult: 2
  }
  inner_product_param {
    num_output: 4096
  }
}
layer {
  name: "relu6"
  type: "ReLU"
  bottom: "fc6"
  top: "fc6"
}
layer {
  name: "drop6"
  type: "Dropout"
  bottom: "fc6"
  top: "fc6"
  dropout_param {
    dropout_ratio: 0.5
  }
}
layer {
  name: "fc7"
  type: "InnerProduct"
  bottom: "fc6"
  top: "fc7"
  param {
    lr_mult: 1
  }
  param {
    lr_mult: 2
  }
  inner_product_param {
    num_output: 4096
  }
}
layer {
  name: "relu7"
  type: "ReLU"
  bottom: "fc7"
  top: "fc7"
}
layer {
  name: "drop7"
  type: "Dropout"
  bottom: "fc7"
  top: "fc7"
  dropout_param {
    dropout_ratio: 0.5
  }
}
layer {
  name: "cls_score"
  type: "InnerProduct"
  bottom: "fc7"
  top: "cls_score"
  param {
    lr_mult: 1
  }
  param {
    lr_mult: 2
  }
  inner_product_param {
    num_output: 44
    weight_filler {
      type: "gaussian"
      std: 0.01
    }
    bias_filler {
      type: "constant"
      value: 0
    }
  }
}
layer {
  name: "bbox_pred"
  type: "InnerProduct"
  bottom: "fc7"
  top: "bbox_pred"
  param {
    lr_mult: 1
  }
  param {
    lr_mult: 2
  }
  inner_product_param {
    num_output: 176
    weight_filler {
      type: "gaussian"
      std: 0.001
    }
    bias_filler {
      type: "constant"
      value: 0
    }
  }
}
layer {
  name: "loss_cls"
  type: "SoftmaxWithLoss"
  bottom: "cls_score"
  bottom: "labels"
  top: "loss_cls"
  loss_weight: 1
  propagate_down: true
  propagate_down: false
}
layer {
  name: "loss_bbox"
  type: "SmoothL1Loss"
  bottom: "bbox_pred"
  bottom: "bbox_targets"
  bottom: "bbox_inside_weights"
  bottom: "bbox_outside_weights"
  top: "loss_bbox"
  loss_weight: 1
}
I0419 23:42:24.893698  6531 layer_factory.hpp:77] Creating layer input-data
I0419 23:42:24.895388  6531 net.cpp:106] Creating Layer input-data
I0419 23:42:24.895413  6531 net.cpp:411] input-data -> data
I0419 23:42:24.895434  6531 net.cpp:411] input-data -> im_info
I0419 23:42:24.895445  6531 net.cpp:411] input-data -> gt_boxes
RoiDataLayer: name_to_top: {'gt_boxes': 2, 'data': 0, 'im_info': 1}
I0419 23:42:24.932842  6531 net.cpp:150] Setting up input-data
I0419 23:42:24.932873  6531 net.cpp:157] Top shape: 1 3 600 1000 (1800000)
I0419 23:42:24.932883  6531 net.cpp:157] Top shape: 1 3 (3)
I0419 23:42:24.932889  6531 net.cpp:157] Top shape: 1 4 (4)
I0419 23:42:24.932894  6531 net.cpp:165] Memory required for data: 7200028
I0419 23:42:24.932904  6531 layer_factory.hpp:77] Creating layer data_input-data_0_split
I0419 23:42:24.932926  6531 net.cpp:106] Creating Layer data_input-data_0_split
I0419 23:42:24.932935  6531 net.cpp:454] data_input-data_0_split <- data
I0419 23:42:24.932950  6531 net.cpp:411] data_input-data_0_split -> data_input-data_0_split_0
I0419 23:42:24.932968  6531 net.cpp:411] data_input-data_0_split -> data_input-data_0_split_1
I0419 23:42:24.933012  6531 net.cpp:150] Setting up data_input-data_0_split
I0419 23:42:24.933024  6531 net.cpp:157] Top shape: 1 3 600 1000 (1800000)
I0419 23:42:24.933032  6531 net.cpp:157] Top shape: 1 3 600 1000 (1800000)
I0419 23:42:24.933038  6531 net.cpp:165] Memory required for data: 21600028
I0419 23:42:24.933043  6531 layer_factory.hpp:77] Creating layer im_info_input-data_1_split
I0419 23:42:24.933055  6531 net.cpp:106] Creating Layer im_info_input-data_1_split
I0419 23:42:24.933061  6531 net.cpp:454] im_info_input-data_1_split <- im_info
I0419 23:42:24.933068  6531 net.cpp:411] im_info_input-data_1_split -> im_info_input-data_1_split_0
I0419 23:42:24.933078  6531 net.cpp:411] im_info_input-data_1_split -> im_info_input-data_1_split_1
I0419 23:42:24.933115  6531 net.cpp:150] Setting up im_info_input-data_1_split
I0419 23:42:24.933126  6531 net.cpp:157] Top shape: 1 3 (3)
I0419 23:42:24.933131  6531 net.cpp:157] Top shape: 1 3 (3)
I0419 23:42:24.933135  6531 net.cpp:165] Memory required for data: 21600052
I0419 23:42:24.933140  6531 layer_factory.hpp:77] Creating layer gt_boxes_input-data_2_split
I0419 23:42:24.933148  6531 net.cpp:106] Creating Layer gt_boxes_input-data_2_split
I0419 23:42:24.933153  6531 net.cpp:454] gt_boxes_input-data_2_split <- gt_boxes
I0419 23:42:24.933163  6531 net.cpp:411] gt_boxes_input-data_2_split -> gt_boxes_input-data_2_split_0
I0419 23:42:24.933172  6531 net.cpp:411] gt_boxes_input-data_2_split -> gt_boxes_input-data_2_split_1
I0419 23:42:24.933207  6531 net.cpp:150] Setting up gt_boxes_input-data_2_split
I0419 23:42:24.933218  6531 net.cpp:157] Top shape: 1 4 (4)
I0419 23:42:24.933224  6531 net.cpp:157] Top shape: 1 4 (4)
I0419 23:42:24.933228  6531 net.cpp:165] Memory required for data: 21600084
I0419 23:42:24.933233  6531 layer_factory.hpp:77] Creating layer conv1_1
I0419 23:42:24.933254  6531 net.cpp:106] Creating Layer conv1_1
I0419 23:42:24.933262  6531 net.cpp:454] conv1_1 <- data_input-data_0_split_0
I0419 23:42:24.933269  6531 net.cpp:411] conv1_1 -> conv1_1
I0419 23:42:24.935448  6531 net.cpp:150] Setting up conv1_1
I0419 23:42:24.935468  6531 net.cpp:157] Top shape: 1 64 600 1000 (38400000)
I0419 23:42:24.935473  6531 net.cpp:165] Memory required for data: 175200084
I0419 23:42:24.935492  6531 layer_factory.hpp:77] Creating layer relu1_1
I0419 23:42:24.935510  6531 net.cpp:106] Creating Layer relu1_1
I0419 23:42:24.935516  6531 net.cpp:454] relu1_1 <- conv1_1
I0419 23:42:24.935533  6531 net.cpp:397] relu1_1 -> conv1_1 (in-place)
I0419 23:42:24.935550  6531 net.cpp:150] Setting up relu1_1
I0419 23:42:24.935559  6531 net.cpp:157] Top shape: 1 64 600 1000 (38400000)
I0419 23:42:24.935564  6531 net.cpp:165] Memory required for data: 328800084
I0419 23:42:24.935570  6531 layer_factory.hpp:77] Creating layer conv1_2
I0419 23:42:24.935581  6531 net.cpp:106] Creating Layer conv1_2
I0419 23:42:24.935586  6531 net.cpp:454] conv1_2 <- conv1_1
I0419 23:42:24.935593  6531 net.cpp:411] conv1_2 -> conv1_2
I0419 23:42:24.937753  6531 net.cpp:150] Setting up conv1_2
I0419 23:42:24.937773  6531 net.cpp:157] Top shape: 1 64 600 1000 (38400000)
I0419 23:42:24.937777  6531 net.cpp:165] Memory required for data: 482400084
I0419 23:42:24.937790  6531 layer_factory.hpp:77] Creating layer relu1_2
I0419 23:42:24.937798  6531 net.cpp:106] Creating Layer relu1_2
I0419 23:42:24.937803  6531 net.cpp:454] relu1_2 <- conv1_2
I0419 23:42:24.937816  6531 net.cpp:397] relu1_2 -> conv1_2 (in-place)
I0419 23:42:24.937826  6531 net.cpp:150] Setting up relu1_2
I0419 23:42:24.937837  6531 net.cpp:157] Top shape: 1 64 600 1000 (38400000)
I0419 23:42:24.937842  6531 net.cpp:165] Memory required for data: 636000084
I0419 23:42:24.937847  6531 layer_factory.hpp:77] Creating layer pool1
I0419 23:42:24.937860  6531 net.cpp:106] Creating Layer pool1
I0419 23:42:24.937865  6531 net.cpp:454] pool1 <- conv1_2
I0419 23:42:24.937872  6531 net.cpp:411] pool1 -> pool1
I0419 23:42:24.937924  6531 net.cpp:150] Setting up pool1
I0419 23:42:24.937937  6531 net.cpp:157] Top shape: 1 64 300 500 (9600000)
I0419 23:42:24.937940  6531 net.cpp:165] Memory required for data: 674400084
I0419 23:42:24.937945  6531 layer_factory.hpp:77] Creating layer conv2_1
I0419 23:42:24.937958  6531 net.cpp:106] Creating Layer conv2_1
I0419 23:42:24.937968  6531 net.cpp:454] conv2_1 <- pool1
I0419 23:42:24.937978  6531 net.cpp:411] conv2_1 -> conv2_1
I0419 23:42:24.938822  6531 net.cpp:150] Setting up conv2_1
I0419 23:42:24.938841  6531 net.cpp:157] Top shape: 1 128 300 500 (19200000)
I0419 23:42:24.938846  6531 net.cpp:165] Memory required for data: 751200084
I0419 23:42:24.938858  6531 layer_factory.hpp:77] Creating layer relu2_1
I0419 23:42:24.938871  6531 net.cpp:106] Creating Layer relu2_1
I0419 23:42:24.938879  6531 net.cpp:454] relu2_1 <- conv2_1
I0419 23:42:24.938885  6531 net.cpp:397] relu2_1 -> conv2_1 (in-place)
I0419 23:42:24.938895  6531 net.cpp:150] Setting up relu2_1
I0419 23:42:24.938904  6531 net.cpp:157] Top shape: 1 128 300 500 (19200000)
I0419 23:42:24.938907  6531 net.cpp:165] Memory required for data: 828000084
I0419 23:42:24.938912  6531 layer_factory.hpp:77] Creating layer conv2_2
I0419 23:42:24.938925  6531 net.cpp:106] Creating Layer conv2_2
I0419 23:42:24.938935  6531 net.cpp:454] conv2_2 <- conv2_1
I0419 23:42:24.938943  6531 net.cpp:411] conv2_2 -> conv2_2
I0419 23:42:24.940397  6531 net.cpp:150] Setting up conv2_2
I0419 23:42:24.940417  6531 net.cpp:157] Top shape: 1 128 300 500 (19200000)
I0419 23:42:24.940421  6531 net.cpp:165] Memory required for data: 904800084
I0419 23:42:24.940431  6531 layer_factory.hpp:77] Creating layer relu2_2
I0419 23:42:24.940440  6531 net.cpp:106] Creating Layer relu2_2
I0419 23:42:24.940446  6531 net.cpp:454] relu2_2 <- conv2_2
I0419 23:42:24.940454  6531 net.cpp:397] relu2_2 -> conv2_2 (in-place)
I0419 23:42:24.940462  6531 net.cpp:150] Setting up relu2_2
I0419 23:42:24.940470  6531 net.cpp:157] Top shape: 1 128 300 500 (19200000)
I0419 23:42:24.940474  6531 net.cpp:165] Memory required for data: 981600084
I0419 23:42:24.940480  6531 layer_factory.hpp:77] Creating layer pool2
I0419 23:42:24.940491  6531 net.cpp:106] Creating Layer pool2
I0419 23:42:24.940500  6531 net.cpp:454] pool2 <- conv2_2
I0419 23:42:24.940507  6531 net.cpp:411] pool2 -> pool2
I0419 23:42:24.940551  6531 net.cpp:150] Setting up pool2
I0419 23:42:24.940562  6531 net.cpp:157] Top shape: 1 128 150 250 (4800000)
I0419 23:42:24.940567  6531 net.cpp:165] Memory required for data: 1000800084
I0419 23:42:24.940570  6531 layer_factory.hpp:77] Creating layer conv3_1
I0419 23:42:24.940583  6531 net.cpp:106] Creating Layer conv3_1
I0419 23:42:24.940593  6531 net.cpp:454] conv3_1 <- pool2
I0419 23:42:24.940599  6531 net.cpp:411] conv3_1 -> conv3_1
I0419 23:42:24.941591  6531 net.cpp:150] Setting up conv3_1
I0419 23:42:24.941608  6531 net.cpp:157] Top shape: 1 256 150 250 (9600000)
I0419 23:42:24.941612  6531 net.cpp:165] Memory required for data: 1039200084
I0419 23:42:24.941625  6531 layer_factory.hpp:77] Creating layer relu3_1
I0419 23:42:24.941635  6531 net.cpp:106] Creating Layer relu3_1
I0419 23:42:24.941642  6531 net.cpp:454] relu3_1 <- conv3_1
I0419 23:42:24.941651  6531 net.cpp:397] relu3_1 -> conv3_1 (in-place)
I0419 23:42:24.941665  6531 net.cpp:150] Setting up relu3_1
I0419 23:42:24.941673  6531 net.cpp:157] Top shape: 1 256 150 250 (9600000)
I0419 23:42:24.941676  6531 net.cpp:165] Memory required for data: 1077600084
I0419 23:42:24.941681  6531 layer_factory.hpp:77] Creating layer conv3_2
I0419 23:42:24.941696  6531 net.cpp:106] Creating Layer conv3_2
I0419 23:42:24.941705  6531 net.cpp:454] conv3_2 <- conv3_1
I0419 23:42:24.941714  6531 net.cpp:411] conv3_2 -> conv3_2
I0419 23:42:24.943392  6531 net.cpp:150] Setting up conv3_2
I0419 23:42:24.943413  6531 net.cpp:157] Top shape: 1 256 150 250 (9600000)
I0419 23:42:24.943416  6531 net.cpp:165] Memory required for data: 1116000084
I0419 23:42:24.943425  6531 layer_factory.hpp:77] Creating layer relu3_2
I0419 23:42:24.943434  6531 net.cpp:106] Creating Layer relu3_2
I0419 23:42:24.943439  6531 net.cpp:454] relu3_2 <- conv3_2
I0419 23:42:24.943447  6531 net.cpp:397] relu3_2 -> conv3_2 (in-place)
I0419 23:42:24.943456  6531 net.cpp:150] Setting up relu3_2
I0419 23:42:24.943464  6531 net.cpp:157] Top shape: 1 256 150 250 (9600000)
I0419 23:42:24.943470  6531 net.cpp:165] Memory required for data: 1154400084
I0419 23:42:24.943475  6531 layer_factory.hpp:77] Creating layer conv3_3
I0419 23:42:24.943487  6531 net.cpp:106] Creating Layer conv3_3
I0419 23:42:24.943497  6531 net.cpp:454] conv3_3 <- conv3_2
I0419 23:42:24.943507  6531 net.cpp:411] conv3_3 -> conv3_3
I0419 23:42:24.945163  6531 net.cpp:150] Setting up conv3_3
I0419 23:42:24.945183  6531 net.cpp:157] Top shape: 1 256 150 250 (9600000)
I0419 23:42:24.945188  6531 net.cpp:165] Memory required for data: 1192800084
I0419 23:42:24.945196  6531 layer_factory.hpp:77] Creating layer relu3_3
I0419 23:42:24.945204  6531 net.cpp:106] Creating Layer relu3_3
I0419 23:42:24.945217  6531 net.cpp:454] relu3_3 <- conv3_3
I0419 23:42:24.945225  6531 net.cpp:397] relu3_3 -> conv3_3 (in-place)
I0419 23:42:24.945235  6531 net.cpp:150] Setting up relu3_3
I0419 23:42:24.945245  6531 net.cpp:157] Top shape: 1 256 150 250 (9600000)
I0419 23:42:24.945250  6531 net.cpp:165] Memory required for data: 1231200084
I0419 23:42:24.945256  6531 layer_factory.hpp:77] Creating layer pool3
I0419 23:42:24.945264  6531 net.cpp:106] Creating Layer pool3
I0419 23:42:24.945271  6531 net.cpp:454] pool3 <- conv3_3
I0419 23:42:24.945281  6531 net.cpp:411] pool3 -> pool3
I0419 23:42:24.945328  6531 net.cpp:150] Setting up pool3
I0419 23:42:24.945339  6531 net.cpp:157] Top shape: 1 256 75 125 (2400000)
I0419 23:42:24.945344  6531 net.cpp:165] Memory required for data: 1240800084
I0419 23:42:24.945348  6531 layer_factory.hpp:77] Creating layer conv4_1
I0419 23:42:24.945361  6531 net.cpp:106] Creating Layer conv4_1
I0419 23:42:24.945370  6531 net.cpp:454] conv4_1 <- pool3
I0419 23:42:24.945380  6531 net.cpp:411] conv4_1 -> conv4_1
I0419 23:42:24.949384  6531 net.cpp:150] Setting up conv4_1
I0419 23:42:24.949406  6531 net.cpp:157] Top shape: 1 512 75 125 (4800000)
I0419 23:42:24.949411  6531 net.cpp:165] Memory required for data: 1260000084
I0419 23:42:24.949421  6531 layer_factory.hpp:77] Creating layer relu4_1
I0419 23:42:24.949429  6531 net.cpp:106] Creating Layer relu4_1
I0419 23:42:24.949442  6531 net.cpp:454] relu4_1 <- conv4_1
I0419 23:42:24.949452  6531 net.cpp:397] relu4_1 -> conv4_1 (in-place)
I0419 23:42:24.949463  6531 net.cpp:150] Setting up relu4_1
I0419 23:42:24.949471  6531 net.cpp:157] Top shape: 1 512 75 125 (4800000)
I0419 23:42:24.949476  6531 net.cpp:165] Memory required for data: 1279200084
I0419 23:42:24.949481  6531 layer_factory.hpp:77] Creating layer conv4_2
I0419 23:42:24.949491  6531 net.cpp:106] Creating Layer conv4_2
I0419 23:42:24.949496  6531 net.cpp:454] conv4_2 <- conv4_1
I0419 23:42:24.949504  6531 net.cpp:411] conv4_2 -> conv4_2
I0419 23:42:24.955310  6531 net.cpp:150] Setting up conv4_2
I0419 23:42:24.955343  6531 net.cpp:157] Top shape: 1 512 75 125 (4800000)
I0419 23:42:24.955348  6531 net.cpp:165] Memory required for data: 1298400084
I0419 23:42:24.955368  6531 layer_factory.hpp:77] Creating layer relu4_2
I0419 23:42:24.955379  6531 net.cpp:106] Creating Layer relu4_2
I0419 23:42:24.955387  6531 net.cpp:454] relu4_2 <- conv4_2
I0419 23:42:24.955399  6531 net.cpp:397] relu4_2 -> conv4_2 (in-place)
I0419 23:42:24.955407  6531 net.cpp:150] Setting up relu4_2
I0419 23:42:24.955413  6531 net.cpp:157] Top shape: 1 512 75 125 (4800000)
I0419 23:42:24.955417  6531 net.cpp:165] Memory required for data: 1317600084
I0419 23:42:24.955422  6531 layer_factory.hpp:77] Creating layer conv4_3
I0419 23:42:24.955436  6531 net.cpp:106] Creating Layer conv4_3
I0419 23:42:24.955443  6531 net.cpp:454] conv4_3 <- conv4_2
I0419 23:42:24.955456  6531 net.cpp:411] conv4_3 -> conv4_3
I0419 23:42:24.961153  6531 net.cpp:150] Setting up conv4_3
I0419 23:42:24.961179  6531 net.cpp:157] Top shape: 1 512 75 125 (4800000)
I0419 23:42:24.961184  6531 net.cpp:165] Memory required for data: 1336800084
I0419 23:42:24.961194  6531 layer_factory.hpp:77] Creating layer relu4_3
I0419 23:42:24.961203  6531 net.cpp:106] Creating Layer relu4_3
I0419 23:42:24.961215  6531 net.cpp:454] relu4_3 <- conv4_3
I0419 23:42:24.961226  6531 net.cpp:397] relu4_3 -> conv4_3 (in-place)
I0419 23:42:24.961241  6531 net.cpp:150] Setting up relu4_3
I0419 23:42:24.961248  6531 net.cpp:157] Top shape: 1 512 75 125 (4800000)
I0419 23:42:24.961256  6531 net.cpp:165] Memory required for data: 1356000084
I0419 23:42:24.961261  6531 layer_factory.hpp:77] Creating layer pool4
I0419 23:42:24.961274  6531 net.cpp:106] Creating Layer pool4
I0419 23:42:24.961280  6531 net.cpp:454] pool4 <- conv4_3
I0419 23:42:24.961290  6531 net.cpp:411] pool4 -> pool4
I0419 23:42:24.961344  6531 net.cpp:150] Setting up pool4
I0419 23:42:24.961355  6531 net.cpp:157] Top shape: 1 512 38 63 (1225728)
I0419 23:42:24.961359  6531 net.cpp:165] Memory required for data: 1360902996
I0419 23:42:24.961364  6531 layer_factory.hpp:77] Creating layer conv5_1
I0419 23:42:24.961377  6531 net.cpp:106] Creating Layer conv5_1
I0419 23:42:24.961386  6531 net.cpp:454] conv5_1 <- pool4
I0419 23:42:24.961397  6531 net.cpp:411] conv5_1 -> conv5_1
I0419 23:42:24.967367  6531 net.cpp:150] Setting up conv5_1
I0419 23:42:24.967403  6531 net.cpp:157] Top shape: 1 512 38 63 (1225728)
I0419 23:42:24.967408  6531 net.cpp:165] Memory required for data: 1365805908
I0419 23:42:24.967420  6531 layer_factory.hpp:77] Creating layer relu5_1
I0419 23:42:24.967432  6531 net.cpp:106] Creating Layer relu5_1
I0419 23:42:24.967447  6531 net.cpp:454] relu5_1 <- conv5_1
I0419 23:42:24.967458  6531 net.cpp:397] relu5_1 -> conv5_1 (in-place)
I0419 23:42:24.967474  6531 net.cpp:150] Setting up relu5_1
I0419 23:42:24.967481  6531 net.cpp:157] Top shape: 1 512 38 63 (1225728)
I0419 23:42:24.967489  6531 net.cpp:165] Memory required for data: 1370708820
I0419 23:42:24.967494  6531 layer_factory.hpp:77] Creating layer conv5_2
I0419 23:42:24.967511  6531 net.cpp:106] Creating Layer conv5_2
I0419 23:42:24.967521  6531 net.cpp:454] conv5_2 <- conv5_1
I0419 23:42:24.967530  6531 net.cpp:411] conv5_2 -> conv5_2
I0419 23:42:24.973500  6531 net.cpp:150] Setting up conv5_2
I0419 23:42:24.973528  6531 net.cpp:157] Top shape: 1 512 38 63 (1225728)
I0419 23:42:24.973533  6531 net.cpp:165] Memory required for data: 1375611732
I0419 23:42:24.973544  6531 layer_factory.hpp:77] Creating layer relu5_2
I0419 23:42:24.973556  6531 net.cpp:106] Creating Layer relu5_2
I0419 23:42:24.973563  6531 net.cpp:454] relu5_2 <- conv5_2
I0419 23:42:24.973572  6531 net.cpp:397] relu5_2 -> conv5_2 (in-place)
I0419 23:42:24.973583  6531 net.cpp:150] Setting up relu5_2
I0419 23:42:24.973592  6531 net.cpp:157] Top shape: 1 512 38 63 (1225728)
I0419 23:42:24.973595  6531 net.cpp:165] Memory required for data: 1380514644
I0419 23:42:24.973600  6531 layer_factory.hpp:77] Creating layer conv5_3
I0419 23:42:24.973619  6531 net.cpp:106] Creating Layer conv5_3
I0419 23:42:24.973629  6531 net.cpp:454] conv5_3 <- conv5_2
I0419 23:42:24.973639  6531 net.cpp:411] conv5_3 -> conv5_3
I0419 23:42:24.979328  6531 net.cpp:150] Setting up conv5_3
I0419 23:42:24.979348  6531 net.cpp:157] Top shape: 1 512 38 63 (1225728)
I0419 23:42:24.979352  6531 net.cpp:165] Memory required for data: 1385417556
I0419 23:42:24.979362  6531 layer_factory.hpp:77] Creating layer relu5_3
I0419 23:42:24.979372  6531 net.cpp:106] Creating Layer relu5_3
I0419 23:42:24.979377  6531 net.cpp:454] relu5_3 <- conv5_3
I0419 23:42:24.979384  6531 net.cpp:397] relu5_3 -> conv5_3 (in-place)
I0419 23:42:24.979398  6531 net.cpp:150] Setting up relu5_3
I0419 23:42:24.979409  6531 net.cpp:157] Top shape: 1 512 38 63 (1225728)
I0419 23:42:24.979413  6531 net.cpp:165] Memory required for data: 1390320468
I0419 23:42:24.979418  6531 layer_factory.hpp:77] Creating layer conv5_3_relu5_3_0_split
I0419 23:42:24.979434  6531 net.cpp:106] Creating Layer conv5_3_relu5_3_0_split
I0419 23:42:24.979439  6531 net.cpp:454] conv5_3_relu5_3_0_split <- conv5_3
I0419 23:42:24.979450  6531 net.cpp:411] conv5_3_relu5_3_0_split -> conv5_3_relu5_3_0_split_0
I0419 23:42:24.979463  6531 net.cpp:411] conv5_3_relu5_3_0_split -> conv5_3_relu5_3_0_split_1
I0419 23:42:24.979511  6531 net.cpp:150] Setting up conv5_3_relu5_3_0_split
I0419 23:42:24.979521  6531 net.cpp:157] Top shape: 1 512 38 63 (1225728)
I0419 23:42:24.979527  6531 net.cpp:157] Top shape: 1 512 38 63 (1225728)
I0419 23:42:24.979532  6531 net.cpp:165] Memory required for data: 1400126292
I0419 23:42:24.979537  6531 layer_factory.hpp:77] Creating layer rpn_conv/3x3
I0419 23:42:24.979554  6531 net.cpp:106] Creating Layer rpn_conv/3x3
I0419 23:42:24.979575  6531 net.cpp:454] rpn_conv/3x3 <- conv5_3_relu5_3_0_split_0
I0419 23:42:24.979589  6531 net.cpp:411] rpn_conv/3x3 -> rpn/output
I0419 23:42:25.047993  6531 net.cpp:150] Setting up rpn_conv/3x3
I0419 23:42:25.048030  6531 net.cpp:157] Top shape: 1 512 38 63 (1225728)
I0419 23:42:25.048035  6531 net.cpp:165] Memory required for data: 1405029204
I0419 23:42:25.048048  6531 layer_factory.hpp:77] Creating layer rpn_relu/3x3
I0419 23:42:25.048060  6531 net.cpp:106] Creating Layer rpn_relu/3x3
I0419 23:42:25.048069  6531 net.cpp:454] rpn_relu/3x3 <- rpn/output
I0419 23:42:25.048079  6531 net.cpp:397] rpn_relu/3x3 -> rpn/output (in-place)
I0419 23:42:25.048094  6531 net.cpp:150] Setting up rpn_relu/3x3
I0419 23:42:25.048101  6531 net.cpp:157] Top shape: 1 512 38 63 (1225728)
I0419 23:42:25.048110  6531 net.cpp:165] Memory required for data: 1409932116
I0419 23:42:25.048115  6531 layer_factory.hpp:77] Creating layer rpn/output_rpn_relu/3x3_0_split
I0419 23:42:25.048122  6531 net.cpp:106] Creating Layer rpn/output_rpn_relu/3x3_0_split
I0419 23:42:25.048128  6531 net.cpp:454] rpn/output_rpn_relu/3x3_0_split <- rpn/output
I0419 23:42:25.048138  6531 net.cpp:411] rpn/output_rpn_relu/3x3_0_split -> rpn/output_rpn_relu/3x3_0_split_0
I0419 23:42:25.048149  6531 net.cpp:411] rpn/output_rpn_relu/3x3_0_split -> rpn/output_rpn_relu/3x3_0_split_1
I0419 23:42:25.048193  6531 net.cpp:150] Setting up rpn/output_rpn_relu/3x3_0_split
I0419 23:42:25.048205  6531 net.cpp:157] Top shape: 1 512 38 63 (1225728)
I0419 23:42:25.048212  6531 net.cpp:157] Top shape: 1 512 38 63 (1225728)
I0419 23:42:25.048215  6531 net.cpp:165] Memory required for data: 1419737940
I0419 23:42:25.048220  6531 layer_factory.hpp:77] Creating layer rpn_cls_score
I0419 23:42:25.048243  6531 net.cpp:106] Creating Layer rpn_cls_score
I0419 23:42:25.048251  6531 net.cpp:454] rpn_cls_score <- rpn/output_rpn_relu/3x3_0_split_0
I0419 23:42:25.048260  6531 net.cpp:411] rpn_cls_score -> rpn_cls_score
I0419 23:42:25.048738  6531 net.cpp:150] Setting up rpn_cls_score
I0419 23:42:25.048758  6531 net.cpp:157] Top shape: 1 18 38 63 (43092)
I0419 23:42:25.048763  6531 net.cpp:165] Memory required for data: 1419910308
I0419 23:42:25.048773  6531 layer_factory.hpp:77] Creating layer rpn_cls_score_rpn_cls_score_0_split
I0419 23:42:25.048779  6531 net.cpp:106] Creating Layer rpn_cls_score_rpn_cls_score_0_split
I0419 23:42:25.048784  6531 net.cpp:454] rpn_cls_score_rpn_cls_score_0_split <- rpn_cls_score
I0419 23:42:25.048791  6531 net.cpp:411] rpn_cls_score_rpn_cls_score_0_split -> rpn_cls_score_rpn_cls_score_0_split_0
I0419 23:42:25.048810  6531 net.cpp:411] rpn_cls_score_rpn_cls_score_0_split -> rpn_cls_score_rpn_cls_score_0_split_1
I0419 23:42:25.048864  6531 net.cpp:150] Setting up rpn_cls_score_rpn_cls_score_0_split
I0419 23:42:25.048877  6531 net.cpp:157] Top shape: 1 18 38 63 (43092)
I0419 23:42:25.048882  6531 net.cpp:157] Top shape: 1 18 38 63 (43092)
I0419 23:42:25.048888  6531 net.cpp:165] Memory required for data: 1420255044
I0419 23:42:25.048893  6531 layer_factory.hpp:77] Creating layer rpn_bbox_pred
I0419 23:42:25.048913  6531 net.cpp:106] Creating Layer rpn_bbox_pred
I0419 23:42:25.048921  6531 net.cpp:454] rpn_bbox_pred <- rpn/output_rpn_relu/3x3_0_split_1
I0419 23:42:25.048930  6531 net.cpp:411] rpn_bbox_pred -> rpn_bbox_pred
I0419 23:42:25.049654  6531 net.cpp:150] Setting up rpn_bbox_pred
I0419 23:42:25.049667  6531 net.cpp:157] Top shape: 1 36 38 63 (86184)
I0419 23:42:25.049671  6531 net.cpp:165] Memory required for data: 1420599780
I0419 23:42:25.049680  6531 layer_factory.hpp:77] Creating layer rpn_bbox_pred_rpn_bbox_pred_0_split
I0419 23:42:25.049690  6531 net.cpp:106] Creating Layer rpn_bbox_pred_rpn_bbox_pred_0_split
I0419 23:42:25.049698  6531 net.cpp:454] rpn_bbox_pred_rpn_bbox_pred_0_split <- rpn_bbox_pred
I0419 23:42:25.049706  6531 net.cpp:411] rpn_bbox_pred_rpn_bbox_pred_0_split -> rpn_bbox_pred_rpn_bbox_pred_0_split_0
I0419 23:42:25.049715  6531 net.cpp:411] rpn_bbox_pred_rpn_bbox_pred_0_split -> rpn_bbox_pred_rpn_bbox_pred_0_split_1
I0419 23:42:25.049758  6531 net.cpp:150] Setting up rpn_bbox_pred_rpn_bbox_pred_0_split
I0419 23:42:25.049770  6531 net.cpp:157] Top shape: 1 36 38 63 (86184)
I0419 23:42:25.049777  6531 net.cpp:157] Top shape: 1 36 38 63 (86184)
I0419 23:42:25.049780  6531 net.cpp:165] Memory required for data: 1421289252
I0419 23:42:25.049787  6531 layer_factory.hpp:77] Creating layer rpn_cls_score_reshape
I0419 23:42:25.049796  6531 net.cpp:106] Creating Layer rpn_cls_score_reshape
I0419 23:42:25.049805  6531 net.cpp:454] rpn_cls_score_reshape <- rpn_cls_score_rpn_cls_score_0_split_0
I0419 23:42:25.049813  6531 net.cpp:411] rpn_cls_score_reshape -> rpn_cls_score_reshape
I0419 23:42:25.049854  6531 net.cpp:150] Setting up rpn_cls_score_reshape
I0419 23:42:25.049865  6531 net.cpp:157] Top shape: 1 2 342 63 (43092)
I0419 23:42:25.049870  6531 net.cpp:165] Memory required for data: 1421461620
I0419 23:42:25.049873  6531 layer_factory.hpp:77] Creating layer rpn_cls_score_reshape_rpn_cls_score_reshape_0_split
I0419 23:42:25.049883  6531 net.cpp:106] Creating Layer rpn_cls_score_reshape_rpn_cls_score_reshape_0_split
I0419 23:42:25.049893  6531 net.cpp:454] rpn_cls_score_reshape_rpn_cls_score_reshape_0_split <- rpn_cls_score_reshape
I0419 23:42:25.049901  6531 net.cpp:411] rpn_cls_score_reshape_rpn_cls_score_reshape_0_split -> rpn_cls_score_reshape_rpn_cls_score_reshape_0_split_0
I0419 23:42:25.049911  6531 net.cpp:411] rpn_cls_score_reshape_rpn_cls_score_reshape_0_split -> rpn_cls_score_reshape_rpn_cls_score_reshape_0_split_1
I0419 23:42:25.049953  6531 net.cpp:150] Setting up rpn_cls_score_reshape_rpn_cls_score_reshape_0_split
I0419 23:42:25.049964  6531 net.cpp:157] Top shape: 1 2 342 63 (43092)
I0419 23:42:25.049970  6531 net.cpp:157] Top shape: 1 2 342 63 (43092)
I0419 23:42:25.049974  6531 net.cpp:165] Memory required for data: 1421806356
I0419 23:42:25.049981  6531 layer_factory.hpp:77] Creating layer rpn-data
I0419 23:42:25.050535  6531 net.cpp:106] Creating Layer rpn-data
I0419 23:42:25.050554  6531 net.cpp:454] rpn-data <- rpn_cls_score_rpn_cls_score_0_split_1
I0419 23:42:25.050564  6531 net.cpp:454] rpn-data <- gt_boxes_input-data_2_split_0
I0419 23:42:25.050570  6531 net.cpp:454] rpn-data <- im_info_input-data_1_split_0
I0419 23:42:25.050575  6531 net.cpp:454] rpn-data <- data_input-data_0_split_1
I0419 23:42:25.050583  6531 net.cpp:411] rpn-data -> rpn_labels
I0419 23:42:25.050595  6531 net.cpp:411] rpn-data -> rpn_bbox_targets
I0419 23:42:25.050611  6531 net.cpp:411] rpn-data -> rpn_bbox_inside_weights
I0419 23:42:25.050621  6531 net.cpp:411] rpn-data -> rpn_bbox_outside_weights
I0419 23:42:25.051400  6531 net.cpp:150] Setting up rpn-data
I0419 23:42:25.051422  6531 net.cpp:157] Top shape: 1 1 342 63 (21546)
I0419 23:42:25.051429  6531 net.cpp:157] Top shape: 1 36 38 63 (86184)
I0419 23:42:25.051435  6531 net.cpp:157] Top shape: 1 36 38 63 (86184)
I0419 23:42:25.051440  6531 net.cpp:157] Top shape: 1 36 38 63 (86184)
I0419 23:42:25.051445  6531 net.cpp:165] Memory required for data: 1422926748
I0419 23:42:25.051450  6531 layer_factory.hpp:77] Creating layer rpn_loss_cls
I0419 23:42:25.051470  6531 net.cpp:106] Creating Layer rpn_loss_cls
I0419 23:42:25.051481  6531 net.cpp:454] rpn_loss_cls <- rpn_cls_score_reshape_rpn_cls_score_reshape_0_split_0
I0419 23:42:25.051487  6531 net.cpp:454] rpn_loss_cls <- rpn_labels
…
I0419 23:42:25.052373  6531 net.cpp:157] Top shape: (1)
I0419 23:42:25.052378  6531 net.cpp:160]     with loss weight 1
I0419 23:42:25.052386  6531 net.cpp:165] Memory required for data: 1422926756
I0419 23:42:25.052392  6531 layer_factory.hpp:77] Creating layer rpn_cls_prob
I0419 23:42:25.052399  6531 net.cpp:106] Creating Layer rpn_cls_prob
I0419 23:42:25.052410  6531 net.cpp:454] rpn_cls_prob <- rpn_cls_score_reshape_rpn_cls_score_reshape_0_split_1
I0419 23:42:25.052420  6531 net.cpp:411] rpn_cls_prob -> rpn_cls_prob
I0419 23:42:25.052489  6531 net.cpp:150] Setting up rpn_cls_prob
I0419 23:42:25.052501  6531 net.cpp:157] Top shape: 1 2 342 63 (43092)
I0419 23:42:25.052506  6531 net.cpp:165] Memory required for data: 1423099124
I0419 23:42:25.052510  6531 layer_factory.hpp:77] Creating layer rpn_cls_prob_reshape
I0419 23:42:25.052522  6531 net.cpp:106] Creating Layer rpn_cls_prob_reshape
I0419 23:42:25.052531  6531 net.cpp:454] rpn_cls_prob_reshape <- rpn_cls_prob
I0419 23:42:25.052539  6531 net.cpp:411] rpn_cls_prob_reshape -> rpn_cls_prob_reshape
I0419 23:42:25.052572  6531 net.cpp:150] Setting up rpn_cls_prob_reshape
I0419 23:42:25.052583  6531 net.cpp:157] Top shape: 1 18 38 63 (43092)
I0419 23:42:25.052588  6531 net.cpp:165] Memory required for data: 1423271492
I0419 23:42:25.052592  6531 layer_factory.hpp:77] Creating layer proposal
I0419 23:42:25.053465  6531 net.cpp:106] Creating Layer proposal
I0419 23:42:25.053486  6531 net.cpp:454] proposal <- rpn_cls_prob_reshape
I0419 23:42:25.053494  6531 net.cpp:454] proposal <- rpn_bbox_pred_rpn_bbox_pred_0_split_1
I0419 23:42:25.053500  6531 net.cpp:454] proposal <- im_info_input-data_1_split_1
I0419 23:42:25.053509  6531 net.cpp:411] proposal -> rpn_rois
I0419 23:42:25.055109  6531 net.cpp:150] Setting up proposal
I0419 23:42:25.055130  6531 net.cpp:157] Top shape: 1 5 (5)
I0419 23:42:25.055135  6531 net.cpp:165] Memory required for data: 1423271512
I0419 23:42:25.055140  6531 layer_factory.hpp:77] Creating layer roi-data
I0419 23:42:25.055308  6531 net.cpp:106] Creating Layer roi-data
I0419 23:42:25.055325  6531 net.cpp:454] roi-data <- rpn_rois
I0419 23:42:25.055333  6531 net.cpp:454] roi-data <- gt_boxes_input-data_2_split_1
I0419 23:42:25.055341  6531 net.cpp:411] roi-data -> rois
I0419 23:42:25.055356  6531 net.cpp:411] roi-data -> labels
I0419 23:42:25.055366  6531 net.cpp:411] roi-data -> bbox_targets
I0419 23:42:25.055377  6531 net.cpp:411] roi-data -> bbox_inside_weights
I0419 23:42:25.055384  6531 net.cpp:411] roi-data -> bbox_outside_weights
I0419 23:42:25.055747  6531 net.cpp:150] Setting up roi-data
I0419 23:42:25.055768  6531 net.cpp:157] Top shape: 1 5 (5)
I0419 23:42:25.055774  6531 net.cpp:157] Top shape: 1 1 (1)
I0419 23:42:25.055779  6531 net.cpp:157] Top shape: 1 176 (176)
I0419 23:42:25.055784  6531 net.cpp:157] Top shape: 1 176 (176)
I0419 23:42:25.055791  6531 net.cpp:157] Top shape: 1 176 (176)
I0419 23:42:25.055796  6531 net.cpp:165] Memory required for data: 1423273648
I0419 23:42:25.055802  6531 layer_factory.hpp:77] Creating layer roi_pool5
I0419 23:42:25.055816  6531 net.cpp:106] Creating Layer roi_pool5
I0419 23:42:25.055826  6531 net.cpp:454] roi_pool5 <- conv5_3_relu5_3_0_split_1
I0419 23:42:25.055833  6531 net.cpp:454] roi_pool5 <- rois
I0419 23:42:25.055843  6531 net.cpp:411] roi_pool5 -> pool5
I0419 23:42:25.055856  6531 roi_pooling_layer.cpp:30] Spatial scale: 0.0625
I0419 23:42:25.055907  6531 net.cpp:150] Setting up roi_pool5
I0419 23:42:25.055918  6531 net.cpp:157] Top shape: 1 512 7 7 (25088)
I0419 23:42:25.055923  6531 net.cpp:165] Memory required for data: 1423374000
I0419 23:42:25.055928  6531 layer_factory.hpp:77] Creating layer fc6
I0419 23:42:25.055943  6531 net.cpp:106] Creating Layer fc6
I0419 23:42:25.055953  6531 net.cpp:454] fc6 <- pool5
I0419 23:42:25.055960  6531 net.cpp:411] fc6 -> fc6
I0419 23:42:25.325124  6531 net.cpp:150] Setting up fc6
I0419 23:42:25.325163  6531 net.cpp:157] Top shape: 1 4096 (4096)
I0419 23:42:25.325168  6531 net.cpp:165] Memory required for data: 1423390384
I0419 23:42:25.325192  6531 layer_factory.hpp:77] Creating layer relu6
I0419 23:42:25.325211  6531 net.cpp:106] Creating Layer relu6
I0419 23:42:25.325223  6531 net.cpp:454] relu6 <- fc6
I0419 23:42:25.325242  6531 net.cpp:397] relu6 -> fc6 (in-place)
I0419 23:42:25.325260  6531 net.cpp:150] Setting up relu6
I0419 23:42:25.325269  6531 net.cpp:157] Top shape: 1 4096 (4096)
I0419 23:42:25.325273  6531 net.cpp:165] Memory required for data: 1423406768
I0419 23:42:25.325278  6531 layer_factory.hpp:77] Creating layer drop6
I0419 23:42:25.325294  6531 net.cpp:106] Creating Layer drop6
I0419 23:42:25.325304  6531 net.cpp:454] drop6 <- fc6
I0419 23:42:25.325311  6531 net.cpp:397] drop6 -> fc6 (in-place)
I0419 23:42:25.325348  6531 net.cpp:150] Setting up drop6
I0419 23:42:25.325359  6531 net.cpp:157] Top shape: 1 4096 (4096)
I0419 23:42:25.325364  6531 net.cpp:165] Memory required for data: 1423423152
I0419 23:42:25.325368  6531 layer_factory.hpp:77] Creating layer fc7
I0419 23:42:25.325378  6531 net.cpp:106] Creating Layer fc7
I0419 23:42:25.325387  6531 net.cpp:454] fc7 <- fc6
I0419 23:42:25.325397  6531 net.cpp:411] fc7 -> fc7
I0419 23:42:25.369860  6531 net.cpp:150] Setting up fc7
I0419 23:42:25.369904  6531 net.cpp:157] Top shape: 1 4096 (4096)
I0419 23:42:25.369910  6531 net.cpp:165] Memory required for data: 1423439536
I0419 23:42:25.369923  6531 layer_factory.hpp:77] Creating layer relu7
I0419 23:42:25.369936  6531 net.cpp:106] Creating Layer relu7
I0419 23:42:25.369957  6531 net.cpp:454] relu7 <- fc7
I0419 23:42:25.369968  6531 net.cpp:397] relu7 -> fc7 (in-place)
I0419 23:42:25.369987  6531 net.cpp:150] Setting up relu7
I0419 23:42:25.369993  6531 net.cpp:157] Top shape: 1 4096 (4096)
I0419 23:42:25.370000  6531 net.cpp:165] Memory required for data: 1423455920
I0419 23:42:25.370005  6531 layer_factory.hpp:77] Creating layer drop7
I0419 23:42:25.370018  6531 net.cpp:106] Creating Layer drop7
I0419 23:42:25.370024  6531 net.cpp:454] drop7 <- fc7
I0419 23:42:25.370030  6531 net.cpp:397] drop7 -> fc7 (in-place)
I0419 23:42:25.370065  6531 net.cpp:150] Setting up drop7
I0419 23:42:25.370074  6531 net.cpp:157] Top shape: 1 4096 (4096)
I0419 23:42:25.370079  6531 net.cpp:165] Memory required for data: 1423472304
I0419 23:42:25.370085  6531 layer_factory.hpp:77] Creating layer fc7_drop7_0_split
I0419 23:42:25.370095  6531 net.cpp:106] Creating Layer fc7_drop7_0_split
I0419 23:42:25.370105  6531 net.cpp:454] fc7_drop7_0_split <- fc7
I0419 23:42:25.370112  6531 net.cpp:411] fc7_drop7_0_split -> fc7_drop7_0_split_0
I0419 23:42:25.370121  6531 net.cpp:411] fc7_drop7_0_split -> fc7_drop7_0_split_1
I0419 23:42:25.370169  6531 net.cpp:150] Setting up fc7_drop7_0_split
I0419 23:42:25.370182  6531 net.cpp:157] Top shape: 1 4096 (4096)
I0419 23:42:25.370188  6531 net.cpp:157] Top shape: 1 4096 (4096)
I0419 23:42:25.370193  6531 net.cpp:165] Memory required for data: 1423505072
I0419 23:42:25.370198  6531 layer_factory.hpp:77] Creating layer cls_score
I0419 23:42:25.370209  6531 net.cpp:106] Creating Layer cls_score
I0419 23:42:25.370218  6531 net.cpp:454] cls_score <- fc7_drop7_0_split_0
I0419 23:42:25.370231  6531 net.cpp:411] cls_score -> cls_score
I0419 23:42:25.375799  6531 net.cpp:150] Setting up cls_score
I0419 23:42:25.375818  6531 net.cpp:157] Top shape: 1 44 (44)
I0419 23:42:25.375823  6531 net.cpp:165] Memory required for data: 1423505248
I0419 23:42:25.375833  6531 layer_factory.hpp:77] Creating layer bbox_pred
I0419 23:42:25.375843  6531 net.cpp:106] Creating Layer bbox_pred
I0419 23:42:25.375849  6531 net.cpp:454] bbox_pred <- fc7_drop7_0_split_1
I0419 23:42:25.375860  6531 net.cpp:411] bbox_pred -> bbox_pred
I0419 23:42:25.397531  6531 net.cpp:150] Setting up bbox_pred
I0419 23:42:25.397572  6531 net.cpp:157] Top shape: 1 176 (176)
I0419 23:42:25.397578  6531 net.cpp:165] Memory required for data: 1423505952
I0419 23:42:25.397589  6531 layer_factory.hpp:77] Creating layer loss_cls
I0419 23:42:25.397603  6531 net.cpp:106] Creating Layer loss_cls
I0419 23:42:25.397610  6531 net.cpp:454] loss_cls <- cls_score
I0419 23:42:25.397625  6531 net.cpp:454] loss_cls <- labels
I0419 23:42:25.397634  6531 net.cpp:411] loss_cls -> loss_cls
…
