…
weight_decay: 0.0005
stepsize: 60000
snapshot: 0
snapshot_prefix: "zf_rpn"
average_loss: 100
I0422 07:49:11.037386 15458 solver.cpp:81] Creating training net from train_net file: models/pascal_voc/ZF/faster_rcnn_alt_opt/stage1_rpn_train.pt
I0422 07:49:11.038378 15458 net.cpp:49] Initializing net from parameters: 
name: "ZF"
state {
  phase: TRAIN
}
layer {
  name: "input-data"
  type: "Python"
  top: "data"
  top: "im_info"
  top: "gt_boxes"
  python_param {
    module: "roi_data_layer.layer"
    layer: "RoIDataLayer"
    param_str: "\'num_classes\': 21"
  }
}
layer {
  name: "conv1"
  type: "Convolution"
  bottom: "data"
  top: "conv1"
  param {
    lr_mult: 1
  }
  param {
    lr_mult: 2
  }
  convolution_param {
    num_output: 96
    pad: 3
    kernel_size: 7
    stride: 2
  }
}
layer {
  name: "relu1"
  type: "ReLU"
  bottom: "conv1"
  top: "conv1"
}
layer {
  name: "norm1"
  type: "LRN"
  bottom: "conv1"
  top: "norm1"
  lrn_param {
    local_size: 3
    alpha: 5e-05
    beta: 0.75
    norm_region: WITHIN_CHANNEL
    engine: CAFFE
  }
}
layer {
  name: "pool1"
  type: "Pooling"
  bottom: "norm1"
  top: "pool1"
  pooling_param {
    pool: MAX
    kernel_size: 3
    stride: 2
    pad: 1
  }
}
layer {
  name: "conv2"
  type: "Convolution"
  bottom: "pool1"
  top: "conv2"
  param {
    lr_mult: 1
  }
  param {
    lr_mult: 2
  }
  convolution_param {
    num_output: 256
    pad: 2
    kernel_size: 5
    stride: 2
  }
}
layer {
  name: "relu2"
  type: "ReLU"
  bottom: "conv2"
  top: "conv2"
}
layer {
  name: "norm2"
  type: "LRN"
  bottom: "conv2"
  top: "norm2"
  lrn_param {
    local_size: 3
    alpha: 5e-05
    beta: 0.75
    norm_region: WITHIN_CHANNEL
    engine: CAFFE
  }
}
layer {
  name: "pool2"
  type: "Pooling"
  bottom: "norm2"
  top: "pool2"
  pooling_param {
    pool: MAX
    kernel_size: 3
    stride: 2
    pad: 1
  }
}
layer {
  name: "conv3"
  type: "Convolution"
  bottom: "pool2"
  top: "conv3"
  param {
    lr_mult: 1
  }
  param {
    lr_mult: 2
  }
  convolution_param {
    num_output: 384
    pad: 1
    kernel_size: 3
    stride: 1
  }
}
layer {
  name: "relu3"
  type: "ReLU"
  bottom: "conv3"
  top: "conv3"
}
layer {
  name: "conv4"
  type: "Convolution"
  bottom: "conv3"
  top: "conv4"
  param {
    lr_mult: 1
  }
  param {
    lr_mult: 2
  }
  convolution_param {
    num_output: 384
    pad: 1
    kernel_size: 3
    stride: 1
  }
}
layer {
  name: "relu4"
  type: "ReLU"
  bottom: "conv4"
  top: "conv4"
}
layer {
  name: "conv5"
  type: "Convolution"
  bottom: "conv4"
  top: "conv5"
  param {
    lr_mult: 1
  }
  param {
    lr_mult: 2
  }
  convolution_param {
    num_output: 256
    pad: 1
    kernel_size: 3
    stride: 1
  }
}
layer {
  name: "relu5"
  type: "ReLU"
  bottom: "conv5"
  top: "conv5"
}
layer {
  name: "rpn_conv1"
  type: "Convolution"
  bottom: "conv5"
  top: "rpn_conv1"
  param {
    lr_mult: 1
  }
  param {
    lr_mult: 2
  }
  convolution_param {
    num_output: 256
    pad: 1
    kernel_size: 3
    stride: 1
    weight_filler {
      type: "gaussian"
      std: 0.01
    }
    bias_filler {
      type: "constant"
      value: 0
    }
  }
}
layer {
  name: "rpn_conv2"
  type: "Convolution"
  bottom: "conv3"
  top: "rpn_conv2"
  param {
    lr_mult: 1
  }
  param {
    lr_mult: 2
  }
  convolution_param {
    num_output: 256
    pad: 1
    kernel_size: 3
    stride: 1
    weight_filler {
      type: "gaussian"
      std: 0.01
    }
    bias_filler {
      type: "constant"
      value: 0
    }
  }
}
layer {
  name: "rpn_relu1"
  type: "ReLU"
  bottom: "rpn_conv1"
  top: "rpn_conv1"
}
layer {
  name: "rpn_relu2"
  type: "ReLU"
  bottom: "rpn_conv2"
  top: "rpn_conv2"
}
layer {
  name: "rpn_cls_score2"
  type: "Convolution"
  bottom: "rpn_conv2"
  top: "rpn_cls_score2"
  param {
    lr_mult: 1
  }
  param {
    lr_mult: 2
  }
  convolution_param {
    num_output: 18
    pad: 0
    kernel_size: 1
    stride: 1
    weight_filler {
      type: "gaussian"
      std: 0.01
    }
    bias_filler {
      type: "constant"
      value: 0
    }
  }
}
layer {
  name: "rpn_cls_score"
  type: "Convolution"
  bottom: "rpn_conv1"
  top: "rpn_cls_score"
  param {
    lr_mult: 1
  }
  param {
    lr_mult: 2
  }
  convolution_param {
    num_output: 18
    pad: 0
    kernel_size: 1
    stride: 1
    weight_filler {
      type: "gaussian"
      std: 0.01
    }
    bias_filler {
      type: "constant"
      value: 0
    }
  }
}
layer {
  name: "rpn_bbox_pred"
  type: "Convolution"
  bottom: "rpn_conv1"
  top: "rpn_bbox_pred"
  param {
    lr_mult: 1
  }
  param {
    lr_mult: 2
  }
  convolution_param {
    num_output: 36
    pad: 0
    kernel_size: 1
    stride: 1
    weight_filler {
      type: "gaussian"
      std: 0.01
    }
    bias_filler {
      type: "constant"
      value: 0
    }
  }
}
layer {
  name: "rpn_bbox_pred2"
  type: "Convolution"
  bottom: "rpn_conv2"
  top: "rpn_bbox_pred2"
  param {
    lr_mult: 1
  }
  param {
    lr_mult: 2
  }
  convolution_param {
    num_output: 36
    pad: 0
    kernel_size: 1
    stride: 1
    weight_filler {
      type: "gaussian"
      std: 0.01
    }
    bias_filler {
      type: "constant"
      value: 0
    }
  }
}
layer {
  name: "rpn_cls_score_reshape"
  type: "Reshape"
  bottom: "rpn_cls_score"
  top: "rpn_cls_score_reshape"
  reshape_param {
    shape {
      dim: 0
      dim: 2
      dim: -1
      dim: 0
    }
  }
}
layer {
  name: "rpn_cls_score_reshape2"
  type: "Reshape"
  bottom: "rpn_cls_score2"
  top: "rpn_cls_score_reshape2"
  reshape_param {
    shape {
      dim: 0
      dim: 2
      dim: -1
      dim: 0
    }
  }
}
layer {
  name: "rpn-data"
  type: "Python"
  bottom: "rpn_cls_score"
  bottom: "gt_boxes"
  bottom: "im_info"
  bottom: "data"
  top: "rpn_labels"
  top: "rpn_bbox_targets"
  top: "rpn_bbox_inside_weights"
  top: "rpn_bbox_outside_weights"
  python_param {
    module: "rpn.anchor_target_layer"
    layer: "AnchorTargetLayer"
    param_str: "\'feat_stride\': 16"
  }
}
layer {
  name: "rpn-data2"
  type: "Python"
  bottom: "rpn_cls_score2"
  bottom: "gt_boxes"
  bottom: "im_info"
  bottom: "data"
  top: "rpn_labels2"
  top: "rpn_bbox_targets2"
  top: "rpn_bbox_inside_weights2"
  top: "rpn_bbox_outside_weights2"
  python_param {
    module: "rpn.anchor_target_layer"
    layer: "AnchorTargetLayer"
    param_str: "\'feat_stride\': 16"
  }
}
layer {
  name: "rpn_loss_cls"
  type: "SoftmaxWithLoss"
  bottom: "rpn_cls_score_reshape"
  bottom: "rpn_labels"
  top: "rpn_cls_loss"
  loss_weight: 1
  propagate_down: true
  propagate_down: false
  loss_param {
    ignore_label: -1
    normalize: true
  }
}
layer {
  name: "rpn_loss_cls2"
  type: "SoftmaxWithLoss"
  bottom: "rpn_cls_score_reshape2"
  bottom: "rpn_labels2"
  top: "rpn_cls_loss2"
  loss_weight: 1
  propagate_down: true
  propagate_down: false
  loss_param {
    ignore_label: -1
    normalize: true
  }
}
layer {
  name: "rpn_loss_bbox"
  type: "SmoothL1Loss"
  bottom: "rpn_bbox_pred"
  bottom: "rpn_bbox_targets"
  bottom: "rpn_bbox_inside_weights"
  bottom: "rpn_bbox_outside_weights"
  top: "rpn_loss_bbox"
  loss_weight: 1
  smooth_l1_loss_param {
    sigma: 3
  }
}
layer {
  name: "rpn_loss_bbox2"
  type: "SmoothL1Loss"
  bottom: "rpn_bbox_pred2"
  bottom: "rpn_bbox_targets2"
  bottom: "rpn_bbox_inside_weights2"
  bottom: "rpn_bbox_outside_weights2"
  top: "rpn_loss_bbox2"
  loss_weight: 1
  smooth_l1_loss_param {
    sigma: 3
  }
}
layer {
  name: "dummy_roi_pool_conv5"
  type: "DummyData"
  top: "dummy_roi_pool_conv5"
  dummy_data_param {
    data_filler {
      type: "gaussian"
      std: 0.01
    }
    shape {
      dim: 1
      dim: 9216
    }
  }
}
layer {
  name: "fc6"
  type: "InnerProduct"
  bottom: "dummy_roi_pool_conv5"
  top: "fc6"
  param {
    lr_mult: 0
    decay_mult: 0
  }
  param {
    lr_mult: 0
    decay_mult: 0
  }
  inner_product_param {
    num_output: 4096
  }
}
layer {
  name: "relu6"
  type: "ReLU"
  bottom: "fc6"
  top: "fc6"
}
layer {
  name: "fc7"
  type: "InnerProduct"
  bottom: "fc6"
  top: "fc7"
  param {
    lr_mult: 0
    decay_mult: 0
  }
  param {
    lr_mult: 0
    decay_mult: 0
  }
  inner_product_param {
    num_output: 4096
  }
}
layer {
  name: "silence_fc7"
  type: "Silence"
  bottom: "fc7"
}
I0422 07:49:11.038614 15458 layer_factory.hpp:77] Creating layer input-data
I0422 07:49:11.039156 15458 net.cpp:106] Creating Layer input-data
I0422 07:49:11.039177 15458 net.cpp:411] input-data -> data
I0422 07:49:11.039194 15458 net.cpp:411] input-data -> im_info
I0422 07:49:11.039206 15458 net.cpp:411] input-data -> gt_boxes
RoiDataLayer: name_to_top: {'gt_boxes': 2, 'data': 0, 'im_info': 1}
I0422 07:49:11.054975 15458 net.cpp:150] Setting up input-data
I0422 07:49:11.054994 15458 net.cpp:157] Top shape: 1 3 600 1000 (1800000)
I0422 07:49:11.055003 15458 net.cpp:157] Top shape: 1 3 (3)
I0422 07:49:11.055006 15458 net.cpp:157] Top shape: 1 4 (4)
I0422 07:49:11.055009 15458 net.cpp:165] Memory required for data: 7200028
I0422 07:49:11.055013 15458 layer_factory.hpp:77] Creating layer data_input-data_0_split
I0422 07:49:11.055024 15458 net.cpp:106] Creating Layer data_input-data_0_split
I0422 07:49:11.055032 15458 net.cpp:454] data_input-data_0_split <- data
I0422 07:49:11.055040 15458 net.cpp:411] data_input-data_0_split -> data_input-data_0_split_0
I0422 07:49:11.055052 15458 net.cpp:411] data_input-data_0_split -> data_input-data_0_split_1
I0422 07:49:11.055059 15458 net.cpp:411] data_input-data_0_split -> data_input-data_0_split_2
I0422 07:49:11.055106 15458 net.cpp:150] Setting up data_input-data_0_split
I0422 07:49:11.055115 15458 net.cpp:157] Top shape: 1 3 600 1000 (1800000)
I0422 07:49:11.055119 15458 net.cpp:157] Top shape: 1 3 600 1000 (1800000)
I0422 07:49:11.055125 15458 net.cpp:157] Top shape: 1 3 600 1000 (1800000)
I0422 07:49:11.055127 15458 net.cpp:165] Memory required for data: 28800028
I0422 07:49:11.055130 15458 layer_factory.hpp:77] Creating layer im_info_input-data_1_split
I0422 07:49:11.055137 15458 net.cpp:106] Creating Layer im_info_input-data_1_split
I0422 07:49:11.055145 15458 net.cpp:454] im_info_input-data_1_split <- im_info
I0422 07:49:11.055148 15458 net.cpp:411] im_info_input-data_1_split -> im_info_input-data_1_split_0
I0422 07:49:11.055153 15458 net.cpp:411] im_info_input-data_1_split -> im_info_input-data_1_split_1
I0422 07:49:11.055183 15458 net.cpp:150] Setting up im_info_input-data_1_split
I0422 07:49:11.055192 15458 net.cpp:157] Top shape: 1 3 (3)
I0422 07:49:11.055196 15458 net.cpp:157] Top shape: 1 3 (3)
I0422 07:49:11.055198 15458 net.cpp:165] Memory required for data: 28800052
I0422 07:49:11.055202 15458 layer_factory.hpp:77] Creating layer gt_boxes_input-data_2_split
I0422 07:49:11.055207 15458 net.cpp:106] Creating Layer gt_boxes_input-data_2_split
I0422 07:49:11.055209 15458 net.cpp:454] gt_boxes_input-data_2_split <- gt_boxes
I0422 07:49:11.055213 15458 net.cpp:411] gt_boxes_input-data_2_split -> gt_boxes_input-data_2_split_0
I0422 07:49:11.055225 15458 net.cpp:411] gt_boxes_input-data_2_split -> gt_boxes_input-data_2_split_1
I0422 07:49:11.055251 15458 net.cpp:150] Setting up gt_boxes_input-data_2_split
I0422 07:49:11.055259 15458 net.cpp:157] Top shape: 1 4 (4)
I0422 07:49:11.055263 15458 net.cpp:157] Top shape: 1 4 (4)
I0422 07:49:11.055265 15458 net.cpp:165] Memory required for data: 28800084
I0422 07:49:11.055268 15458 layer_factory.hpp:77] Creating layer conv1
I0422 07:49:11.055282 15458 net.cpp:106] Creating Layer conv1
I0422 07:49:11.055290 15458 net.cpp:454] conv1 <- data_input-data_0_split_0
I0422 07:49:11.055294 15458 net.cpp:411] conv1 -> conv1
I0422 07:49:11.056627 15458 net.cpp:150] Setting up conv1
I0422 07:49:11.056644 15458 net.cpp:157] Top shape: 1 96 300 500 (14400000)
I0422 07:49:11.056648 15458 net.cpp:165] Memory required for data: 86400084
I0422 07:49:11.056660 15458 layer_factory.hpp:77] Creating layer relu1
I0422 07:49:11.056674 15458 net.cpp:106] Creating Layer relu1
I0422 07:49:11.056679 15458 net.cpp:454] relu1 <- conv1
I0422 07:49:11.056685 15458 net.cpp:397] relu1 -> conv1 (in-place)
I0422 07:49:11.056699 15458 net.cpp:150] Setting up relu1
I0422 07:49:11.056704 15458 net.cpp:157] Top shape: 1 96 300 500 (14400000)
I0422 07:49:11.056706 15458 net.cpp:165] Memory required for data: 144000084
I0422 07:49:11.056710 15458 layer_factory.hpp:77] Creating layer norm1
I0422 07:49:11.056715 15458 net.cpp:106] Creating Layer norm1
I0422 07:49:11.056721 15458 net.cpp:454] norm1 <- conv1
I0422 07:49:11.056727 15458 net.cpp:411] norm1 -> norm1
I0422 07:49:11.056829 15458 net.cpp:150] Setting up norm1
I0422 07:49:11.056839 15458 net.cpp:157] Top shape: 1 96 300 500 (14400000)
I0422 07:49:11.056841 15458 net.cpp:165] Memory required for data: 201600084
I0422 07:49:11.056844 15458 layer_factory.hpp:77] Creating layer pool1
I0422 07:49:11.056852 15458 net.cpp:106] Creating Layer pool1
I0422 07:49:11.056859 15458 net.cpp:454] pool1 <- norm1
I0422 07:49:11.056862 15458 net.cpp:411] pool1 -> pool1
I0422 07:49:11.056895 15458 net.cpp:150] Setting up pool1
I0422 07:49:11.056903 15458 net.cpp:157] Top shape: 1 96 151 251 (3638496)
I0422 07:49:11.056906 15458 net.cpp:165] Memory required for data: 216154068
I0422 07:49:11.056908 15458 layer_factory.hpp:77] Creating layer conv2
I0422 07:49:11.056916 15458 net.cpp:106] Creating Layer conv2
I0422 07:49:11.056922 15458 net.cpp:454] conv2 <- pool1
I0422 07:49:11.056928 15458 net.cpp:411] conv2 -> conv2
I0422 07:49:11.058588 15458 net.cpp:150] Setting up conv2
I0422 07:49:11.058604 15458 net.cpp:157] Top shape: 1 256 76 126 (2451456)
I0422 07:49:11.058606 15458 net.cpp:165] Memory required for data: 225959892
I0422 07:49:11.058614 15458 layer_factory.hpp:77] Creating layer relu2
I0422 07:49:11.058626 15458 net.cpp:106] Creating Layer relu2
I0422 07:49:11.058629 15458 net.cpp:454] relu2 <- conv2
I0422 07:49:11.058636 15458 net.cpp:397] relu2 -> conv2 (in-place)
I0422 07:49:11.058641 15458 net.cpp:150] Setting up relu2
I0422 07:49:11.058650 15458 net.cpp:157] Top shape: 1 256 76 126 (2451456)
I0422 07:49:11.058652 15458 net.cpp:165] Memory required for data: 235765716
I0422 07:49:11.058655 15458 layer_factory.hpp:77] Creating layer norm2
I0422 07:49:11.058661 15458 net.cpp:106] Creating Layer norm2
I0422 07:49:11.058668 15458 net.cpp:454] norm2 <- conv2
I0422 07:49:11.058672 15458 net.cpp:411] norm2 -> norm2
I0422 07:49:11.058754 15458 net.cpp:150] Setting up norm2
I0422 07:49:11.058763 15458 net.cpp:157] Top shape: 1 256 76 126 (2451456)
I0422 07:49:11.058766 15458 net.cpp:165] Memory required for data: 245571540
I0422 07:49:11.058769 15458 layer_factory.hpp:77] Creating layer pool2
I0422 07:49:11.058773 15458 net.cpp:106] Creating Layer pool2
I0422 07:49:11.058781 15458 net.cpp:454] pool2 <- norm2
I0422 07:49:11.058786 15458 net.cpp:411] pool2 -> pool2
I0422 07:49:11.058814 15458 net.cpp:150] Setting up pool2
I0422 07:49:11.058822 15458 net.cpp:157] Top shape: 1 256 39 64 (638976)
I0422 07:49:11.058825 15458 net.cpp:165] Memory required for data: 248127444
I0422 07:49:11.058827 15458 layer_factory.hpp:77] Creating layer conv3
I0422 07:49:11.058835 15458 net.cpp:106] Creating Layer conv3
I0422 07:49:11.058841 15458 net.cpp:454] conv3 <- pool2
I0422 07:49:11.058845 15458 net.cpp:411] conv3 -> conv3
I0422 07:49:11.062077 15458 net.cpp:150] Setting up conv3
I0422 07:49:11.062096 15458 net.cpp:157] Top shape: 1 384 39 64 (958464)
I0422 07:49:11.062101 15458 net.cpp:165] Memory required for data: 251961300
I0422 07:49:11.062109 15458 layer_factory.hpp:77] Creating layer relu3
I0422 07:49:11.062119 15458 net.cpp:106] Creating Layer relu3
I0422 07:49:11.062122 15458 net.cpp:454] relu3 <- conv3
I0422 07:49:11.062129 15458 net.cpp:397] relu3 -> conv3 (in-place)
I0422 07:49:11.062134 15458 net.cpp:150] Setting up relu3
I0422 07:49:11.062141 15458 net.cpp:157] Top shape: 1 384 39 64 (958464)
I0422 07:49:11.062144 15458 net.cpp:165] Memory required for data: 255795156
I0422 07:49:11.062147 15458 layer_factory.hpp:77] Creating layer conv3_relu3_0_split
I0422 07:49:11.062151 15458 net.cpp:106] Creating Layer conv3_relu3_0_split
I0422 07:49:11.062155 15458 net.cpp:454] conv3_relu3_0_split <- conv3
I0422 07:49:11.062160 15458 net.cpp:411] conv3_relu3_0_split -> conv3_relu3_0_split_0
I0422 07:49:11.062170 15458 net.cpp:411] conv3_relu3_0_split -> conv3_relu3_0_split_1
I0422 07:49:11.062201 15458 net.cpp:150] Setting up conv3_relu3_0_split
I0422 07:49:11.062211 15458 net.cpp:157] Top shape: 1 384 39 64 (958464)
I0422 07:49:11.062214 15458 net.cpp:157] Top shape: 1 384 39 64 (958464)
I0422 07:49:11.062216 15458 net.cpp:165] Memory required for data: 263462868
I0422 07:49:11.062219 15458 layer_factory.hpp:77] Creating layer conv4
I0422 07:49:11.062230 15458 net.cpp:106] Creating Layer conv4
I0422 07:49:11.062235 15458 net.cpp:454] conv4 <- conv3_relu3_0_split_0
I0422 07:49:11.062240 15458 net.cpp:411] conv4 -> conv4
I0422 07:49:11.065521 15458 net.cpp:150] Setting up conv4
I0422 07:49:11.065538 15458 net.cpp:157] Top shape: 1 384 39 64 (958464)
I0422 07:49:11.065541 15458 net.cpp:165] Memory required for data: 267296724
I0422 07:49:11.065547 15458 layer_factory.hpp:77] Creating layer relu4
I0422 07:49:11.065558 15458 net.cpp:106] Creating Layer relu4
I0422 07:49:11.065562 15458 net.cpp:454] relu4 <- conv4
I0422 07:49:11.065568 15458 net.cpp:397] relu4 -> conv4 (in-place)
I0422 07:49:11.065578 15458 net.cpp:150] Setting up relu4
I0422 07:49:11.065583 15458 net.cpp:157] Top shape: 1 384 39 64 (958464)
I0422 07:49:11.065585 15458 net.cpp:165] Memory required for data: 271130580
I0422 07:49:11.065589 15458 layer_factory.hpp:77] Creating layer conv5
I0422 07:49:11.065596 15458 net.cpp:106] Creating Layer conv5
I0422 07:49:11.065604 15458 net.cpp:454] conv5 <- conv4
I0422 07:49:11.065609 15458 net.cpp:411] conv5 -> conv5
I0422 07:49:11.067903 15458 net.cpp:150] Setting up conv5
I0422 07:49:11.067919 15458 net.cpp:157] Top shape: 1 256 39 64 (638976)
I0422 07:49:11.067922 15458 net.cpp:165] Memory required for data: 273686484
I0422 07:49:11.067931 15458 layer_factory.hpp:77] Creating layer relu5
I0422 07:49:11.067941 15458 net.cpp:106] Creating Layer relu5
I0422 07:49:11.067945 15458 net.cpp:454] relu5 <- conv5
I0422 07:49:11.067951 15458 net.cpp:397] relu5 -> conv5 (in-place)
I0422 07:49:11.067957 15458 net.cpp:150] Setting up relu5
I0422 07:49:11.067965 15458 net.cpp:157] Top shape: 1 256 39 64 (638976)
I0422 07:49:11.067967 15458 net.cpp:165] Memory required for data: 276242388
I0422 07:49:11.067970 15458 layer_factory.hpp:77] Creating layer rpn_conv1
I0422 07:49:11.067982 15458 net.cpp:106] Creating Layer rpn_conv1
I0422 07:49:11.067989 15458 net.cpp:454] rpn_conv1 <- conv5
I0422 07:49:11.067994 15458 net.cpp:411] rpn_conv1 -> rpn_conv1
I0422 07:49:11.085081 15458 net.cpp:150] Setting up rpn_conv1
I0422 07:49:11.085101 15458 net.cpp:157] Top shape: 1 256 39 64 (638976)
I0422 07:49:11.085104 15458 net.cpp:165] Memory required for data: 278798292
I0422 07:49:11.085111 15458 layer_factory.hpp:77] Creating layer rpn_conv2
I0422 07:49:11.085122 15458 net.cpp:106] Creating Layer rpn_conv2
I0422 07:49:11.085127 15458 net.cpp:454] rpn_conv2 <- conv3_relu3_0_split_1
I0422 07:49:11.085135 15458 net.cpp:411] rpn_conv2 -> rpn_conv2
I0422 07:49:11.110507 15458 net.cpp:150] Setting up rpn_conv2
I0422 07:49:11.110523 15458 net.cpp:157] Top shape: 1 256 39 64 (638976)
I0422 07:49:11.110527 15458 net.cpp:165] Memory required for data: 281354196
I0422 07:49:11.110532 15458 layer_factory.hpp:77] Creating layer rpn_relu1
I0422 07:49:11.110541 15458 net.cpp:106] Creating Layer rpn_relu1
I0422 07:49:11.110548 15458 net.cpp:454] rpn_relu1 <- rpn_conv1
I0422 07:49:11.110553 15458 net.cpp:397] rpn_relu1 -> rpn_conv1 (in-place)
I0422 07:49:11.110558 15458 net.cpp:150] Setting up rpn_relu1
I0422 07:49:11.110564 15458 net.cpp:157] Top shape: 1 256 39 64 (638976)
I0422 07:49:11.110566 15458 net.cpp:165] Memory required for data: 283910100
I0422 07:49:11.110571 15458 layer_factory.hpp:77] Creating layer rpn_conv1_rpn_relu1_0_split
I0422 07:49:11.110575 15458 net.cpp:106] Creating Layer rpn_conv1_rpn_relu1_0_split
I0422 07:49:11.110579 15458 net.cpp:454] rpn_conv1_rpn_relu1_0_split <- rpn_conv1
I0422 07:49:11.110589 15458 net.cpp:411] rpn_conv1_rpn_relu1_0_split -> rpn_conv1_rpn_relu1_0_split_0
I0422 07:49:11.110594 15458 net.cpp:411] rpn_conv1_rpn_relu1_0_split -> rpn_conv1_rpn_relu1_0_split_1
I0422 07:49:11.110623 15458 net.cpp:150] Setting up rpn_conv1_rpn_relu1_0_split
I0422 07:49:11.110635 15458 net.cpp:157] Top shape: 1 256 39 64 (638976)
I0422 07:49:11.110638 15458 net.cpp:157] Top shape: 1 256 39 64 (638976)
I0422 07:49:11.110641 15458 net.cpp:165] Memory required for data: 289021908
I0422 07:49:11.110643 15458 layer_factory.hpp:77] Creating layer rpn_relu2
I0422 07:49:11.110649 15458 net.cpp:106] Creating Layer rpn_relu2
I0422 07:49:11.110651 15458 net.cpp:454] rpn_relu2 <- rpn_conv2
I0422 07:49:11.110656 15458 net.cpp:397] rpn_relu2 -> rpn_conv2 (in-place)
I0422 07:49:11.110661 15458 net.cpp:150] Setting up rpn_relu2
I0422 07:49:11.110664 15458 net.cpp:157] Top shape: 1 256 39 64 (638976)
I0422 07:49:11.110667 15458 net.cpp:165] Memory required for data: 291577812
I0422 07:49:11.110671 15458 layer_factory.hpp:77] Creating layer rpn_conv2_rpn_relu2_0_split
I0422 07:49:11.110674 15458 net.cpp:106] Creating Layer rpn_conv2_rpn_relu2_0_split
I0422 07:49:11.110677 15458 net.cpp:454] rpn_conv2_rpn_relu2_0_split <- rpn_conv2
I0422 07:49:11.110683 15458 net.cpp:411] rpn_conv2_rpn_relu2_0_split -> rpn_conv2_rpn_relu2_0_split_0
I0422 07:49:11.110689 15458 net.cpp:411] rpn_conv2_rpn_relu2_0_split -> rpn_conv2_rpn_relu2_0_split_1
I0422 07:49:11.110715 15458 net.cpp:150] Setting up rpn_conv2_rpn_relu2_0_split
I0422 07:49:11.110723 15458 net.cpp:157] Top shape: 1 256 39 64 (638976)
I0422 07:49:11.110728 15458 net.cpp:157] Top shape: 1 256 39 64 (638976)
I0422 07:49:11.110730 15458 net.cpp:165] Memory required for data: 296689620
I0422 07:49:11.110733 15458 layer_factory.hpp:77] Creating layer rpn_cls_score2
I0422 07:49:11.110745 15458 net.cpp:106] Creating Layer rpn_cls_score2
I0422 07:49:11.110752 15458 net.cpp:454] rpn_cls_score2 <- rpn_conv2_rpn_relu2_0_split_0
I0422 07:49:11.110759 15458 net.cpp:411] rpn_cls_score2 -> rpn_cls_score2
I0422 07:49:11.111068 15458 net.cpp:150] Setting up rpn_cls_score2
I0422 07:49:11.111080 15458 net.cpp:157] Top shape: 1 18 39 64 (44928)
I0422 07:49:11.111083 15458 net.cpp:165] Memory required for data: 296869332
I0422 07:49:11.111088 15458 layer_factory.hpp:77] Creating layer rpn_cls_score2_rpn_cls_score2_0_split
I0422 07:49:11.111094 15458 net.cpp:106] Creating Layer rpn_cls_score2_rpn_cls_score2_0_split
I0422 07:49:11.111098 15458 net.cpp:454] rpn_cls_score2_rpn_cls_score2_0_split <- rpn_cls_score2
I0422 07:49:11.111104 15458 net.cpp:411] rpn_cls_score2_rpn_cls_score2_0_split -> rpn_cls_score2_rpn_cls_score2_0_split_0
I0422 07:49:11.111109 15458 net.cpp:411] rpn_cls_score2_rpn_cls_score2_0_split -> rpn_cls_score2_rpn_cls_score2_0_split_1
I0422 07:49:11.111141 15458 net.cpp:150] Setting up rpn_cls_score2_rpn_cls_score2_0_split
I0422 07:49:11.111150 15458 net.cpp:157] Top shape: 1 18 39 64 (44928)
I0422 07:49:11.111155 15458 net.cpp:157] Top shape: 1 18 39 64 (44928)
I0422 07:49:11.111156 15458 net.cpp:165] Memory required for data: 297228756
I0422 07:49:11.111160 15458 layer_factory.hpp:77] Creating layer rpn_cls_score
I0422 07:49:11.111167 15458 net.cpp:106] Creating Layer rpn_cls_score
I0422 07:49:11.111176 15458 net.cpp:454] rpn_cls_score <- rpn_conv1_rpn_relu1_0_split_0
I0422 07:49:11.111183 15458 net.cpp:411] rpn_cls_score -> rpn_cls_score
I0422 07:49:11.111481 15458 net.cpp:150] Setting up rpn_cls_score
I0422 07:49:11.111491 15458 net.cpp:157] Top shape: 1 18 39 64 (44928)
I0422 07:49:11.111495 15458 net.cpp:165] Memory required for data: 297408468
I0422 07:49:11.111505 15458 layer_factory.hpp:77] Creating layer rpn_cls_score_rpn_cls_score_0_split
I0422 07:49:11.111513 15458 net.cpp:106] Creating Layer rpn_cls_score_rpn_cls_score_0_split
I0422 07:49:11.111516 15458 net.cpp:454] rpn_cls_score_rpn_cls_score_0_split <- rpn_cls_score
I0422 07:49:11.111523 15458 net.cpp:411] rpn_cls_score_rpn_cls_score_0_split -> rpn_cls_score_rpn_cls_score_0_split_0
I0422 07:49:11.111529 15458 net.cpp:411] rpn_cls_score_rpn_cls_score_0_split -> rpn_cls_score_rpn_cls_score_0_split_1
I0422 07:49:11.111562 15458 net.cpp:150] Setting up rpn_cls_score_rpn_cls_score_0_split
I0422 07:49:11.111570 15458 net.cpp:157] Top shape: 1 18 39 64 (44928)
I0422 07:49:11.111573 15458 net.cpp:157] Top shape: 1 18 39 64 (44928)
I0422 07:49:11.111577 15458 net.cpp:165] Memory required for data: 297767892
I0422 07:49:11.111579 15458 layer_factory.hpp:77] Creating layer rpn_bbox_pred
I0422 07:49:11.111588 15458 net.cpp:106] Creating Layer rpn_bbox_pred
I0422 07:49:11.111594 15458 net.cpp:454] rpn_bbox_pred <- rpn_conv1_rpn_relu1_0_split_1
I0422 07:49:11.111603 15458 net.cpp:411] rpn_bbox_pred -> rpn_bbox_pred
I0422 07:49:11.112032 15458 net.cpp:150] Setting up rpn_bbox_pred
I0422 07:49:11.112043 15458 net.cpp:157] Top shape: 1 36 39 64 (89856)
I0422 07:49:11.112046 15458 net.cpp:165] Memory required for data: 298127316
I0422 07:49:11.112051 15458 layer_factory.hpp:77] Creating layer rpn_bbox_pred2
I0422 07:49:11.112063 15458 net.cpp:106] Creating Layer rpn_bbox_pred2
I0422 07:49:11.112071 15458 net.cpp:454] rpn_bbox_pred2 <- rpn_conv2_rpn_relu2_0_split_1
I0422 07:49:11.112076 15458 net.cpp:411] rpn_bbox_pred2 -> rpn_bbox_pred2
I0422 07:49:11.112506 15458 net.cpp:150] Setting up rpn_bbox_pred2
I0422 07:49:11.112519 15458 net.cpp:157] Top shape: 1 36 39 64 (89856)
I0422 07:49:11.112522 15458 net.cpp:165] Memory required for data: 298486740
I0422 07:49:11.112527 15458 layer_factory.hpp:77] Creating layer rpn_cls_score_reshape
I0422 07:49:11.112535 15458 net.cpp:106] Creating Layer rpn_cls_score_reshape
I0422 07:49:11.112540 15458 net.cpp:454] rpn_cls_score_reshape <- rpn_cls_score_rpn_cls_score_0_split_0
I0422 07:49:11.112546 15458 net.cpp:411] rpn_cls_score_reshape -> rpn_cls_score_reshape
I0422 07:49:11.112574 15458 net.cpp:150] Setting up rpn_cls_score_reshape
I0422 07:49:11.112583 15458 net.cpp:157] Top shape: 1 2 351 64 (44928)
I0422 07:49:11.112586 15458 net.cpp:165] Memory required for data: 298666452
I0422 07:49:11.112588 15458 layer_factory.hpp:77] Creating layer rpn_cls_score_reshape2
I0422 07:49:11.112599 15458 net.cpp:106] Creating Layer rpn_cls_score_reshape2
I0422 07:49:11.112604 15458 net.cpp:454] rpn_cls_score_reshape2 <- rpn_cls_score2_rpn_cls_score2_0_split_0
I0422 07:49:11.112610 15458 net.cpp:411] rpn_cls_score_reshape2 -> rpn_cls_score_reshape2
I0422 07:49:11.112629 15458 net.cpp:150] Setting up rpn_cls_score_reshape2
I0422 07:49:11.112638 15458 net.cpp:157] Top shape: 1 2 351 64 (44928)
I0422 07:49:11.112640 15458 net.cpp:165] Memory required for data: 298846164
I0422 07:49:11.112643 15458 layer_factory.hpp:77] Creating layer rpn-data
I0422 07:49:11.113117 15458 net.cpp:106] Creating Layer rpn-data
I0422 07:49:11.113134 15458 net.cpp:454] rpn-data <- rpn_cls_score_rpn_cls_score_0_split_1
I0422 07:49:11.113140 15458 net.cpp:454] rpn-data <- gt_boxes_input-data_2_split_0
I0422 07:49:11.113145 15458 net.cpp:454] rpn-data <- im_info_input-data_1_split_0
I0422 07:49:11.113148 15458 net.cpp:454] rpn-data <- data_input-data_0_split_1
I0422 07:49:11.113155 15458 net.cpp:411] rpn-data -> rpn_labels
I0422 07:49:11.113162 15458 net.cpp:411] rpn-data -> rpn_bbox_targets
I0422 07:49:11.113173 15458 net.cpp:411] rpn-data -> rpn_bbox_inside_weights
I0422 07:49:11.113178 15458 net.cpp:411] rpn-data -> rpn_bbox_outside_weights
I0422 07:49:11.114439 15458 net.cpp:150] Setting up rpn-data
I0422 07:49:11.114459 15458 net.cpp:157] Top shape: 1 1 351 64 (22464)
I0422 07:49:11.114462 15458 net.cpp:157] Top shape: 1 36 39 64 (89856)
I0422 07:49:11.114467 15458 net.cpp:157] Top shape: 1 36 39 64 (89856)
I0422 07:49:11.114470 15458 net.cpp:157] Top shape: 1 36 39 64 (89856)
I0422 07:49:11.114473 15458 net.cpp:165] Memory required for data: 300014292
I0422 07:49:11.114476 15458 layer_factory.hpp:77] Creating layer rpn-data2
I0422 07:49:11.114503 15458 net.cpp:106] Creating Layer rpn-data2
I0422 07:49:11.114513 15458 net.cpp:454] rpn-data2 <- rpn_cls_score2_rpn_cls_score2_0_split_1
I0422 07:49:11.114518 15458 net.cpp:454] rpn-data2 <- gt_boxes_input-data_2_split_1
I0422 07:49:11.114523 15458 net.cpp:454] rpn-data2 <- im_info_input-data_1_split_1
I0422 07:49:11.114527 15458 net.cpp:454] rpn-data2 <- data_input-data_0_split_2
I0422 07:49:11.114536 15458 net.cpp:411] rpn-data2 -> rpn_labels2
I0422 07:49:11.114544 15458 net.cpp:411] rpn-data2 -> rpn_bbox_targets2
I0422 07:49:11.114552 15458 net.cpp:411] rpn-data2 -> rpn_bbox_inside_weights2
I0422 07:49:11.114557 15458 net.cpp:411] rpn-data2 -> rpn_bbox_outside_weights2
I0422 07:49:11.115083 15458 net.cpp:150] Setting up rpn-data2
I0422 07:49:11.115103 15458 net.cpp:157] Top shape: 1 1 351 64 (22464)
I0422 07:49:11.115108 15458 net.cpp:157] Top shape: 1 36 39 64 (89856)
I0422 07:49:11.115110 15458 net.cpp:157] Top shape: 1 36 39 64 (89856)
I0422 07:49:11.115113 15458 net.cpp:157] Top shape: 1 36 39 64 (89856)
I0422 07:49:11.115116 15458 net.cpp:165] Memory required for data: 301182420
I0422 07:49:11.115121 15458 layer_factory.hpp:77] Creating layer rpn_loss_cls
I0422 07:49:11.115131 15458 net.cpp:106] Creating Layer rpn_loss_cls
I0422 07:49:11.115139 15458 net.cpp:454] rpn_loss_cls <- rpn_cls_score_reshape
I0422 07:49:11.115144 15458 net.cpp:454] rpn_loss_cls <- rpn_labels
I0422 07:49:11.115149 15458 net.cpp:411] rpn_loss_cls -> rpn_cls_loss
…
           'RPN_PRE_NMS_TOP_N': 12000,
           'SCALES': [600],
           'SNAPSHOT_INFIX': 'stage1',
           'SNAPSHOT_ITERS': 10000,
           'USE_FLIPPED': True,
           'USE_PREFETCH': False},
 'USE_GPU_NMS': True}
Loaded dataset `voc_2007_trainval` for proposal generation
WARNING: Logging before InitGoogleLogging() is written to STDERR
I0422 07:49:21.963040 15471 net.cpp:49] Initializing net from parameters: 
name: "ZF"
input: "data"
input: "im_info"
state {
  phase: TEST
}
input_shape {
  dim: 1
  dim: 3
  dim: 224
  dim: 224
}
input_shape {
  dim: 1
  dim: 3
}
layer {
  name: "conv1"
  type: "Convolution"
  bottom: "data"
  top: "conv1"
  convolution_param {
    num_output: 96
    pad: 3
    kernel_size: 7
    stride: 2
  }
}
layer {
  name: "relu1"
  type: "ReLU"
  bottom: "conv1"
  top: "conv1"
}
layer {
  name: "norm1"
  type: "LRN"
  bottom: "conv1"
  top: "norm1"
  lrn_param {
    local_size: 3
    alpha: 5e-05
    beta: 0.75
    norm_region: WITHIN_CHANNEL
    engine: CAFFE
  }
}
layer {
  name: "pool1"
  type: "Pooling"
  bottom: "norm1"
  top: "pool1"
  pooling_param {
    pool: MAX
    kernel_size: 3
    stride: 2
    pad: 1
  }
}
layer {
  name: "conv2"
  type: "Convolution"
  bottom: "pool1"
  top: "conv2"
  convolution_param {
    num_output: 256
    pad: 2
    kernel_size: 5
    stride: 2
  }
}
layer {
  name: "relu2"
  type: "ReLU"
  bottom: "conv2"
  top: "conv2"
}
layer {
  name: "norm2"
  type: "LRN"
  bottom: "conv2"
  top: "norm2"
  lrn_param {
    local_size: 3
    alpha: 5e-05
    beta: 0.75
    norm_region: WITHIN_CHANNEL
    engine: CAFFE
  }
}
layer {
  name: "pool2"
  type: "Pooling"
  bottom: "norm2"
  top: "pool2"
  pooling_param {
    pool: MAX
    kernel_size: 3
    stride: 2
    pad: 1
  }
}
layer {
  name: "conv3"
  type: "Convolution"
  bottom: "pool2"
  top: "conv3"
  convolution_param {
    num_output: 384
    pad: 1
    kernel_size: 3
    stride: 1
  }
}
layer {
  name: "relu3"
  type: "ReLU"
  bottom: "conv3"
  top: "conv3"
}
layer {
  name: "conv4"
  type: "Convolution"
  bottom: "conv3"
  top: "conv4"
  convolution_param {
    num_output: 384
    pad: 1
    kernel_size: 3
    stride: 1
  }
}
layer {
  name: "relu4"
  type: "ReLU"
  bottom: "conv4"
  top: "conv4"
}
layer {
  name: "conv5"
  type: "Convolution"
  bottom: "conv4"
  top: "conv5"
  convolution_param {
    num_output: 256
    pad: 1
    kernel_size: 3
    stride: 1
  }
}
layer {
  name: "relu5"
  type: "ReLU"
  bottom: "conv5"
  top: "conv5"
}
layer {
  name: "rpn_conv1"
  type: "Convolution"
  bottom: "conv5"
  top: "rpn_conv1"
  convolution_param {
    num_output: 256
    pad: 1
    kernel_size: 3
    stride: 1
  }
}
layer {
  name: "rpn_relu1"
  type: "ReLU"
  bottom: "rpn_conv1"
  top: "rpn_conv1"
}
layer {
  name: "rpn_cls_score"
  type: "Convolution"
  bottom: "rpn_conv1"
  top: "rpn_cls_score"
  convolution_param {
    num_output: 18
    pad: 0
    kernel_size: 1
    stride: 1
  }
}
layer {
  name: "rpn_bbox_pred"
  type: "Convolution"
  bottom: "rpn_conv1"
  top: "rpn_bbox_pred"
  convolution_param {
    num_output: 36
    pad: 0
    kernel_size: 1
    stride: 1
  }
}
layer {
  name: "rpn_cls_score_reshape"
  type: "Reshape"
  bottom: "rpn_cls_score"
  top: "rpn_cls_score_reshape"
  reshape_param {
    shape {
      dim: 0
      dim: 2
      dim: -1
      dim: 0
    }
  }
}
layer {
  name: "rpn_cls_prob"
  type: "Softmax"
  bottom: "rpn_cls_score_reshape"
  top: "rpn_cls_prob"
}
layer {
  name: "rpn_cls_prob_reshape"
  type: "Reshape"
  bottom: "rpn_cls_prob"
  top: "rpn_cls_prob_reshape"
  reshape_param {
    shape {
      dim: 0
      dim: 18
      dim: -1
      dim: 0
    }
  }
}
layer {
  name: "proposal"
  type: "Python"
  bottom: "rpn_cls_prob_reshape"
  bottom: "rpn_bbox_pred"
  bottom: "im_info"
  top: "rois"
  top: "scores"
  python_param {
    module: "rpn.proposal_layer"
    layer: "ProposalLayer"
    param_str: "\'feat_stride\': 16"
  }
}
I0422 07:49:21.963202 15471 net.cpp:413] Input 0 -> data
I0422 07:49:21.978401 15471 net.cpp:413] Input 1 -> im_info
I0422 07:49:21.978456 15471 layer_factory.hpp:77] Creating layer conv1
I0422 07:49:21.978487 15471 net.cpp:106] Creating Layer conv1
I0422 07:49:21.978502 15471 net.cpp:454] conv1 <- data
I0422 07:49:21.978516 15471 net.cpp:411] conv1 -> conv1
I0422 07:49:21.979323 15471 net.cpp:150] Setting up conv1
I0422 07:49:21.979346 15471 net.cpp:157] Top shape: 1 96 112 112 (1204224)
I0422 07:49:21.979349 15471 net.cpp:165] Memory required for data: 4816896
I0422 07:49:21.979365 15471 layer_factory.hpp:77] Creating layer relu1
I0422 07:49:21.979382 15471 net.cpp:106] Creating Layer relu1
I0422 07:49:21.979387 15471 net.cpp:454] relu1 <- conv1
I0422 07:49:21.979394 15471 net.cpp:397] relu1 -> conv1 (in-place)
I0422 07:49:21.979409 15471 net.cpp:150] Setting up relu1
I0422 07:49:21.979423 15471 net.cpp:157] Top shape: 1 96 112 112 (1204224)
I0422 07:49:21.979427 15471 net.cpp:165] Memory required for data: 9633792
I0422 07:49:21.979431 15471 layer_factory.hpp:77] Creating layer norm1
I0422 07:49:21.979455 15471 net.cpp:106] Creating Layer norm1
I0422 07:49:21.979468 15471 net.cpp:454] norm1 <- conv1
I0422 07:49:21.979475 15471 net.cpp:411] norm1 -> norm1
I0422 07:49:21.979601 15471 net.cpp:150] Setting up norm1
I0422 07:49:21.979614 15471 net.cpp:157] Top shape: 1 96 112 112 (1204224)
I0422 07:49:21.979617 15471 net.cpp:165] Memory required for data: 14450688
I0422 07:49:21.979620 15471 layer_factory.hpp:77] Creating layer pool1
I0422 07:49:21.979629 15471 net.cpp:106] Creating Layer pool1
I0422 07:49:21.979632 15471 net.cpp:454] pool1 <- norm1
I0422 07:49:21.979636 15471 net.cpp:411] pool1 -> pool1
I0422 07:49:21.979681 15471 net.cpp:150] Setting up pool1
I0422 07:49:21.979696 15471 net.cpp:157] Top shape: 1 96 57 57 (311904)
I0422 07:49:21.979698 15471 net.cpp:165] Memory required for data: 15698304
I0422 07:49:21.979701 15471 layer_factory.hpp:77] Creating layer conv2
I0422 07:49:21.979707 15471 net.cpp:106] Creating Layer conv2
I0422 07:49:21.979712 15471 net.cpp:454] conv2 <- pool1
I0422 07:49:21.979717 15471 net.cpp:411] conv2 -> conv2
I0422 07:49:21.981881 15471 net.cpp:150] Setting up conv2
I0422 07:49:21.981900 15471 net.cpp:157] Top shape: 1 256 29 29 (215296)
I0422 07:49:21.981902 15471 net.cpp:165] Memory required for data: 16559488
I0422 07:49:21.981911 15471 layer_factory.hpp:77] Creating layer relu2
I0422 07:49:21.981919 15471 net.cpp:106] Creating Layer relu2
I0422 07:49:21.981922 15471 net.cpp:454] relu2 <- conv2
I0422 07:49:21.981930 15471 net.cpp:397] relu2 -> conv2 (in-place)
I0422 07:49:21.981938 15471 net.cpp:150] Setting up relu2
I0422 07:49:21.981945 15471 net.cpp:157] Top shape: 1 256 29 29 (215296)
I0422 07:49:21.981950 15471 net.cpp:165] Memory required for data: 17420672
I0422 07:49:21.981955 15471 layer_factory.hpp:77] Creating layer norm2
I0422 07:49:21.981962 15471 net.cpp:106] Creating Layer norm2
I0422 07:49:21.981966 15471 net.cpp:454] norm2 <- conv2
I0422 07:49:21.981973 15471 net.cpp:411] norm2 -> norm2
I0422 07:49:21.982071 15471 net.cpp:150] Setting up norm2
I0422 07:49:21.982084 15471 net.cpp:157] Top shape: 1 256 29 29 (215296)
I0422 07:49:21.982087 15471 net.cpp:165] Memory required for data: 18281856
I0422 07:49:21.982089 15471 layer_factory.hpp:77] Creating layer pool2
I0422 07:49:21.982096 15471 net.cpp:106] Creating Layer pool2
I0422 07:49:21.982101 15471 net.cpp:454] pool2 <- norm2
I0422 07:49:21.982105 15471 net.cpp:411] pool2 -> pool2
I0422 07:49:21.982146 15471 net.cpp:150] Setting up pool2
I0422 07:49:21.982161 15471 net.cpp:157] Top shape: 1 256 15 15 (57600)
I0422 07:49:21.982164 15471 net.cpp:165] Memory required for data: 18512256
I0422 07:49:21.982167 15471 layer_factory.hpp:77] Creating layer conv3
I0422 07:49:21.982175 15471 net.cpp:106] Creating Layer conv3
I0422 07:49:21.982179 15471 net.cpp:454] conv3 <- pool2
I0422 07:49:21.982183 15471 net.cpp:411] conv3 -> conv3
I0422 07:49:21.984467 15471 net.cpp:150] Setting up conv3
I0422 07:49:21.984484 15471 net.cpp:157] Top shape: 1 384 15 15 (86400)
I0422 07:49:21.984488 15471 net.cpp:165] Memory required for data: 18857856
I0422 07:49:21.984496 15471 layer_factory.hpp:77] Creating layer relu3
I0422 07:49:21.984505 15471 net.cpp:106] Creating Layer relu3
I0422 07:49:21.984509 15471 net.cpp:454] relu3 <- conv3
I0422 07:49:21.984514 15471 net.cpp:397] relu3 -> conv3 (in-place)
I0422 07:49:21.984522 15471 net.cpp:150] Setting up relu3
I0422 07:49:21.984535 15471 net.cpp:157] Top shape: 1 384 15 15 (86400)
I0422 07:49:21.984539 15471 net.cpp:165] Memory required for data: 19203456
I0422 07:49:21.984544 15471 layer_factory.hpp:77] Creating layer conv4
I0422 07:49:21.984555 15471 net.cpp:106] Creating Layer conv4
I0422 07:49:21.984566 15471 net.cpp:454] conv4 <- conv3
I0422 07:49:21.984575 15471 net.cpp:411] conv4 -> conv4
I0422 07:49:21.987874 15471 net.cpp:150] Setting up conv4
I0422 07:49:21.987890 15471 net.cpp:157] Top shape: 1 384 15 15 (86400)
I0422 07:49:21.987893 15471 net.cpp:165] Memory required for data: 19549056
I0422 07:49:21.987900 15471 layer_factory.hpp:77] Creating layer relu4
I0422 07:49:21.987905 15471 net.cpp:106] Creating Layer relu4
I0422 07:49:21.987908 15471 net.cpp:454] relu4 <- conv4
I0422 07:49:21.987912 15471 net.cpp:397] relu4 -> conv4 (in-place)
I0422 07:49:21.987923 15471 net.cpp:150] Setting up relu4
I0422 07:49:21.987929 15471 net.cpp:157] Top shape: 1 384 15 15 (86400)
I0422 07:49:21.987933 15471 net.cpp:165] Memory required for data: 19894656
I0422 07:49:21.987937 15471 layer_factory.hpp:77] Creating layer conv5
I0422 07:49:21.987948 15471 net.cpp:106] Creating Layer conv5
I0422 07:49:21.987960 15471 net.cpp:454] conv5 <- conv4
I0422 07:49:21.987972 15471 net.cpp:411] conv5 -> conv5
I0422 07:49:21.990268 15471 net.cpp:150] Setting up conv5
I0422 07:49:21.990288 15471 net.cpp:157] Top shape: 1 256 15 15 (57600)
I0422 07:49:21.990291 15471 net.cpp:165] Memory required for data: 20125056
I0422 07:49:21.990300 15471 layer_factory.hpp:77] Creating layer relu5
I0422 07:49:21.990309 15471 net.cpp:106] Creating Layer relu5
I0422 07:49:21.990311 15471 net.cpp:454] relu5 <- conv5
I0422 07:49:21.990316 15471 net.cpp:397] relu5 -> conv5 (in-place)
I0422 07:49:21.990324 15471 net.cpp:150] Setting up relu5
I0422 07:49:21.990351 15471 net.cpp:157] Top shape: 1 256 15 15 (57600)
I0422 07:49:21.990356 15471 net.cpp:165] Memory required for data: 20355456
I0422 07:49:21.990360 15471 layer_factory.hpp:77] Creating layer rpn_conv1
I0422 07:49:21.990376 15471 net.cpp:106] Creating Layer rpn_conv1
I0422 07:49:21.990380 15471 net.cpp:454] rpn_conv1 <- conv5
I0422 07:49:21.990391 15471 net.cpp:411] rpn_conv1 -> rpn_conv1
I0422 07:49:21.992013 15471 net.cpp:150] Setting up rpn_conv1
I0422 07:49:21.992032 15471 net.cpp:157] Top shape: 1 256 15 15 (57600)
I0422 07:49:21.992033 15471 net.cpp:165] Memory required for data: 20585856
I0422 07:49:21.992039 15471 layer_factory.hpp:77] Creating layer rpn_relu1
I0422 07:49:21.992045 15471 net.cpp:106] Creating Layer rpn_relu1
I0422 07:49:21.992048 15471 net.cpp:454] rpn_relu1 <- rpn_conv1
I0422 07:49:21.992054 15471 net.cpp:397] rpn_relu1 -> rpn_conv1 (in-place)
I0422 07:49:21.992060 15471 net.cpp:150] Setting up rpn_relu1
I0422 07:49:21.992067 15471 net.cpp:157] Top shape: 1 256 15 15 (57600)
I0422 07:49:21.992071 15471 net.cpp:165] Memory required for data: 20816256
I0422 07:49:21.992076 15471 layer_factory.hpp:77] Creating layer rpn_conv1_rpn_relu1_0_split
I0422 07:49:21.992087 15471 net.cpp:106] Creating Layer rpn_conv1_rpn_relu1_0_split
I0422 07:49:21.992094 15471 net.cpp:454] rpn_conv1_rpn_relu1_0_split <- rpn_conv1
I0422 07:49:21.992101 15471 net.cpp:411] rpn_conv1_rpn_relu1_0_split -> rpn_conv1_rpn_relu1_0_split_0
I0422 07:49:21.992116 15471 net.cpp:411] rpn_conv1_rpn_relu1_0_split -> rpn_conv1_rpn_relu1_0_split_1
I0422 07:49:21.992162 15471 net.cpp:150] Setting up rpn_conv1_rpn_relu1_0_split
I0422 07:49:21.992174 15471 net.cpp:157] Top shape: 1 256 15 15 (57600)
I0422 07:49:21.992178 15471 net.cpp:157] Top shape: 1 256 15 15 (57600)
I0422 07:49:21.992180 15471 net.cpp:165] Memory required for data: 21277056
I0422 07:49:21.992183 15471 layer_factory.hpp:77] Creating layer rpn_cls_score
I0422 07:49:21.992192 15471 net.cpp:106] Creating Layer rpn_cls_score
I0422 07:49:21.992197 15471 net.cpp:454] rpn_cls_score <- rpn_conv1_rpn_relu1_0_split_0
I0422 07:49:21.992202 15471 net.cpp:411] rpn_cls_score -> rpn_cls_score
I0422 07:49:21.992396 15471 net.cpp:150] Setting up rpn_cls_score
I0422 07:49:21.992409 15471 net.cpp:157] Top shape: 1 18 15 15 (4050)
I0422 07:49:21.992411 15471 net.cpp:165] Memory required for data: 21293256
I0422 07:49:21.992418 15471 layer_factory.hpp:77] Creating layer rpn_bbox_pred
I0422 07:49:21.992424 15471 net.cpp:106] Creating Layer rpn_bbox_pred
I0422 07:49:21.992429 15471 net.cpp:454] rpn_bbox_pred <- rpn_conv1_rpn_relu1_0_split_1
I0422 07:49:21.992435 15471 net.cpp:411] rpn_bbox_pred -> rpn_bbox_pred
I0422 07:49:21.992632 15471 net.cpp:150] Setting up rpn_bbox_pred
I0422 07:49:21.992645 15471 net.cpp:157] Top shape: 1 36 15 15 (8100)
I0422 07:49:21.992647 15471 net.cpp:165] Memory required for data: 21325656
I0422 07:49:21.992653 15471 layer_factory.hpp:77] Creating layer rpn_cls_score_reshape
I0422 07:49:21.992660 15471 net.cpp:106] Creating Layer rpn_cls_score_reshape
I0422 07:49:21.992663 15471 net.cpp:454] rpn_cls_score_reshape <- rpn_cls_score
I0422 07:49:21.992671 15471 net.cpp:411] rpn_cls_score_reshape -> rpn_cls_score_reshape
I0422 07:49:21.992707 15471 net.cpp:150] Setting up rpn_cls_score_reshape
I0422 07:49:21.992720 15471 net.cpp:157] Top shape: 1 2 135 15 (4050)
I0422 07:49:21.992722 15471 net.cpp:165] Memory required for data: 21341856
I0422 07:49:21.992725 15471 layer_factory.hpp:77] Creating layer rpn_cls_prob
I0422 07:49:21.992733 15471 net.cpp:106] Creating Layer rpn_cls_prob
I0422 07:49:21.992738 15471 net.cpp:454] rpn_cls_prob <- rpn_cls_score_reshape
I0422 07:49:21.992743 15471 net.cpp:411] rpn_cls_prob -> rpn_cls_prob
I0422 07:49:21.992810 15471 net.cpp:150] Setting up rpn_cls_prob
I0422 07:49:21.992821 15471 net.cpp:157] Top shape: 1 2 135 15 (4050)
I0422 07:49:21.992825 15471 net.cpp:165] Memory required for data: 21358056
I0422 07:49:21.992827 15471 layer_factory.hpp:77] Creating layer rpn_cls_prob_reshape
I0422 07:49:21.992832 15471 net.cpp:106] Creating Layer rpn_cls_prob_reshape
I0422 07:49:21.992835 15471 net.cpp:454] rpn_cls_prob_reshape <- rpn_cls_prob
I0422 07:49:21.992842 15471 net.cpp:411] rpn_cls_prob_reshape -> rpn_cls_prob_reshape
I0422 07:49:21.992867 15471 net.cpp:150] Setting up rpn_cls_prob_reshape
I0422 07:49:21.992877 15471 net.cpp:157] Top shape: 1 18 15 15 (4050)
I0422 07:49:21.992882 15471 net.cpp:165] Memory required for data: 21374256
I0422 07:49:21.992885 15471 layer_factory.hpp:77] Creating layer proposal
I0422 07:49:21.994302 15471 net.cpp:106] Creating Layer proposal
I0422 07:49:21.994320 15471 net.cpp:454] proposal <- rpn_cls_prob_reshape
I0422 07:49:21.994343 15471 net.cpp:454] proposal <- rpn_bbox_pred
I0422 07:49:21.994352 15471 net.cpp:454] proposal <- im_info
I0422 07:49:21.994364 15471 net.cpp:411] proposal -> rois
I0422 07:49:21.994374 15471 net.cpp:411] proposal -> scores
I0422 07:49:21.995669 15471 net.cpp:150] Setting up proposal
I0422 07:49:21.995692 15471 net.cpp:157] Top shape: 1 5 (5)
I0422 07:49:21.995697 15471 net.cpp:157] Top shape: 1 1 1 1 (1)
I0422 07:49:21.995698 15471 net.cpp:165] Memory required for data: 21374280
I0422 07:49:21.995702 15471 net.cpp:228] proposal does not need backward computation.
I0422 07:49:21.995707 15471 net.cpp:228] rpn_cls_prob_reshape does not need backward computation.
I0422 07:49:21.995710 15471 net.cpp:228] rpn_cls_prob does not need backward computation.
I0422 07:49:21.995713 15471 net.cpp:228] rpn_cls_score_reshape does not need backward computation.
…
average_loss: 100
I0422 07:50:59.004546 15482 solver.cpp:81] Creating training net from train_net file: models/pascal_voc/ZF/faster_rcnn_alt_opt/stage1_fast_rcnn_train.pt
I0422 07:50:59.005378 15482 net.cpp:49] Initializing net from parameters: 
name: "ZF"
state {
  phase: TRAIN
}
layer {
  name: "data"
  type: "Python"
  top: "data"
  top: "rois"
  top: "labels"
  top: "bbox_targets"
  top: "bbox_inside_weights"
  top: "bbox_outside_weights"
  python_param {
    module: "roi_data_layer.layer"
    layer: "RoIDataLayer"
    param_str: "\'num_classes\': 44"
  }
}
layer {
  name: "conv1"
  type: "Convolution"
  bottom: "data"
  top: "conv1"
  param {
    lr_mult: 1
  }
  param {
    lr_mult: 2
  }
  convolution_param {
    num_output: 96
    pad: 3
    kernel_size: 7
    stride: 2
  }
}
layer {
  name: "relu1"
  type: "ReLU"
  bottom: "conv1"
  top: "conv1"
}
layer {
  name: "norm1"
  type: "LRN"
  bottom: "conv1"
  top: "norm1"
  lrn_param {
    local_size: 3
    alpha: 5e-05
    beta: 0.75
    norm_region: WITHIN_CHANNEL
    engine: CAFFE
  }
}
layer {
  name: "pool1"
  type: "Pooling"
  bottom: "norm1"
  top: "pool1"
  pooling_param {
    pool: MAX
    kernel_size: 3
    stride: 2
    pad: 1
  }
}
layer {
  name: "conv2"
  type: "Convolution"
  bottom: "pool1"
  top: "conv2"
  param {
    lr_mult: 1
  }
  param {
    lr_mult: 2
  }
  convolution_param {
    num_output: 256
    pad: 2
    kernel_size: 5
    stride: 2
  }
}
layer {
  name: "relu2"
  type: "ReLU"
  bottom: "conv2"
  top: "conv2"
}
layer {
  name: "norm2"
  type: "LRN"
  bottom: "conv2"
  top: "norm2"
  lrn_param {
    local_size: 3
    alpha: 5e-05
    beta: 0.75
    norm_region: WITHIN_CHANNEL
    engine: CAFFE
  }
}
layer {
  name: "pool2"
  type: "Pooling"
  bottom: "norm2"
  top: "pool2"
  pooling_param {
    pool: MAX
    kernel_size: 3
    stride: 2
    pad: 1
  }
}
layer {
  name: "conv3"
  type: "Convolution"
  bottom: "pool2"
  top: "conv3"
  param {
    lr_mult: 1
  }
  param {
    lr_mult: 2
  }
  convolution_param {
    num_output: 384
    pad: 1
    kernel_size: 3
    stride: 1
  }
}
layer {
  name: "relu3"
  type: "ReLU"
  bottom: "conv3"
  top: "conv3"
}
layer {
  name: "conv4"
  type: "Convolution"
  bottom: "conv3"
  top: "conv4"
  param {
    lr_mult: 1
  }
  param {
    lr_mult: 2
  }
  convolution_param {
    num_output: 384
    pad: 1
    kernel_size: 3
    stride: 1
  }
}
layer {
  name: "relu4"
  type: "ReLU"
  bottom: "conv4"
  top: "conv4"
}
layer {
  name: "conv5"
  type: "Convolution"
  bottom: "conv4"
  top: "conv5"
  param {
    lr_mult: 1
  }
  param {
    lr_mult: 2
  }
  convolution_param {
    num_output: 256
    pad: 1
    kernel_size: 3
    stride: 1
  }
}
layer {
  name: "relu5"
  type: "ReLU"
  bottom: "conv5"
  top: "conv5"
}
layer {
  name: "roi_pool_conv5"
  type: "ROIPooling"
  bottom: "conv5"
  bottom: "rois"
  top: "roi_pool_conv5"
  roi_pooling_param {
    pooled_h: 6
    pooled_w: 6
    spatial_scale: 0.0625
  }
}
layer {
  name: "fc6"
  type: "InnerProduct"
  bottom: "roi_pool_conv5"
  top: "fc6"
  param {
    lr_mult: 1
  }
  param {
    lr_mult: 2
  }
  inner_product_param {
    num_output: 4096
  }
}
layer {
  name: "relu6"
  type: "ReLU"
  bottom: "fc6"
  top: "fc6"
}
layer {
  name: "drop6"
  type: "Dropout"
  bottom: "fc6"
  top: "fc6"
  dropout_param {
    dropout_ratio: 0.5
    scale_train: false
  }
}
layer {
  name: "fc7"
  type: "InnerProduct"
  bottom: "fc6"
  top: "fc7"
  param {
    lr_mult: 1
  }
  param {
    lr_mult: 2
  }
  inner_product_param {
    num_output: 4096
  }
}
layer {
  name: "relu7"
  type: "ReLU"
  bottom: "fc7"
  top: "fc7"
}
layer {
  name: "drop7"
  type: "Dropout"
  bottom: "fc7"
  top: "fc7"
  dropout_param {
    dropout_ratio: 0.5
    scale_train: false
  }
}
layer {
  name: "cls_score"
  type: "InnerProduct"
  bottom: "fc7"
  top: "cls_score"
  param {
    lr_mult: 1
  }
  param {
    lr_mult: 2
  }
  inner_product_param {
    num_output: 44
    weight_filler {
      type: "gaussian"
      std: 0.01
    }
    bias_filler {
      type: "constant"
      value: 0
    }
  }
}
layer {
  name: "bbox_pred"
  type: "InnerProduct"
  bottom: "fc7"
  top: "bbox_pred"
  param {
    lr_mult: 1
  }
  param {
    lr_mult: 2
  }
  inner_product_param {
    num_output: 176
    weight_filler {
      type: "gaussian"
      std: 0.001
    }
    bias_filler {
      type: "constant"
      value: 0
    }
  }
}
layer {
  name: "loss_cls"
  type: "SoftmaxWithLoss"
  bottom: "cls_score"
  bottom: "labels"
  top: "cls_loss"
  loss_weight: 1
  propagate_down: true
  propagate_down: false
  loss_param {
    ignore_label: -1
    normalize: true
  }
}
layer {
  name: "loss_bbox"
  type: "SmoothL1Loss"
  bottom: "bbox_pred"
  bottom: "bbox_targets"
  bottom: "bbox_inside_weights"
  bottom: "bbox_outside_weights"
  top: "bbox_loss"
  loss_weight: 1
}
layer {
  name: "rpn_conv1"
  type: "Convolution"
  bottom: "conv5"
  top: "rpn_conv1"
  param {
    lr_mult: 0
    decay_mult: 0
  }
  param {
    lr_mult: 0
    decay_mult: 0
  }
  convolution_param {
    num_output: 256
    pad: 1
    kernel_size: 3
    stride: 1
    weight_filler {
      type: "gaussian"
      std: 0.01
    }
    bias_filler {
      type: "constant"
      value: 0
    }
  }
}
layer {
  name: "rpn_relu1"
  type: "ReLU"
  bottom: "rpn_conv1"
  top: "rpn_conv1"
}
layer {
  name: "rpn_cls_score"
  type: "Convolution"
  bottom: "rpn_conv1"
  top: "rpn_cls_score"
  param {
    lr_mult: 0
    decay_mult: 0
  }
  param {
    lr_mult: 0
    decay_mult: 0
  }
  convolution_param {
    num_output: 18
    pad: 0
    kernel_size: 1
    stride: 1
    weight_filler {
      type: "gaussian"
      std: 0.01
    }
    bias_filler {
      type: "constant"
      value: 0
    }
  }
}
layer {
  name: "rpn_bbox_pred"
  type: "Convolution"
  bottom: "rpn_conv1"
  top: "rpn_bbox_pred"
  param {
    lr_mult: 0
    decay_mult: 0
  }
  param {
    lr_mult: 0
    decay_mult: 0
  }
  convolution_param {
    num_output: 36
    pad: 0
    kernel_size: 1
    stride: 1
    weight_filler {
      type: "gaussian"
      std: 0.01
    }
    bias_filler {
      type: "constant"
      value: 0
    }
  }
}
layer {
  name: "silence_rpn_cls_score"
  type: "Silence"
  bottom: "rpn_cls_score"
}
layer {
  name: "silence_rpn_bbox_pred"
  type: "Silence"
  bottom: "rpn_bbox_pred"
}
I0422 07:50:59.005547 15482 layer_factory.hpp:77] Creating layer data
I0422 07:50:59.006189 15482 net.cpp:106] Creating Layer data
I0422 07:50:59.006216 15482 net.cpp:411] data -> data
I0422 07:50:59.006239 15482 net.cpp:411] data -> rois
I0422 07:50:59.006253 15482 net.cpp:411] data -> labels
I0422 07:50:59.006261 15482 net.cpp:411] data -> bbox_targets
I0422 07:50:59.006269 15482 net.cpp:411] data -> bbox_inside_weights
I0422 07:50:59.006278 15482 net.cpp:411] data -> bbox_outside_weights
RoiDataLayer: name_to_top: {'bbox_inside_weights': 4, 'labels': 2, 'rois': 1, 'bbox_targets': 3, 'bbox_outside_weights': 5, 'data': 0}
I0422 07:50:59.021867 15482 net.cpp:150] Setting up data
I0422 07:50:59.021888 15482 net.cpp:157] Top shape: 2 3 600 1000 (3600000)
I0422 07:50:59.021895 15482 net.cpp:157] Top shape: 1 5 (5)
I0422 07:50:59.021901 15482 net.cpp:157] Top shape: 1 (1)
I0422 07:50:59.021906 15482 net.cpp:157] Top shape: 1 176 (176)
I0422 07:50:59.021913 15482 net.cpp:157] Top shape: 1 176 (176)
I0422 07:50:59.021917 15482 net.cpp:157] Top shape: 1 176 (176)
I0422 07:50:59.021921 15482 net.cpp:165] Memory required for data: 14402136
I0422 07:50:59.021927 15482 layer_factory.hpp:77] Creating layer conv1
I0422 07:50:59.021947 15482 net.cpp:106] Creating Layer conv1
I0422 07:50:59.021958 15482 net.cpp:454] conv1 <- data
I0422 07:50:59.021973 15482 net.cpp:411] conv1 -> conv1
I0422 07:50:59.023326 15482 net.cpp:150] Setting up conv1
I0422 07:50:59.023347 15482 net.cpp:157] Top shape: 2 96 300 500 (28800000)
I0422 07:50:59.023352 15482 net.cpp:165] Memory required for data: 129602136
I0422 07:50:59.023377 15482 layer_factory.hpp:77] Creating layer relu1
I0422 07:50:59.023393 15482 net.cpp:106] Creating Layer relu1
I0422 07:50:59.023401 15482 net.cpp:454] relu1 <- conv1
I0422 07:50:59.023411 15482 net.cpp:397] relu1 -> conv1 (in-place)
I0422 07:50:59.023427 15482 net.cpp:150] Setting up relu1
I0422 07:50:59.023439 15482 net.cpp:157] Top shape: 2 96 300 500 (28800000)
I0422 07:50:59.023443 15482 net.cpp:165] Memory required for data: 244802136
I0422 07:50:59.023448 15482 layer_factory.hpp:77] Creating layer norm1
I0422 07:50:59.023457 15482 net.cpp:106] Creating Layer norm1
I0422 07:50:59.023465 15482 net.cpp:454] norm1 <- conv1
I0422 07:50:59.023473 15482 net.cpp:411] norm1 -> norm1
I0422 07:50:59.023586 15482 net.cpp:150] Setting up norm1
I0422 07:50:59.023600 15482 net.cpp:157] Top shape: 2 96 300 500 (28800000)
I0422 07:50:59.023604 15482 net.cpp:165] Memory required for data: 360002136
I0422 07:50:59.023608 15482 layer_factory.hpp:77] Creating layer pool1
I0422 07:50:59.023620 15482 net.cpp:106] Creating Layer pool1
I0422 07:50:59.023627 15482 net.cpp:454] pool1 <- norm1
I0422 07:50:59.023634 15482 net.cpp:411] pool1 -> pool1
I0422 07:50:59.023681 15482 net.cpp:150] Setting up pool1
I0422 07:50:59.023694 15482 net.cpp:157] Top shape: 2 96 151 251 (7276992)
I0422 07:50:59.023697 15482 net.cpp:165] Memory required for data: 389110104
I0422 07:50:59.023701 15482 layer_factory.hpp:77] Creating layer conv2
I0422 07:50:59.023711 15482 net.cpp:106] Creating Layer conv2
I0422 07:50:59.023717 15482 net.cpp:454] conv2 <- pool1
I0422 07:50:59.023725 15482 net.cpp:411] conv2 -> conv2
I0422 07:50:59.025387 15482 net.cpp:150] Setting up conv2
I0422 07:50:59.025406 15482 net.cpp:157] Top shape: 2 256 76 126 (4902912)
I0422 07:50:59.025410 15482 net.cpp:165] Memory required for data: 408721752
I0422 07:50:59.025424 15482 layer_factory.hpp:77] Creating layer relu2
I0422 07:50:59.025431 15482 net.cpp:106] Creating Layer relu2
I0422 07:50:59.025439 15482 net.cpp:454] relu2 <- conv2
I0422 07:50:59.025450 15482 net.cpp:397] relu2 -> conv2 (in-place)
I0422 07:50:59.025465 15482 net.cpp:150] Setting up relu2
I0422 07:50:59.025471 15482 net.cpp:157] Top shape: 2 256 76 126 (4902912)
I0422 07:50:59.025476 15482 net.cpp:165] Memory required for data: 428333400
I0422 07:50:59.025480 15482 layer_factory.hpp:77] Creating layer norm2
I0422 07:50:59.025487 15482 net.cpp:106] Creating Layer norm2
I0422 07:50:59.025501 15482 net.cpp:454] norm2 <- conv2
I0422 07:50:59.025508 15482 net.cpp:411] norm2 -> norm2
I0422 07:50:59.025599 15482 net.cpp:150] Setting up norm2
I0422 07:50:59.025611 15482 net.cpp:157] Top shape: 2 256 76 126 (4902912)
I0422 07:50:59.025615 15482 net.cpp:165] Memory required for data: 447945048
I0422 07:50:59.025619 15482 layer_factory.hpp:77] Creating layer pool2
I0422 07:50:59.025629 15482 net.cpp:106] Creating Layer pool2
I0422 07:50:59.025634 15482 net.cpp:454] pool2 <- norm2
I0422 07:50:59.025642 15482 net.cpp:411] pool2 -> pool2
I0422 07:50:59.025686 15482 net.cpp:150] Setting up pool2
I0422 07:50:59.025699 15482 net.cpp:157] Top shape: 2 256 39 64 (1277952)
I0422 07:50:59.025703 15482 net.cpp:165] Memory required for data: 453056856
I0422 07:50:59.025708 15482 layer_factory.hpp:77] Creating layer conv3
I0422 07:50:59.025720 15482 net.cpp:106] Creating Layer conv3
I0422 07:50:59.025730 15482 net.cpp:454] conv3 <- pool2
I0422 07:50:59.025738 15482 net.cpp:411] conv3 -> conv3
I0422 07:50:59.029037 15482 net.cpp:150] Setting up conv3
I0422 07:50:59.029057 15482 net.cpp:157] Top shape: 2 384 39 64 (1916928)
I0422 07:50:59.029062 15482 net.cpp:165] Memory required for data: 460724568
I0422 07:50:59.029074 15482 layer_factory.hpp:77] Creating layer relu3
I0422 07:50:59.029086 15482 net.cpp:106] Creating Layer relu3
I0422 07:50:59.029093 15482 net.cpp:454] relu3 <- conv3
I0422 07:50:59.029101 15482 net.cpp:397] relu3 -> conv3 (in-place)
I0422 07:50:59.029110 15482 net.cpp:150] Setting up relu3
I0422 07:50:59.029122 15482 net.cpp:157] Top shape: 2 384 39 64 (1916928)
I0422 07:50:59.029127 15482 net.cpp:165] Memory required for data: 468392280
I0422 07:50:59.029131 15482 layer_factory.hpp:77] Creating layer conv4
I0422 07:50:59.029145 15482 net.cpp:106] Creating Layer conv4
I0422 07:50:59.029151 15482 net.cpp:454] conv4 <- conv3
I0422 07:50:59.029160 15482 net.cpp:411] conv4 -> conv4
I0422 07:50:59.032472 15482 net.cpp:150] Setting up conv4
I0422 07:50:59.032492 15482 net.cpp:157] Top shape: 2 384 39 64 (1916928)
I0422 07:50:59.032497 15482 net.cpp:165] Memory required for data: 476059992
I0422 07:50:59.032506 15482 layer_factory.hpp:77] Creating layer relu4
I0422 07:50:59.032515 15482 net.cpp:106] Creating Layer relu4
I0422 07:50:59.032519 15482 net.cpp:454] relu4 <- conv4
I0422 07:50:59.032537 15482 net.cpp:397] relu4 -> conv4 (in-place)
I0422 07:50:59.032547 15482 net.cpp:150] Setting up relu4
I0422 07:50:59.032554 15482 net.cpp:157] Top shape: 2 384 39 64 (1916928)
I0422 07:50:59.032562 15482 net.cpp:165] Memory required for data: 483727704
I0422 07:50:59.032567 15482 layer_factory.hpp:77] Creating layer conv5
I0422 07:50:59.032577 15482 net.cpp:106] Creating Layer conv5
I0422 07:50:59.032583 15482 net.cpp:454] conv5 <- conv4
I0422 07:50:59.032594 15482 net.cpp:411] conv5 -> conv5
I0422 07:50:59.034880 15482 net.cpp:150] Setting up conv5
I0422 07:50:59.034898 15482 net.cpp:157] Top shape: 2 256 39 64 (1277952)
I0422 07:50:59.034904 15482 net.cpp:165] Memory required for data: 488839512
I0422 07:50:59.034924 15482 layer_factory.hpp:77] Creating layer relu5
I0422 07:50:59.034932 15482 net.cpp:106] Creating Layer relu5
I0422 07:50:59.034941 15482 net.cpp:454] relu5 <- conv5
I0422 07:50:59.034952 15482 net.cpp:397] relu5 -> conv5 (in-place)
I0422 07:50:59.034962 15482 net.cpp:150] Setting up relu5
I0422 07:50:59.034970 15482 net.cpp:157] Top shape: 2 256 39 64 (1277952)
I0422 07:50:59.034974 15482 net.cpp:165] Memory required for data: 493951320
I0422 07:50:59.034979 15482 layer_factory.hpp:77] Creating layer conv5_relu5_0_split
I0422 07:50:59.034991 15482 net.cpp:106] Creating Layer conv5_relu5_0_split
I0422 07:50:59.034996 15482 net.cpp:454] conv5_relu5_0_split <- conv5
I0422 07:50:59.035003 15482 net.cpp:411] conv5_relu5_0_split -> conv5_relu5_0_split_0
I0422 07:50:59.035012 15482 net.cpp:411] conv5_relu5_0_split -> conv5_relu5_0_split_1
I0422 07:50:59.035058 15482 net.cpp:150] Setting up conv5_relu5_0_split
I0422 07:50:59.035069 15482 net.cpp:157] Top shape: 2 256 39 64 (1277952)
I0422 07:50:59.035076 15482 net.cpp:157] Top shape: 2 256 39 64 (1277952)
I0422 07:50:59.035080 15482 net.cpp:165] Memory required for data: 504174936
I0422 07:50:59.035084 15482 layer_factory.hpp:77] Creating layer roi_pool_conv5
I0422 07:50:59.035100 15482 net.cpp:106] Creating Layer roi_pool_conv5
I0422 07:50:59.035111 15482 net.cpp:454] roi_pool_conv5 <- conv5_relu5_0_split_0
I0422 07:50:59.035117 15482 net.cpp:454] roi_pool_conv5 <- rois
I0422 07:50:59.035125 15482 net.cpp:411] roi_pool_conv5 -> roi_pool_conv5
I0422 07:50:59.035138 15482 roi_pooling_layer.cpp:30] Spatial scale: 0.0625
I0422 07:50:59.035200 15482 net.cpp:150] Setting up roi_pool_conv5
I0422 07:50:59.035213 15482 net.cpp:157] Top shape: 1 256 6 6 (9216)
I0422 07:50:59.035218 15482 net.cpp:165] Memory required for data: 504211800
I0422 07:50:59.035223 15482 layer_factory.hpp:77] Creating layer fc6
I0422 07:50:59.035236 15482 net.cpp:106] Creating Layer fc6
I0422 07:50:59.035248 15482 net.cpp:454] fc6 <- roi_pool_conv5
I0422 07:50:59.035255 15482 net.cpp:411] fc6 -> fc6
I0422 07:50:59.133466 15482 net.cpp:150] Setting up fc6
I0422 07:50:59.133507 15482 net.cpp:157] Top shape: 1 4096 (4096)
I0422 07:50:59.133513 15482 net.cpp:165] Memory required for data: 504228184
I0422 07:50:59.133527 15482 layer_factory.hpp:77] Creating layer relu6
I0422 07:50:59.133543 15482 net.cpp:106] Creating Layer relu6
I0422 07:50:59.133551 15482 net.cpp:454] relu6 <- fc6
I0422 07:50:59.133569 15482 net.cpp:397] relu6 -> fc6 (in-place)
I0422 07:50:59.133582 15482 net.cpp:150] Setting up relu6
I0422 07:50:59.133590 15482 net.cpp:157] Top shape: 1 4096 (4096)
I0422 07:50:59.133594 15482 net.cpp:165] Memory required for data: 504244568
I0422 07:50:59.133599 15482 layer_factory.hpp:77] Creating layer drop6
I0422 07:50:59.133618 15482 net.cpp:106] Creating Layer drop6
I0422 07:50:59.133625 15482 net.cpp:454] drop6 <- fc6
I0422 07:50:59.133631 15482 net.cpp:397] drop6 -> fc6 (in-place)
I0422 07:50:59.133666 15482 net.cpp:150] Setting up drop6
I0422 07:50:59.133677 15482 net.cpp:157] Top shape: 1 4096 (4096)
I0422 07:50:59.133682 15482 net.cpp:165] Memory required for data: 504260952
I0422 07:50:59.133687 15482 layer_factory.hpp:77] Creating layer fc7
I0422 07:50:59.133702 15482 net.cpp:106] Creating Layer fc7
I0422 07:50:59.133709 15482 net.cpp:454] fc7 <- fc6
I0422 07:50:59.133718 15482 net.cpp:411] fc7 -> fc7
I0422 07:50:59.177101 15482 net.cpp:150] Setting up fc7
I0422 07:50:59.177145 15482 net.cpp:157] Top shape: 1 4096 (4096)
I0422 07:50:59.177150 15482 net.cpp:165] Memory required for data: 504277336
I0422 07:50:59.177163 15482 layer_factory.hpp:77] Creating layer relu7
I0422 07:50:59.177175 15482 net.cpp:106] Creating Layer relu7
I0422 07:50:59.177181 15482 net.cpp:454] relu7 <- fc7
I0422 07:50:59.177191 15482 net.cpp:397] relu7 -> fc7 (in-place)
I0422 07:50:59.177203 15482 net.cpp:150] Setting up relu7
I0422 07:50:59.177215 15482 net.cpp:157] Top shape: 1 4096 (4096)
I0422 07:50:59.177219 15482 net.cpp:165] Memory required for data: 504293720
I0422 07:50:59.177224 15482 layer_factory.hpp:77] Creating layer drop7
I0422 07:50:59.177237 15482 net.cpp:106] Creating Layer drop7
I0422 07:50:59.177243 15482 net.cpp:454] drop7 <- fc7
I0422 07:50:59.177249 15482 net.cpp:397] drop7 -> fc7 (in-place)
I0422 07:50:59.177283 15482 net.cpp:150] Setting up drop7
I0422 07:50:59.177294 15482 net.cpp:157] Top shape: 1 4096 (4096)
I0422 07:50:59.177299 15482 net.cpp:165] Memory required for data: 504310104
I0422 07:50:59.177304 15482 layer_factory.hpp:77] Creating layer fc7_drop7_0_split
I0422 07:50:59.177312 15482 net.cpp:106] Creating Layer fc7_drop7_0_split
I0422 07:50:59.177316 15482 net.cpp:454] fc7_drop7_0_split <- fc7
I0422 07:50:59.177323 15482 net.cpp:411] fc7_drop7_0_split -> fc7_drop7_0_split_0
I0422 07:50:59.177338 15482 net.cpp:411] fc7_drop7_0_split -> fc7_drop7_0_split_1
I0422 07:50:59.177379 15482 net.cpp:150] Setting up fc7_drop7_0_split
I0422 07:50:59.177390 15482 net.cpp:157] Top shape: 1 4096 (4096)
I0422 07:50:59.177397 15482 net.cpp:157] Top shape: 1 4096 (4096)
I0422 07:50:59.177400 15482 net.cpp:165] Memory required for data: 504342872
I0422 07:50:59.177404 15482 layer_factory.hpp:77] Creating layer cls_score
I0422 07:50:59.177419 15482 net.cpp:106] Creating Layer cls_score
I0422 07:50:59.177429 15482 net.cpp:454] cls_score <- fc7_drop7_0_split_0
I0422 07:50:59.177438 15482 net.cpp:411] cls_score -> cls_score
I0422 07:50:59.183013 15482 net.cpp:150] Setting up cls_score
I0422 07:50:59.183032 15482 net.cpp:157] Top shape: 1 44 (44)
I0422 07:50:59.183037 15482 net.cpp:165] Memory required for data: 504343048
I0422 07:50:59.183046 15482 layer_factory.hpp:77] Creating layer bbox_pred
I0422 07:50:59.183058 15482 net.cpp:106] Creating Layer bbox_pred
I0422 07:50:59.183063 15482 net.cpp:454] bbox_pred <- fc7_drop7_0_split_1
I0422 07:50:59.183073 15482 net.cpp:411] bbox_pred -> bbox_pred
I0422 07:50:59.203804 15482 net.cpp:150] Setting up bbox_pred
I0422 07:50:59.203824 15482 net.cpp:157] Top shape: 1 176 (176)
I0422 07:50:59.203829 15482 net.cpp:165] Memory required for data: 504343752
I0422 07:50:59.203846 15482 layer_factory.hpp:77] Creating layer loss_cls
I0422 07:50:59.203865 15482 net.cpp:106] Creating Layer loss_cls
I0422 07:50:59.203871 15482 net.cpp:454] loss_cls <- cls_score
I0422 07:50:59.203883 15482 net.cpp:454] loss_cls <- labels
I0422 07:50:59.203891 15482 net.cpp:411] loss_cls -> cls_loss
…
I0422 07:50:59.204182 15482 net.cpp:150] Setting up loss_bbox
I0422 07:50:59.204195 15482 net.cpp:157] Top shape: (1)
I0422 07:50:59.204198 15482 net.cpp:160]     with loss weight 1
I0422 07:50:59.204205 15482 net.cpp:165] Memory required for data: 504343760
I0422 07:50:59.204210 15482 layer_factory.hpp:77] Creating layer rpn_conv1
I0422 07:50:59.204228 15482 net.cpp:106] Creating Layer rpn_conv1
I0422 07:50:59.204238 15482 net.cpp:454] rpn_conv1 <- conv5_relu5_0_split_1
I0422 07:50:59.204247 15482 net.cpp:411] rpn_conv1 -> rpn_conv1
I0422 07:50:59.222796 15482 net.cpp:150] Setting up rpn_conv1
I0422 07:50:59.222817 15482 net.cpp:157] Top shape: 2 256 39 64 (1277952)
I0422 07:50:59.222822 15482 net.cpp:165] Memory required for data: 509455568
I0422 07:50:59.222832 15482 layer_factory.hpp:77] Creating layer rpn_relu1
I0422 07:50:59.222841 15482 net.cpp:106] Creating Layer rpn_relu1
I0422 07:50:59.222847 15482 net.cpp:454] rpn_relu1 <- rpn_conv1
I0422 07:50:59.222864 15482 net.cpp:397] rpn_relu1 -> rpn_conv1 (in-place)
I0422 07:50:59.222874 15482 net.cpp:150] Setting up rpn_relu1
I0422 07:50:59.222882 15482 net.cpp:157] Top shape: 2 256 39 64 (1277952)
I0422 07:50:59.222887 15482 net.cpp:165] Memory required for data: 514567376
I0422 07:50:59.222892 15482 layer_factory.hpp:77] Creating layer rpn_conv1_rpn_relu1_0_split
I0422 07:50:59.222903 15482 net.cpp:106] Creating Layer rpn_conv1_rpn_relu1_0_split
I0422 07:50:59.222908 15482 net.cpp:454] rpn_conv1_rpn_relu1_0_split <- rpn_conv1
I0422 07:50:59.222914 15482 net.cpp:411] rpn_conv1_rpn_relu1_0_split -> rpn_conv1_rpn_relu1_0_split_0
I0422 07:50:59.222926 15482 net.cpp:411] rpn_conv1_rpn_relu1_0_split -> rpn_conv1_rpn_relu1_0_split_1
I0422 07:50:59.222971 15482 net.cpp:150] Setting up rpn_conv1_rpn_relu1_0_split
I0422 07:50:59.222985 15482 net.cpp:157] Top shape: 2 256 39 64 (1277952)
I0422 07:50:59.222990 15482 net.cpp:157] Top shape: 2 256 39 64 (1277952)
I0422 07:50:59.222995 15482 net.cpp:165] Memory required for data: 524790992
I0422 07:50:59.223000 15482 layer_factory.hpp:77] Creating layer rpn_cls_score
I0422 07:50:59.223014 15482 net.cpp:106] Creating Layer rpn_cls_score
I0422 07:50:59.223026 15482 net.cpp:454] rpn_cls_score <- rpn_conv1_rpn_relu1_0_split_0
I0422 07:50:59.223037 15482 net.cpp:411] rpn_cls_score -> rpn_cls_score
I0422 07:50:59.223372 15482 net.cpp:150] Setting up rpn_cls_score
I0422 07:50:59.223387 15482 net.cpp:157] Top shape: 2 18 39 64 (89856)
I0422 07:50:59.223392 15482 net.cpp:165] Memory required for data: 525150416
I0422 07:50:59.223399 15482 layer_factory.hpp:77] Creating layer rpn_bbox_pred
I0422 07:50:59.223420 15482 net.cpp:106] Creating Layer rpn_bbox_pred
I0422 07:50:59.223433 15482 net.cpp:454] rpn_bbox_pred <- rpn_conv1_rpn_relu1_0_split_1
I0422 07:50:59.223445 15482 net.cpp:411] rpn_bbox_pred -> rpn_bbox_pred
I0422 07:50:59.223903 15482 net.cpp:150] Setting up rpn_bbox_pred
I0422 07:50:59.223917 15482 net.cpp:157] Top shape: 2 36 39 64 (179712)
I0422 07:50:59.223922 15482 net.cpp:165] Memory required for data: 525869264
I0422 07:50:59.223930 15482 layer_factory.hpp:77] Creating layer silence_rpn_cls_score
I0422 07:50:59.223943 15482 net.cpp:106] Creating Layer silence_rpn_cls_score
I0422 07:50:59.223949 15482 net.cpp:454] silence_rpn_cls_score <- rpn_cls_score
I0422 07:50:59.223958 15482 net.cpp:150] Setting up silence_rpn_cls_score
…
           'RPN_POST_NMS_TOP_N': 2000,
           'RPN_PRE_NMS_TOP_N': 12000,
           'SCALES': [600],
           'SNAPSHOT_INFIX': '',
           'SNAPSHOT_ITERS': 10000,
           'USE_FLIPPED': True,
           'USE_PREFETCH': False},
 'USE_GPU_NMS': True}
WARNING: Logging before InitGoogleLogging() is written to STDERR
I0422 07:53:15.244791 15530 net.cpp:49] Initializing net from parameters: 
name: "ZF"
input: "data"
input: "im_info"
state {
  phase: TEST
}
input_shape {
  dim: 1
  dim: 3
  dim: 1360
  dim: 800
}
input_shape {
  dim: 1
  dim: 3
}
layer {
  name: "conv1"
  type: "Convolution"
  bottom: "data"
  top: "conv1"
  convolution_param {
    num_output: 96
    pad: 3
    kernel_size: 7
    stride: 2
  }
}
layer {
  name: "relu1"
  type: "ReLU"
  bottom: "conv1"
  top: "conv1"
}
layer {
  name: "norm1"
  type: "LRN"
  bottom: "conv1"
  top: "norm1"
  lrn_param {
    local_size: 3
    alpha: 5e-05
    beta: 0.75
    norm_region: WITHIN_CHANNEL
    engine: CAFFE
  }
}
layer {
  name: "pool1"
  type: "Pooling"
  bottom: "norm1"
  top: "pool1"
  pooling_param {
    pool: MAX
    kernel_size: 3
    stride: 2
    pad: 1
  }
}
layer {
  name: "conv2"
  type: "Convolution"
  bottom: "pool1"
  top: "conv2"
  convolution_param {
    num_output: 256
    pad: 2
    kernel_size: 5
    stride: 2
  }
}
layer {
  name: "relu2"
  type: "ReLU"
  bottom: "conv2"
  top: "conv2"
}
layer {
  name: "norm2"
  type: "LRN"
  bottom: "conv2"
  top: "norm2"
  lrn_param {
    local_size: 3
    alpha: 5e-05
    beta: 0.75
    norm_region: WITHIN_CHANNEL
    engine: CAFFE
  }
}
layer {
  name: "pool2"
  type: "Pooling"
  bottom: "norm2"
  top: "pool2"
  pooling_param {
    pool: MAX
    kernel_size: 3
    stride: 2
    pad: 1
  }
}
layer {
  name: "conv3"
  type: "Convolution"
  bottom: "pool2"
  top: "conv3"
  convolution_param {
    num_output: 384
    pad: 1
    kernel_size: 3
    stride: 1
  }
}
layer {
  name: "relu3"
  type: "ReLU"
  bottom: "conv3"
  top: "conv3"
}
layer {
  name: "conv4"
  type: "Convolution"
  bottom: "conv3"
  top: "conv4"
  convolution_param {
    num_output: 384
    pad: 1
    kernel_size: 3
    stride: 1
  }
}
layer {
  name: "relu4"
  type: "ReLU"
  bottom: "conv4"
  top: "conv4"
}
layer {
  name: "conv5"
  type: "Convolution"
  bottom: "conv4"
  top: "conv5"
  convolution_param {
    num_output: 256
    pad: 1
    kernel_size: 3
    stride: 1
  }
}
layer {
  name: "relu5"
  type: "ReLU"
  bottom: "conv5"
  top: "conv5"
}
layer {
  name: "rpn_conv1"
  type: "Convolution"
  bottom: "conv5"
  top: "rpn_conv1"
  convolution_param {
    num_output: 256
    pad: 1
    kernel_size: 3
    stride: 1
  }
}
layer {
  name: "rpn_relu1"
  type: "ReLU"
  bottom: "rpn_conv1"
  top: "rpn_conv1"
}
layer {
  name: "rpn_cls_score"
  type: "Convolution"
  bottom: "rpn_conv1"
  top: "rpn_cls_score"
  convolution_param {
    num_output: 18
    pad: 0
    kernel_size: 1
    stride: 1
  }
}
layer {
  name: "rpn_bbox_pred"
  type: "Convolution"
  bottom: "rpn_conv1"
  top: "rpn_bbox_pred"
  convolution_param {
    num_output: 36
    pad: 0
    kernel_size: 1
    stride: 1
  }
}
layer {
  name: "rpn_cls_score_reshape"
  type: "Reshape"
  bottom: "rpn_cls_score"
  top: "rpn_cls_score_reshape"
  reshape_param {
    shape {
      dim: 0
      dim: 2
      dim: -1
      dim: 0
    }
  }
}
layer {
  name: "rpn_cls_prob"
  type: "Softmax"
  bottom: "rpn_cls_score_reshape"
  top: "rpn_cls_prob"
}
layer {
  name: "rpn_cls_prob_reshape"
  type: "Reshape"
  bottom: "rpn_cls_prob"
  top: "rpn_cls_prob_reshape"
  reshape_param {
    shape {
      dim: 0
      dim: 18
      dim: -1
      dim: 0
    }
  }
}
layer {
  name: "proposal"
  type: "Python"
  bottom: "rpn_cls_prob_reshape"
  bottom: "rpn_bbox_pred"
  bottom: "im_info"
  top: "rois"
  python_param {
    module: "rpn.proposal_layer"
    layer: "ProposalLayer"
    param_str: "\'feat_stride\': 16"
  }
}
layer {
  name: "roi_pool_conv5"
  type: "ROIPooling"
  bottom: "conv5"
  bottom: "rois"
  top: "roi_pool_conv5"
  roi_pooling_param {
    pooled_h: 6
    pooled_w: 6
    spatial_scale: 0.0625
  }
}
layer {
  name: "fc6"
  type: "InnerProduct"
  bottom: "roi_pool_conv5"
  top: "fc6"
  inner_product_param {
    num_output: 4096
  }
}
layer {
  name: "relu6"
  type: "ReLU"
  bottom: "fc6"
  top: "fc6"
}
layer {
  name: "drop6"
  type: "Dropout"
  bottom: "fc6"
  top: "fc6"
  dropout_param {
    dropout_ratio: 0.5
    scale_train: false
  }
}
layer {
  name: "fc7"
  type: "InnerProduct"
  bottom: "fc6"
  top: "fc7"
  inner_product_param {
    num_output: 4096
  }
}
layer {
  name: "relu7"
  type: "ReLU"
  bottom: "fc7"
  top: "fc7"
}
layer {
  name: "drop7"
  type: "Dropout"
  bottom: "fc7"
  top: "fc7"
  dropout_param {
    dropout_ratio: 0.5
    scale_train: false
  }
}
layer {
  name: "cls_score"
  type: "InnerProduct"
  bottom: "fc7"
  top: "cls_score"
  inner_product_param {
    num_output: 44
  }
}
layer {
  name: "bbox_pred"
  type: "InnerProduct"
  bottom: "fc7"
  top: "bbox_pred"
  inner_product_param {
    num_output: 176
  }
}
layer {
  name: "cls_prob"
  type: "Softmax"
  bottom: "cls_score"
  top: "cls_prob"
  loss_param {
    ignore_label: -1
    normalize: true
  }
}
I0422 07:53:15.244951 15530 net.cpp:413] Input 0 -> data
I0422 07:53:15.260365 15530 net.cpp:413] Input 1 -> im_info
I0422 07:53:15.260416 15530 layer_factory.hpp:77] Creating layer conv1
I0422 07:53:15.260443 15530 net.cpp:106] Creating Layer conv1
I0422 07:53:15.260457 15530 net.cpp:454] conv1 <- data
I0422 07:53:15.260475 15530 net.cpp:411] conv1 -> conv1
I0422 07:53:15.261940 15530 net.cpp:150] Setting up conv1
I0422 07:53:15.261960 15530 net.cpp:157] Top shape: 1 96 680 400 (26112000)
I0422 07:53:15.261963 15530 net.cpp:165] Memory required for data: 104448000
I0422 07:53:15.261977 15530 layer_factory.hpp:77] Creating layer relu1
I0422 07:53:15.261994 15530 net.cpp:106] Creating Layer relu1
I0422 07:53:15.261999 15530 net.cpp:454] relu1 <- conv1
I0422 07:53:15.262009 15530 net.cpp:397] relu1 -> conv1 (in-place)
I0422 07:53:15.262025 15530 net.cpp:150] Setting up relu1
I0422 07:53:15.262042 15530 net.cpp:157] Top shape: 1 96 680 400 (26112000)
I0422 07:53:15.262046 15530 net.cpp:165] Memory required for data: 208896000
I0422 07:53:15.262051 15530 layer_factory.hpp:77] Creating layer norm1
I0422 07:53:15.262064 15530 net.cpp:106] Creating Layer norm1
I0422 07:53:15.262076 15530 net.cpp:454] norm1 <- conv1
I0422 07:53:15.262084 15530 net.cpp:411] norm1 -> norm1
I0422 07:53:15.262208 15530 net.cpp:150] Setting up norm1
I0422 07:53:15.262222 15530 net.cpp:157] Top shape: 1 96 680 400 (26112000)
I0422 07:53:15.262224 15530 net.cpp:165] Memory required for data: 313344000
I0422 07:53:15.262228 15530 layer_factory.hpp:77] Creating layer pool1
I0422 07:53:15.262233 15530 net.cpp:106] Creating Layer pool1
I0422 07:53:15.262238 15530 net.cpp:454] pool1 <- norm1
I0422 07:53:15.262241 15530 net.cpp:411] pool1 -> pool1
I0422 07:53:15.262282 15530 net.cpp:150] Setting up pool1
I0422 07:53:15.262300 15530 net.cpp:157] Top shape: 1 96 341 201 (6579936)
I0422 07:53:15.262303 15530 net.cpp:165] Memory required for data: 339663744
I0422 07:53:15.262306 15530 layer_factory.hpp:77] Creating layer conv2
I0422 07:53:15.262315 15530 net.cpp:106] Creating Layer conv2
I0422 07:53:15.262323 15530 net.cpp:454] conv2 <- pool1
I0422 07:53:15.262342 15530 net.cpp:411] conv2 -> conv2
I0422 07:53:15.264531 15530 net.cpp:150] Setting up conv2
I0422 07:53:15.264549 15530 net.cpp:157] Top shape: 1 256 171 101 (4421376)
I0422 07:53:15.264552 15530 net.cpp:165] Memory required for data: 357349248
I0422 07:53:15.264561 15530 layer_factory.hpp:77] Creating layer relu2
I0422 07:53:15.264570 15530 net.cpp:106] Creating Layer relu2
I0422 07:53:15.264575 15530 net.cpp:454] relu2 <- conv2
I0422 07:53:15.264581 15530 net.cpp:397] relu2 -> conv2 (in-place)
I0422 07:53:15.264592 15530 net.cpp:150] Setting up relu2
I0422 07:53:15.264600 15530 net.cpp:157] Top shape: 1 256 171 101 (4421376)
I0422 07:53:15.264611 15530 net.cpp:165] Memory required for data: 375034752
I0422 07:53:15.264616 15530 layer_factory.hpp:77] Creating layer norm2
I0422 07:53:15.264626 15530 net.cpp:106] Creating Layer norm2
I0422 07:53:15.264638 15530 net.cpp:454] norm2 <- conv2
I0422 07:53:15.264645 15530 net.cpp:411] norm2 -> norm2
I0422 07:53:15.264745 15530 net.cpp:150] Setting up norm2
I0422 07:53:15.264758 15530 net.cpp:157] Top shape: 1 256 171 101 (4421376)
I0422 07:53:15.264761 15530 net.cpp:165] Memory required for data: 392720256
I0422 07:53:15.264765 15530 layer_factory.hpp:77] Creating layer pool2
I0422 07:53:15.264768 15530 net.cpp:106] Creating Layer pool2
I0422 07:53:15.264771 15530 net.cpp:454] pool2 <- norm2
I0422 07:53:15.264777 15530 net.cpp:411] pool2 -> pool2
I0422 07:53:15.264811 15530 net.cpp:150] Setting up pool2
I0422 07:53:15.264825 15530 net.cpp:157] Top shape: 1 256 86 51 (1122816)
I0422 07:53:15.264829 15530 net.cpp:165] Memory required for data: 397211520
I0422 07:53:15.264834 15530 layer_factory.hpp:77] Creating layer conv3
I0422 07:53:15.264847 15530 net.cpp:106] Creating Layer conv3
I0422 07:53:15.264856 15530 net.cpp:454] conv3 <- pool2
I0422 07:53:15.264863 15530 net.cpp:411] conv3 -> conv3
I0422 07:53:15.267662 15530 net.cpp:150] Setting up conv3
I0422 07:53:15.267679 15530 net.cpp:157] Top shape: 1 384 86 51 (1684224)
I0422 07:53:15.267683 15530 net.cpp:165] Memory required for data: 403948416
I0422 07:53:15.267691 15530 layer_factory.hpp:77] Creating layer relu3
I0422 07:53:15.267700 15530 net.cpp:106] Creating Layer relu3
I0422 07:53:15.267704 15530 net.cpp:454] relu3 <- conv3
I0422 07:53:15.267709 15530 net.cpp:397] relu3 -> conv3 (in-place)
I0422 07:53:15.267717 15530 net.cpp:150] Setting up relu3
I0422 07:53:15.267730 15530 net.cpp:157] Top shape: 1 384 86 51 (1684224)
I0422 07:53:15.267735 15530 net.cpp:165] Memory required for data: 410685312
I0422 07:53:15.267738 15530 layer_factory.hpp:77] Creating layer conv4
I0422 07:53:15.267750 15530 net.cpp:106] Creating Layer conv4
I0422 07:53:15.267761 15530 net.cpp:454] conv4 <- conv3
I0422 07:53:15.267769 15530 net.cpp:411] conv4 -> conv4
I0422 07:53:15.271067 15530 net.cpp:150] Setting up conv4
I0422 07:53:15.271085 15530 net.cpp:157] Top shape: 1 384 86 51 (1684224)
I0422 07:53:15.271088 15530 net.cpp:165] Memory required for data: 417422208
I0422 07:53:15.271095 15530 layer_factory.hpp:77] Creating layer relu4
I0422 07:53:15.271100 15530 net.cpp:106] Creating Layer relu4
I0422 07:53:15.271106 15530 net.cpp:454] relu4 <- conv4
I0422 07:53:15.271113 15530 net.cpp:397] relu4 -> conv4 (in-place)
I0422 07:53:15.271122 15530 net.cpp:150] Setting up relu4
I0422 07:53:15.271131 15530 net.cpp:157] Top shape: 1 384 86 51 (1684224)
I0422 07:53:15.271134 15530 net.cpp:165] Memory required for data: 424159104
I0422 07:53:15.271139 15530 layer_factory.hpp:77] Creating layer conv5
I0422 07:53:15.271152 15530 net.cpp:106] Creating Layer conv5
I0422 07:53:15.271164 15530 net.cpp:454] conv5 <- conv4
I0422 07:53:15.271173 15530 net.cpp:411] conv5 -> conv5
I0422 07:53:15.273478 15530 net.cpp:150] Setting up conv5
I0422 07:53:15.273496 15530 net.cpp:157] Top shape: 1 256 86 51 (1122816)
I0422 07:53:15.273499 15530 net.cpp:165] Memory required for data: 428650368
I0422 07:53:15.273509 15530 layer_factory.hpp:77] Creating layer relu5
I0422 07:53:15.273515 15530 net.cpp:106] Creating Layer relu5
I0422 07:53:15.273519 15530 net.cpp:454] relu5 <- conv5
I0422 07:53:15.273526 15530 net.cpp:397] relu5 -> conv5 (in-place)
I0422 07:53:15.273537 15530 net.cpp:150] Setting up relu5
I0422 07:53:15.273545 15530 net.cpp:157] Top shape: 1 256 86 51 (1122816)
I0422 07:53:15.273553 15530 net.cpp:165] Memory required for data: 433141632
I0422 07:53:15.273557 15530 layer_factory.hpp:77] Creating layer conv5_relu5_0_split
I0422 07:53:15.273568 15530 net.cpp:106] Creating Layer conv5_relu5_0_split
I0422 07:53:15.273581 15530 net.cpp:454] conv5_relu5_0_split <- conv5
I0422 07:53:15.273588 15530 net.cpp:411] conv5_relu5_0_split -> conv5_relu5_0_split_0
I0422 07:53:15.273597 15530 net.cpp:411] conv5_relu5_0_split -> conv5_relu5_0_split_1
I0422 07:53:15.273651 15530 net.cpp:150] Setting up conv5_relu5_0_split
I0422 07:53:15.273665 15530 net.cpp:157] Top shape: 1 256 86 51 (1122816)
I0422 07:53:15.273670 15530 net.cpp:157] Top shape: 1 256 86 51 (1122816)
I0422 07:53:15.273672 15530 net.cpp:165] Memory required for data: 442124160
I0422 07:53:15.273675 15530 layer_factory.hpp:77] Creating layer rpn_conv1
I0422 07:53:15.273684 15530 net.cpp:106] Creating Layer rpn_conv1
I0422 07:53:15.273687 15530 net.cpp:454] rpn_conv1 <- conv5_relu5_0_split_0
I0422 07:53:15.273692 15530 net.cpp:411] rpn_conv1 -> rpn_conv1
I0422 07:53:15.275352 15530 net.cpp:150] Setting up rpn_conv1
I0422 07:53:15.275369 15530 net.cpp:157] Top shape: 1 256 86 51 (1122816)
I0422 07:53:15.275372 15530 net.cpp:165] Memory required for data: 446615424
I0422 07:53:15.275379 15530 layer_factory.hpp:77] Creating layer rpn_relu1
I0422 07:53:15.275387 15530 net.cpp:106] Creating Layer rpn_relu1
I0422 07:53:15.275389 15530 net.cpp:454] rpn_relu1 <- rpn_conv1
I0422 07:53:15.275396 15530 net.cpp:397] rpn_relu1 -> rpn_conv1 (in-place)
I0422 07:53:15.275405 15530 net.cpp:150] Setting up rpn_relu1
I0422 07:53:15.275410 15530 net.cpp:157] Top shape: 1 256 86 51 (1122816)
I0422 07:53:15.275413 15530 net.cpp:165] Memory required for data: 451106688
I0422 07:53:15.275415 15530 layer_factory.hpp:77] Creating layer rpn_conv1_rpn_relu1_0_split
I0422 07:53:15.275419 15530 net.cpp:106] Creating Layer rpn_conv1_rpn_relu1_0_split
I0422 07:53:15.275423 15530 net.cpp:454] rpn_conv1_rpn_relu1_0_split <- rpn_conv1
I0422 07:53:15.275445 15530 net.cpp:411] rpn_conv1_rpn_relu1_0_split -> rpn_conv1_rpn_relu1_0_split_0
I0422 07:53:15.275456 15530 net.cpp:411] rpn_conv1_rpn_relu1_0_split -> rpn_conv1_rpn_relu1_0_split_1
I0422 07:53:15.275506 15530 net.cpp:150] Setting up rpn_conv1_rpn_relu1_0_split
I0422 07:53:15.275518 15530 net.cpp:157] Top shape: 1 256 86 51 (1122816)
I0422 07:53:15.275522 15530 net.cpp:157] Top shape: 1 256 86 51 (1122816)
I0422 07:53:15.275526 15530 net.cpp:165] Memory required for data: 460089216
I0422 07:53:15.275527 15530 layer_factory.hpp:77] Creating layer rpn_cls_score
I0422 07:53:15.275537 15530 net.cpp:106] Creating Layer rpn_cls_score
I0422 07:53:15.275543 15530 net.cpp:454] rpn_cls_score <- rpn_conv1_rpn_relu1_0_split_0
I0422 07:53:15.275548 15530 net.cpp:411] rpn_cls_score -> rpn_cls_score
I0422 07:53:15.275765 15530 net.cpp:150] Setting up rpn_cls_score
I0422 07:53:15.275780 15530 net.cpp:157] Top shape: 1 18 86 51 (78948)
I0422 07:53:15.275784 15530 net.cpp:165] Memory required for data: 460405008
I0422 07:53:15.275789 15530 layer_factory.hpp:77] Creating layer rpn_bbox_pred
I0422 07:53:15.275795 15530 net.cpp:106] Creating Layer rpn_bbox_pred
I0422 07:53:15.275800 15530 net.cpp:454] rpn_bbox_pred <- rpn_conv1_rpn_relu1_0_split_1
I0422 07:53:15.275807 15530 net.cpp:411] rpn_bbox_pred -> rpn_bbox_pred
I0422 07:53:15.276031 15530 net.cpp:150] Setting up rpn_bbox_pred
I0422 07:53:15.276043 15530 net.cpp:157] Top shape: 1 36 86 51 (157896)
I0422 07:53:15.276046 15530 net.cpp:165] Memory required for data: 461036592
I0422 07:53:15.276051 15530 layer_factory.hpp:77] Creating layer rpn_cls_score_reshape
I0422 07:53:15.276058 15530 net.cpp:106] Creating Layer rpn_cls_score_reshape
I0422 07:53:15.276063 15530 net.cpp:454] rpn_cls_score_reshape <- rpn_cls_score
I0422 07:53:15.276073 15530 net.cpp:411] rpn_cls_score_reshape -> rpn_cls_score_reshape
I0422 07:53:15.276119 15530 net.cpp:150] Setting up rpn_cls_score_reshape
I0422 07:53:15.276139 15530 net.cpp:157] Top shape: 1 2 774 51 (78948)
I0422 07:53:15.276144 15530 net.cpp:165] Memory required for data: 461352384
I0422 07:53:15.276149 15530 layer_factory.hpp:77] Creating layer rpn_cls_prob
I0422 07:53:15.276154 15530 net.cpp:106] Creating Layer rpn_cls_prob
I0422 07:53:15.276157 15530 net.cpp:454] rpn_cls_prob <- rpn_cls_score_reshape
I0422 07:53:15.276161 15530 net.cpp:411] rpn_cls_prob -> rpn_cls_prob
I0422 07:53:15.276235 15530 net.cpp:150] Setting up rpn_cls_prob
I0422 07:53:15.276248 15530 net.cpp:157] Top shape: 1 2 774 51 (78948)
I0422 07:53:15.276252 15530 net.cpp:165] Memory required for data: 461668176
I0422 07:53:15.276254 15530 layer_factory.hpp:77] Creating layer rpn_cls_prob_reshape
I0422 07:53:15.276259 15530 net.cpp:106] Creating Layer rpn_cls_prob_reshape
I0422 07:53:15.276264 15530 net.cpp:454] rpn_cls_prob_reshape <- rpn_cls_prob
I0422 07:53:15.276269 15530 net.cpp:411] rpn_cls_prob_reshape -> rpn_cls_prob_reshape
I0422 07:53:15.276298 15530 net.cpp:150] Setting up rpn_cls_prob_reshape
I0422 07:53:15.276309 15530 net.cpp:157] Top shape: 1 18 86 51 (78948)
I0422 07:53:15.276314 15530 net.cpp:165] Memory required for data: 461983968
I0422 07:53:15.276319 15530 layer_factory.hpp:77] Creating layer proposal
I0422 07:53:15.276779 15530 net.cpp:106] Creating Layer proposal
I0422 07:53:15.276796 15530 net.cpp:454] proposal <- rpn_cls_prob_reshape
I0422 07:53:15.276801 15530 net.cpp:454] proposal <- rpn_bbox_pred
I0422 07:53:15.276805 15530 net.cpp:454] proposal <- im_info
I0422 07:53:15.276810 15530 net.cpp:411] proposal -> rois
I0422 07:53:15.277496 15530 net.cpp:150] Setting up proposal
I0422 07:53:15.277518 15530 net.cpp:157] Top shape: 1 5 (5)
I0422 07:53:15.277520 15530 net.cpp:165] Memory required for data: 461983988
I0422 07:53:15.277524 15530 layer_factory.hpp:77] Creating layer roi_pool_conv5
I0422 07:53:15.277532 15530 net.cpp:106] Creating Layer roi_pool_conv5
I0422 07:53:15.277541 15530 net.cpp:454] roi_pool_conv5 <- conv5_relu5_0_split_1
I0422 07:53:15.277549 15530 net.cpp:454] roi_pool_conv5 <- rois
I0422 07:53:15.277559 15530 net.cpp:411] roi_pool_conv5 -> roi_pool_conv5
I0422 07:53:15.277575 15530 roi_pooling_layer.cpp:30] Spatial scale: 0.0625
I0422 07:53:15.277637 15530 net.cpp:150] Setting up roi_pool_conv5
I0422 07:53:15.277652 15530 net.cpp:157] Top shape: 1 256 6 6 (9216)
I0422 07:53:15.277658 15530 net.cpp:165] Memory required for data: 462020852
I0422 07:53:15.277663 15530 layer_factory.hpp:77] Creating layer fc6
I0422 07:53:15.277674 15530 net.cpp:106] Creating Layer fc6
I0422 07:53:15.277680 15530 net.cpp:454] fc6 <- roi_pool_conv5
I0422 07:53:15.277686 15530 net.cpp:411] fc6 -> fc6
I0422 07:53:15.376672 15530 net.cpp:150] Setting up fc6
I0422 07:53:15.376708 15530 net.cpp:157] Top shape: 1 4096 (4096)
I0422 07:53:15.376713 15530 net.cpp:165] Memory required for data: 462037236
I0422 07:53:15.376734 15530 layer_factory.hpp:77] Creating layer relu6
I0422 07:53:15.376744 15530 net.cpp:106] Creating Layer relu6
I0422 07:53:15.376754 15530 net.cpp:454] relu6 <- fc6
I0422 07:53:15.376760 15530 net.cpp:397] relu6 -> fc6 (in-place)
I0422 07:53:15.376768 15530 net.cpp:150] Setting up relu6
I0422 07:53:15.376778 15530 net.cpp:157] Top shape: 1 4096 (4096)
I0422 07:53:15.376783 15530 net.cpp:165] Memory required for data: 462053620
I0422 07:53:15.376788 15530 layer_factory.hpp:77] Creating layer drop6
I0422 07:53:15.376802 15530 net.cpp:106] Creating Layer drop6
I0422 07:53:15.376813 15530 net.cpp:454] drop6 <- fc6
I0422 07:53:15.376822 15530 net.cpp:397] drop6 -> fc6 (in-place)
I0422 07:53:15.376858 15530 net.cpp:150] Setting up drop6
I0422 07:53:15.376878 15530 net.cpp:157] Top shape: 1 4096 (4096)
I0422 07:53:15.376881 15530 net.cpp:165] Memory required for data: 462070004
I0422 07:53:15.376884 15530 layer_factory.hpp:77] Creating layer fc7
I0422 07:53:15.376891 15530 net.cpp:106] Creating Layer fc7
I0422 07:53:15.376895 15530 net.cpp:454] fc7 <- fc6
I0422 07:53:15.376899 15530 net.cpp:411] fc7 -> fc7
I0422 07:53:15.420436 15530 net.cpp:150] Setting up fc7
I0422 07:53:15.420478 15530 net.cpp:157] Top shape: 1 4096 (4096)
I0422 07:53:15.420481 15530 net.cpp:165] Memory required for data: 462086388
I0422 07:53:15.420493 15530 layer_factory.hpp:77] Creating layer relu7
I0422 07:53:15.420503 15530 net.cpp:106] Creating Layer relu7
I0422 07:53:15.420513 15530 net.cpp:454] relu7 <- fc7
I0422 07:53:15.420521 15530 net.cpp:397] relu7 -> fc7 (in-place)
I0422 07:53:15.420532 15530 net.cpp:150] Setting up relu7
I0422 07:53:15.420536 15530 net.cpp:157] Top shape: 1 4096 (4096)
I0422 07:53:15.420538 15530 net.cpp:165] Memory required for data: 462102772
I0422 07:53:15.420542 15530 layer_factory.hpp:77] Creating layer drop7
I0422 07:53:15.420549 15530 net.cpp:106] Creating Layer drop7
I0422 07:53:15.420553 15530 net.cpp:454] drop7 <- fc7
I0422 07:53:15.420559 15530 net.cpp:397] drop7 -> fc7 (in-place)
I0422 07:53:15.420590 15530 net.cpp:150] Setting up drop7
I0422 07:53:15.420606 15530 net.cpp:157] Top shape: 1 4096 (4096)
I0422 07:53:15.420610 15530 net.cpp:165] Memory required for data: 462119156
I0422 07:53:15.420614 15530 layer_factory.hpp:77] Creating layer fc7_drop7_0_split
I0422 07:53:15.420621 15530 net.cpp:106] Creating Layer fc7_drop7_0_split
I0422 07:53:15.420625 15530 net.cpp:454] fc7_drop7_0_split <- fc7
I0422 07:53:15.420632 15530 net.cpp:411] fc7_drop7_0_split -> fc7_drop7_0_split_0
I0422 07:53:15.420644 15530 net.cpp:411] fc7_drop7_0_split -> fc7_drop7_0_split_1
I0422 07:53:15.420694 15530 net.cpp:150] Setting up fc7_drop7_0_split
I0422 07:53:15.420708 15530 net.cpp:157] Top shape: 1 4096 (4096)
I0422 07:53:15.420712 15530 net.cpp:157] Top shape: 1 4096 (4096)
I0422 07:53:15.420714 15530 net.cpp:165] Memory required for data: 462151924
I0422 07:53:15.420717 15530 layer_factory.hpp:77] Creating layer cls_score
I0422 07:53:15.420729 15530 net.cpp:106] Creating Layer cls_score
I0422 07:53:15.420737 15530 net.cpp:454] cls_score <- fc7_drop7_0_split_0
I0422 07:53:15.420748 15530 net.cpp:411] cls_score -> cls_score
I0422 07:53:15.421591 15530 net.cpp:150] Setting up cls_score
I0422 07:53:15.421609 15530 net.cpp:157] Top shape: 1 44 (44)
I0422 07:53:15.421612 15530 net.cpp:165] Memory required for data: 462152100
I0422 07:53:15.421619 15530 layer_factory.hpp:77] Creating layer bbox_pred
I0422 07:53:15.421629 15530 net.cpp:106] Creating Layer bbox_pred
I0422 07:53:15.421633 15530 net.cpp:454] bbox_pred <- fc7_drop7_0_split_1
I0422 07:53:15.421638 15530 net.cpp:411] bbox_pred -> bbox_pred
I0422 07:53:15.423465 15530 net.cpp:150] Setting up bbox_pred
I0422 07:53:15.423481 15530 net.cpp:157] Top shape: 1 176 (176)
I0422 07:53:15.423485 15530 net.cpp:165] Memory required for data: 462152804
I0422 07:53:15.423491 15530 layer_factory.hpp:77] Creating layer cls_prob
I0422 07:53:15.423497 15530 net.cpp:106] Creating Layer cls_prob
I0422 07:53:15.423502 15530 net.cpp:454] cls_prob <- cls_score
I0422 07:53:15.423507 15530 net.cpp:411] cls_prob -> cls_prob
I0422 07:53:15.423580 15530 net.cpp:150] Setting up cls_prob
I0422 07:53:15.423593 15530 net.cpp:157] Top shape: 1 44 (44)
I0422 07:53:15.423596 15530 net.cpp:165] Memory required for data: 462152980
I0422 07:53:15.423599 15530 net.cpp:228] cls_prob does not need backward computation.
I0422 07:53:15.423602 15530 net.cpp:228] bbox_pred does not need backward computation.
I0422 07:53:15.423604 15530 net.cpp:228] cls_score does not need backward computation.
I0422 07:53:15.423607 15530 net.cpp:228] fc7_drop7_0_split does not need backward computation.
…
