…
weight_decay: 0.0005
stepsize: 60000
snapshot: 0
snapshot_prefix: "zf_rpn"
average_loss: 100
I0419 17:31:30.361399  5759 solver.cpp:81] Creating training net from train_net file: models/pascal_voc/ZF/faster_rcnn_alt_opt/stage1_rpn_train.pt
I0419 17:31:30.362176  5759 net.cpp:49] Initializing net from parameters: 
name: "ZF"
state {
  phase: TRAIN
}
layer {
  name: "input-data"
  type: "Python"
  top: "data"
  top: "im_info"
  top: "gt_boxes"
  python_param {
    module: "roi_data_layer.layer"
    layer: "RoIDataLayer"
    param_str: "\'num_classes\': 44"
  }
}
layer {
  name: "conv1"
  type: "Convolution"
  bottom: "data"
  top: "conv1"
  param {
    lr_mult: 1
  }
  param {
    lr_mult: 2
  }
  convolution_param {
    num_output: 96
    pad: 3
    kernel_size: 7
    stride: 2
  }
}
layer {
  name: "relu1"
  type: "ReLU"
  bottom: "conv1"
  top: "conv1"
}
layer {
  name: "norm1"
  type: "LRN"
  bottom: "conv1"
  top: "norm1"
  lrn_param {
    local_size: 3
    alpha: 5e-05
    beta: 0.75
    norm_region: WITHIN_CHANNEL
    engine: CAFFE
  }
}
layer {
  name: "pool1"
  type: "Pooling"
  bottom: "norm1"
  top: "pool1"
  pooling_param {
    pool: MAX
    kernel_size: 3
    stride: 2
    pad: 1
  }
}
layer {
  name: "conv2"
  type: "Convolution"
  bottom: "pool1"
  top: "conv2"
  param {
    lr_mult: 1
  }
  param {
    lr_mult: 2
  }
  convolution_param {
    num_output: 256
    pad: 2
    kernel_size: 5
    stride: 2
  }
}
layer {
  name: "relu2"
  type: "ReLU"
  bottom: "conv2"
  top: "conv2"
}
layer {
  name: "norm2"
  type: "LRN"
  bottom: "conv2"
  top: "norm2"
  lrn_param {
    local_size: 3
    alpha: 5e-05
    beta: 0.75
    norm_region: WITHIN_CHANNEL
    engine: CAFFE
  }
}
layer {
  name: "pool2"
  type: "Pooling"
  bottom: "norm2"
  top: "pool2"
  pooling_param {
    pool: MAX
    kernel_size: 3
    stride: 2
    pad: 1
  }
}
layer {
  name: "conv3"
  type: "Convolution"
  bottom: "pool2"
  top: "conv3"
  param {
    lr_mult: 1
  }
  param {
    lr_mult: 2
  }
  convolution_param {
    num_output: 384
    pad: 1
    kernel_size: 3
    stride: 1
  }
}
layer {
  name: "relu3"
  type: "ReLU"
  bottom: "conv3"
  top: "conv3"
}
layer {
  name: "conv4"
  type: "Convolution"
  bottom: "conv3"
  top: "conv4"
  param {
    lr_mult: 1
  }
  param {
    lr_mult: 2
  }
  convolution_param {
    num_output: 384
    pad: 1
    kernel_size: 3
    stride: 1
  }
}
layer {
  name: "relu4"
  type: "ReLU"
  bottom: "conv4"
  top: "conv4"
}
layer {
  name: "conv5"
  type: "Convolution"
  bottom: "conv4"
  top: "conv5"
  param {
    lr_mult: 1
  }
  param {
    lr_mult: 2
  }
  convolution_param {
    num_output: 256
    pad: 1
    kernel_size: 3
    stride: 1
  }
}
layer {
  name: "relu5"
  type: "ReLU"
  bottom: "conv5"
  top: "conv5"
}
layer {
  name: "rpn_conv1"
  type: "Convolution"
  bottom: "conv5"
  top: "rpn_conv1"
  param {
    lr_mult: 1
  }
  param {
    lr_mult: 2
  }
  convolution_param {
    num_output: 256
    pad: 1
    kernel_size: 3
    stride: 1
    weight_filler {
      type: "gaussian"
      std: 0.01
    }
    bias_filler {
      type: "constant"
      value: 0
    }
  }
}
layer {
  name: "rpn_relu1"
  type: "ReLU"
  bottom: "rpn_conv1"
  top: "rpn_conv1"
}
layer {
  name: "rpn_cls_score"
  type: "Convolution"
  bottom: "rpn_conv1"
  top: "rpn_cls_score"
  param {
    lr_mult: 1
  }
  param {
    lr_mult: 2
  }
  convolution_param {
    num_output: 18
    pad: 0
    kernel_size: 1
    stride: 1
    weight_filler {
      type: "gaussian"
      std: 0.01
    }
    bias_filler {
      type: "constant"
      value: 0
    }
  }
}
layer {
  name: "rpn_bbox_pred"
  type: "Convolution"
  bottom: "rpn_conv1"
  top: "rpn_bbox_pred"
  param {
    lr_mult: 1
  }
  param {
    lr_mult: 2
  }
  convolution_param {
    num_output: 36
    pad: 0
    kernel_size: 1
    stride: 1
    weight_filler {
      type: "gaussian"
      std: 0.01
    }
    bias_filler {
      type: "constant"
      value: 0
    }
  }
}
layer {
  name: "rpn_cls_score_reshape"
  type: "Reshape"
  bottom: "rpn_cls_score"
  top: "rpn_cls_score_reshape"
  reshape_param {
    shape {
      dim: 0
      dim: 2
      dim: -1
      dim: 0
    }
  }
}
layer {
  name: "rpn-data"
  type: "Python"
  bottom: "rpn_cls_score"
  bottom: "gt_boxes"
  bottom: "im_info"
  bottom: "data"
  top: "rpn_labels"
  top: "rpn_bbox_targets"
  top: "rpn_bbox_inside_weights"
  top: "rpn_bbox_outside_weights"
  python_param {
    module: "rpn.anchor_target_layer"
    layer: "AnchorTargetLayer"
    param_str: "\'feat_stride\': 16"
  }
}
layer {
  name: "rpn_loss_cls"
  type: "SoftmaxWithLoss"
  bottom: "rpn_cls_score_reshape"
  bottom: "rpn_labels"
  top: "rpn_cls_loss"
  loss_weight: 1
  propagate_down: true
  propagate_down: false
  loss_param {
    ignore_label: -1
    normalize: true
  }
}
layer {
  name: "rpn_loss_bbox"
  type: "SmoothL1Loss"
  bottom: "rpn_bbox_pred"
  bottom: "rpn_bbox_targets"
  bottom: "rpn_bbox_inside_weights"
  bottom: "rpn_bbox_outside_weights"
  top: "rpn_loss_bbox"
  loss_weight: 1
  smooth_l1_loss_param {
    sigma: 3
  }
}
layer {
  name: "dummy_roi_pool_conv5"
  type: "DummyData"
  top: "dummy_roi_pool_conv5"
  dummy_data_param {
    data_filler {
      type: "gaussian"
      std: 0.01
    }
    shape {
      dim: 1
      dim: 9216
    }
  }
}
layer {
  name: "fc6"
  type: "InnerProduct"
  bottom: "dummy_roi_pool_conv5"
  top: "fc6"
  param {
    lr_mult: 0
    decay_mult: 0
  }
  param {
    lr_mult: 0
    decay_mult: 0
  }
  inner_product_param {
    num_output: 4096
  }
}
layer {
  name: "relu6"
  type: "ReLU"
  bottom: "fc6"
  top: "fc6"
}
layer {
  name: "fc7"
  type: "InnerProduct"
  bottom: "fc6"
  top: "fc7"
  param {
    lr_mult: 0
    decay_mult: 0
  }
  param {
    lr_mult: 0
    decay_mult: 0
  }
  inner_product_param {
    num_output: 4096
  }
}
layer {
  name: "silence_fc7"
  type: "Silence"
  bottom: "fc7"
}
I0419 17:31:30.362367  5759 layer_factory.hpp:77] Creating layer input-data
I0419 17:31:30.363049  5759 net.cpp:106] Creating Layer input-data
I0419 17:31:30.363072  5759 net.cpp:411] input-data -> data
I0419 17:31:30.363093  5759 net.cpp:411] input-data -> im_info
I0419 17:31:30.363108  5759 net.cpp:411] input-data -> gt_boxes
RoiDataLayer: name_to_top: {'gt_boxes': 2, 'data': 0, 'im_info': 1}
I0419 17:31:30.485162  5759 net.cpp:150] Setting up input-data
I0419 17:31:30.485186  5759 net.cpp:157] Top shape: 1 3 600 1000 (1800000)
I0419 17:31:30.485196  5759 net.cpp:157] Top shape: 1 3 (3)
I0419 17:31:30.485203  5759 net.cpp:157] Top shape: 1 4 (4)
I0419 17:31:30.485209  5759 net.cpp:165] Memory required for data: 7200028
I0419 17:31:30.485216  5759 layer_factory.hpp:77] Creating layer data_input-data_0_split
I0419 17:31:30.485232  5759 net.cpp:106] Creating Layer data_input-data_0_split
I0419 17:31:30.485242  5759 net.cpp:454] data_input-data_0_split <- data
I0419 17:31:30.485255  5759 net.cpp:411] data_input-data_0_split -> data_input-data_0_split_0
I0419 17:31:30.485270  5759 net.cpp:411] data_input-data_0_split -> data_input-data_0_split_1
I0419 17:31:30.485312  5759 net.cpp:150] Setting up data_input-data_0_split
I0419 17:31:30.485324  5759 net.cpp:157] Top shape: 1 3 600 1000 (1800000)
I0419 17:31:30.485332  5759 net.cpp:157] Top shape: 1 3 600 1000 (1800000)
I0419 17:31:30.485337  5759 net.cpp:165] Memory required for data: 21600028
I0419 17:31:30.485342  5759 layer_factory.hpp:77] Creating layer conv1
I0419 17:31:30.485360  5759 net.cpp:106] Creating Layer conv1
I0419 17:31:30.485368  5759 net.cpp:454] conv1 <- data_input-data_0_split_0
I0419 17:31:30.485376  5759 net.cpp:411] conv1 -> conv1
I0419 17:31:30.486738  5759 net.cpp:150] Setting up conv1
I0419 17:31:30.486758  5759 net.cpp:157] Top shape: 1 96 300 500 (14400000)
I0419 17:31:30.486763  5759 net.cpp:165] Memory required for data: 79200028
I0419 17:31:30.486781  5759 layer_factory.hpp:77] Creating layer relu1
I0419 17:31:30.486802  5759 net.cpp:106] Creating Layer relu1
I0419 17:31:30.486809  5759 net.cpp:454] relu1 <- conv1
I0419 17:31:30.486816  5759 net.cpp:397] relu1 -> conv1 (in-place)
I0419 17:31:30.486829  5759 net.cpp:150] Setting up relu1
I0419 17:31:30.486837  5759 net.cpp:157] Top shape: 1 96 300 500 (14400000)
I0419 17:31:30.486842  5759 net.cpp:165] Memory required for data: 136800028
I0419 17:31:30.486847  5759 layer_factory.hpp:77] Creating layer norm1
I0419 17:31:30.486860  5759 net.cpp:106] Creating Layer norm1
I0419 17:31:30.486870  5759 net.cpp:454] norm1 <- conv1
I0419 17:31:30.486877  5759 net.cpp:411] norm1 -> norm1
I0419 17:31:30.486992  5759 net.cpp:150] Setting up norm1
I0419 17:31:30.487005  5759 net.cpp:157] Top shape: 1 96 300 500 (14400000)
I0419 17:31:30.487010  5759 net.cpp:165] Memory required for data: 194400028
I0419 17:31:30.487015  5759 layer_factory.hpp:77] Creating layer pool1
I0419 17:31:30.487021  5759 net.cpp:106] Creating Layer pool1
I0419 17:31:30.487027  5759 net.cpp:454] pool1 <- norm1
I0419 17:31:30.487037  5759 net.cpp:411] pool1 -> pool1
I0419 17:31:30.487082  5759 net.cpp:150] Setting up pool1
I0419 17:31:30.487093  5759 net.cpp:157] Top shape: 1 96 151 251 (3638496)
I0419 17:31:30.487098  5759 net.cpp:165] Memory required for data: 208954012
I0419 17:31:30.487102  5759 layer_factory.hpp:77] Creating layer conv2
I0419 17:31:30.487115  5759 net.cpp:106] Creating Layer conv2
I0419 17:31:30.487124  5759 net.cpp:454] conv2 <- pool1
I0419 17:31:30.487133  5759 net.cpp:411] conv2 -> conv2
I0419 17:31:30.488806  5759 net.cpp:150] Setting up conv2
I0419 17:31:30.488823  5759 net.cpp:157] Top shape: 1 256 76 126 (2451456)
I0419 17:31:30.488828  5759 net.cpp:165] Memory required for data: 218759836
I0419 17:31:30.488840  5759 layer_factory.hpp:77] Creating layer relu2
I0419 17:31:30.488850  5759 net.cpp:106] Creating Layer relu2
I0419 17:31:30.488857  5759 net.cpp:454] relu2 <- conv2
I0419 17:31:30.488865  5759 net.cpp:397] relu2 -> conv2 (in-place)
I0419 17:31:30.488879  5759 net.cpp:150] Setting up relu2
I0419 17:31:30.488886  5759 net.cpp:157] Top shape: 1 256 76 126 (2451456)
I0419 17:31:30.488891  5759 net.cpp:165] Memory required for data: 228565660
I0419 17:31:30.488895  5759 layer_factory.hpp:77] Creating layer norm2
I0419 17:31:30.488910  5759 net.cpp:106] Creating Layer norm2
I0419 17:31:30.488919  5759 net.cpp:454] norm2 <- conv2
I0419 17:31:30.488929  5759 net.cpp:411] norm2 -> norm2
I0419 17:31:30.489020  5759 net.cpp:150] Setting up norm2
I0419 17:31:30.489032  5759 net.cpp:157] Top shape: 1 256 76 126 (2451456)
I0419 17:31:30.489037  5759 net.cpp:165] Memory required for data: 238371484
I0419 17:31:30.489042  5759 layer_factory.hpp:77] Creating layer pool2
I0419 17:31:30.489051  5759 net.cpp:106] Creating Layer pool2
I0419 17:31:30.489060  5759 net.cpp:454] pool2 <- norm2
I0419 17:31:30.489068  5759 net.cpp:411] pool2 -> pool2
I0419 17:31:30.489104  5759 net.cpp:150] Setting up pool2
I0419 17:31:30.489115  5759 net.cpp:157] Top shape: 1 256 39 64 (638976)
I0419 17:31:30.489120  5759 net.cpp:165] Memory required for data: 240927388
I0419 17:31:30.489123  5759 layer_factory.hpp:77] Creating layer conv3
I0419 17:31:30.489136  5759 net.cpp:106] Creating Layer conv3
I0419 17:31:30.489145  5759 net.cpp:454] conv3 <- pool2
I0419 17:31:30.489152  5759 net.cpp:411] conv3 -> conv3
I0419 17:31:30.492462  5759 net.cpp:150] Setting up conv3
I0419 17:31:30.492481  5759 net.cpp:157] Top shape: 1 384 39 64 (958464)
I0419 17:31:30.492486  5759 net.cpp:165] Memory required for data: 244761244
I0419 17:31:30.492501  5759 layer_factory.hpp:77] Creating layer relu3
I0419 17:31:30.492511  5759 net.cpp:106] Creating Layer relu3
I0419 17:31:30.492516  5759 net.cpp:454] relu3 <- conv3
I0419 17:31:30.492527  5759 net.cpp:397] relu3 -> conv3 (in-place)
I0419 17:31:30.492537  5759 net.cpp:150] Setting up relu3
I0419 17:31:30.492545  5759 net.cpp:157] Top shape: 1 384 39 64 (958464)
I0419 17:31:30.492549  5759 net.cpp:165] Memory required for data: 248595100
I0419 17:31:30.492554  5759 layer_factory.hpp:77] Creating layer conv4
I0419 17:31:30.492564  5759 net.cpp:106] Creating Layer conv4
I0419 17:31:30.492570  5759 net.cpp:454] conv4 <- conv3
I0419 17:31:30.492583  5759 net.cpp:411] conv4 -> conv4
I0419 17:31:30.495877  5759 net.cpp:150] Setting up conv4
I0419 17:31:30.495895  5759 net.cpp:157] Top shape: 1 384 39 64 (958464)
I0419 17:31:30.495900  5759 net.cpp:165] Memory required for data: 252428956
I0419 17:31:30.495909  5759 layer_factory.hpp:77] Creating layer relu4
I0419 17:31:30.495920  5759 net.cpp:106] Creating Layer relu4
I0419 17:31:30.495926  5759 net.cpp:454] relu4 <- conv4
I0419 17:31:30.495934  5759 net.cpp:397] relu4 -> conv4 (in-place)
I0419 17:31:30.495944  5759 net.cpp:150] Setting up relu4
I0419 17:31:30.495950  5759 net.cpp:157] Top shape: 1 384 39 64 (958464)
I0419 17:31:30.495957  5759 net.cpp:165] Memory required for data: 256262812
I0419 17:31:30.495961  5759 layer_factory.hpp:77] Creating layer conv5
I0419 17:31:30.495975  5759 net.cpp:106] Creating Layer conv5
I0419 17:31:30.495985  5759 net.cpp:454] conv5 <- conv4
I0419 17:31:30.495991  5759 net.cpp:411] conv5 -> conv5
I0419 17:31:30.498265  5759 net.cpp:150] Setting up conv5
I0419 17:31:30.498283  5759 net.cpp:157] Top shape: 1 256 39 64 (638976)
I0419 17:31:30.498289  5759 net.cpp:165] Memory required for data: 258818716
I0419 17:31:30.498301  5759 layer_factory.hpp:77] Creating layer relu5
I0419 17:31:30.498317  5759 net.cpp:106] Creating Layer relu5
I0419 17:31:30.498389  5759 net.cpp:454] relu5 <- conv5
I0419 17:31:30.498404  5759 net.cpp:397] relu5 -> conv5 (in-place)
I0419 17:31:30.498412  5759 net.cpp:150] Setting up relu5
I0419 17:31:30.498421  5759 net.cpp:157] Top shape: 1 256 39 64 (638976)
I0419 17:31:30.498427  5759 net.cpp:165] Memory required for data: 261374620
I0419 17:31:30.498431  5759 layer_factory.hpp:77] Creating layer rpn_conv1
I0419 17:31:30.498453  5759 net.cpp:106] Creating Layer rpn_conv1
I0419 17:31:30.498462  5759 net.cpp:454] rpn_conv1 <- conv5
I0419 17:31:30.498473  5759 net.cpp:411] rpn_conv1 -> rpn_conv1
I0419 17:31:30.515483  5759 net.cpp:150] Setting up rpn_conv1
I0419 17:31:30.515501  5759 net.cpp:157] Top shape: 1 256 39 64 (638976)
I0419 17:31:30.515506  5759 net.cpp:165] Memory required for data: 263930524
I0419 17:31:30.515516  5759 layer_factory.hpp:77] Creating layer rpn_relu1
I0419 17:31:30.515523  5759 net.cpp:106] Creating Layer rpn_relu1
I0419 17:31:30.515532  5759 net.cpp:454] rpn_relu1 <- rpn_conv1
I0419 17:31:30.515542  5759 net.cpp:397] rpn_relu1 -> rpn_conv1 (in-place)
I0419 17:31:30.515553  5759 net.cpp:150] Setting up rpn_relu1
I0419 17:31:30.515560  5759 net.cpp:157] Top shape: 1 256 39 64 (638976)
I0419 17:31:30.515565  5759 net.cpp:165] Memory required for data: 266486428
I0419 17:31:30.515570  5759 layer_factory.hpp:77] Creating layer rpn_conv1_rpn_relu1_0_split
I0419 17:31:30.515579  5759 net.cpp:106] Creating Layer rpn_conv1_rpn_relu1_0_split
I0419 17:31:30.515583  5759 net.cpp:454] rpn_conv1_rpn_relu1_0_split <- rpn_conv1
I0419 17:31:30.515595  5759 net.cpp:411] rpn_conv1_rpn_relu1_0_split -> rpn_conv1_rpn_relu1_0_split_0
I0419 17:31:30.515606  5759 net.cpp:411] rpn_conv1_rpn_relu1_0_split -> rpn_conv1_rpn_relu1_0_split_1
I0419 17:31:30.515650  5759 net.cpp:150] Setting up rpn_conv1_rpn_relu1_0_split
I0419 17:31:30.515663  5759 net.cpp:157] Top shape: 1 256 39 64 (638976)
I0419 17:31:30.515671  5759 net.cpp:157] Top shape: 1 256 39 64 (638976)
I0419 17:31:30.515676  5759 net.cpp:165] Memory required for data: 271598236
I0419 17:31:30.515681  5759 layer_factory.hpp:77] Creating layer rpn_cls_score
I0419 17:31:30.515694  5759 net.cpp:106] Creating Layer rpn_cls_score
I0419 17:31:30.515703  5759 net.cpp:454] rpn_cls_score <- rpn_conv1_rpn_relu1_0_split_0
I0419 17:31:30.515715  5759 net.cpp:411] rpn_cls_score -> rpn_cls_score
I0419 17:31:30.516039  5759 net.cpp:150] Setting up rpn_cls_score
I0419 17:31:30.516052  5759 net.cpp:157] Top shape: 1 18 39 64 (44928)
I0419 17:31:30.516057  5759 net.cpp:165] Memory required for data: 271777948
I0419 17:31:30.516067  5759 layer_factory.hpp:77] Creating layer rpn_cls_score_rpn_cls_score_0_split
I0419 17:31:30.516075  5759 net.cpp:106] Creating Layer rpn_cls_score_rpn_cls_score_0_split
I0419 17:31:30.516082  5759 net.cpp:454] rpn_cls_score_rpn_cls_score_0_split <- rpn_cls_score
I0419 17:31:30.516093  5759 net.cpp:411] rpn_cls_score_rpn_cls_score_0_split -> rpn_cls_score_rpn_cls_score_0_split_0
I0419 17:31:30.516101  5759 net.cpp:411] rpn_cls_score_rpn_cls_score_0_split -> rpn_cls_score_rpn_cls_score_0_split_1
I0419 17:31:30.516142  5759 net.cpp:150] Setting up rpn_cls_score_rpn_cls_score_0_split
I0419 17:31:30.516154  5759 net.cpp:157] Top shape: 1 18 39 64 (44928)
I0419 17:31:30.516160  5759 net.cpp:157] Top shape: 1 18 39 64 (44928)
I0419 17:31:30.516163  5759 net.cpp:165] Memory required for data: 272137372
I0419 17:31:30.516168  5759 layer_factory.hpp:77] Creating layer rpn_bbox_pred
I0419 17:31:30.516182  5759 net.cpp:106] Creating Layer rpn_bbox_pred
I0419 17:31:30.516192  5759 net.cpp:454] rpn_bbox_pred <- rpn_conv1_rpn_relu1_0_split_1
I0419 17:31:30.516201  5759 net.cpp:411] rpn_bbox_pred -> rpn_bbox_pred
I0419 17:31:30.516644  5759 net.cpp:150] Setting up rpn_bbox_pred
I0419 17:31:30.516660  5759 net.cpp:157] Top shape: 1 36 39 64 (89856)
I0419 17:31:30.516665  5759 net.cpp:165] Memory required for data: 272496796
I0419 17:31:30.516674  5759 layer_factory.hpp:77] Creating layer rpn_cls_score_reshape
I0419 17:31:30.516685  5759 net.cpp:106] Creating Layer rpn_cls_score_reshape
I0419 17:31:30.516695  5759 net.cpp:454] rpn_cls_score_reshape <- rpn_cls_score_rpn_cls_score_0_split_0
I0419 17:31:30.516703  5759 net.cpp:411] rpn_cls_score_reshape -> rpn_cls_score_reshape
I0419 17:31:30.516739  5759 net.cpp:150] Setting up rpn_cls_score_reshape
I0419 17:31:30.516752  5759 net.cpp:157] Top shape: 1 2 351 64 (44928)
I0419 17:31:30.516755  5759 net.cpp:165] Memory required for data: 272676508
I0419 17:31:30.516760  5759 layer_factory.hpp:77] Creating layer rpn-data
I0419 17:31:30.517333  5759 net.cpp:106] Creating Layer rpn-data
I0419 17:31:30.517352  5759 net.cpp:454] rpn-data <- rpn_cls_score_rpn_cls_score_0_split_1
I0419 17:31:30.517360  5759 net.cpp:454] rpn-data <- gt_boxes
I0419 17:31:30.517366  5759 net.cpp:454] rpn-data <- im_info
I0419 17:31:30.517371  5759 net.cpp:454] rpn-data <- data_input-data_0_split_1
I0419 17:31:30.517381  5759 net.cpp:411] rpn-data -> rpn_labels
I0419 17:31:30.517393  5759 net.cpp:411] rpn-data -> rpn_bbox_targets
I0419 17:31:30.517407  5759 net.cpp:411] rpn-data -> rpn_bbox_inside_weights
I0419 17:31:30.517417  5759 net.cpp:411] rpn-data -> rpn_bbox_outside_weights
I0419 17:31:30.518697  5759 net.cpp:150] Setting up rpn-data
I0419 17:31:30.518718  5759 net.cpp:157] Top shape: 1 1 351 64 (22464)
I0419 17:31:30.518726  5759 net.cpp:157] Top shape: 1 36 39 64 (89856)
I0419 17:31:30.518731  5759 net.cpp:157] Top shape: 1 36 39 64 (89856)
I0419 17:31:30.518738  5759 net.cpp:157] Top shape: 1 36 39 64 (89856)
I0419 17:31:30.518744  5759 net.cpp:165] Memory required for data: 273844636
I0419 17:31:30.518750  5759 layer_factory.hpp:77] Creating layer rpn_loss_cls
I0419 17:31:30.518764  5759 net.cpp:106] Creating Layer rpn_loss_cls
I0419 17:31:30.518774  5759 net.cpp:454] rpn_loss_cls <- rpn_cls_score_reshape
I0419 17:31:30.518781  5759 net.cpp:454] rpn_loss_cls <- rpn_labels
I0419 17:31:30.518791  5759 net.cpp:411] rpn_loss_cls -> rpn_cls_loss
…
           'RPN_PRE_NMS_TOP_N': 12000,
           'SCALES': [600],
           'SNAPSHOT_INFIX': 'stage1',
           'SNAPSHOT_ITERS': 10000,
           'USE_FLIPPED': True,
           'USE_PREFETCH': False},
 'USE_GPU_NMS': True}
Loaded dataset `voc_2007_trainval` for proposal generation
WARNING: Logging before InitGoogleLogging() is written to STDERR
I0419 23:42:09.175217  6511 net.cpp:49] Initializing net from parameters: 
name: "ZF"
input: "data"
input: "im_info"
state {
  phase: TEST
}
input_shape {
  dim: 1
  dim: 3
  dim: 224
  dim: 224
}
input_shape {
  dim: 1
  dim: 3
}
layer {
  name: "conv1"
  type: "Convolution"
  bottom: "data"
  top: "conv1"
  convolution_param {
    num_output: 96
    pad: 3
    kernel_size: 7
    stride: 2
  }
}
layer {
  name: "relu1"
  type: "ReLU"
  bottom: "conv1"
  top: "conv1"
}
layer {
  name: "norm1"
  type: "LRN"
  bottom: "conv1"
  top: "norm1"
  lrn_param {
    local_size: 3
    alpha: 5e-05
    beta: 0.75
    norm_region: WITHIN_CHANNEL
    engine: CAFFE
  }
}
layer {
  name: "pool1"
  type: "Pooling"
  bottom: "norm1"
  top: "pool1"
  pooling_param {
    pool: MAX
    kernel_size: 3
    stride: 2
    pad: 1
  }
}
layer {
  name: "conv2"
  type: "Convolution"
  bottom: "pool1"
  top: "conv2"
  convolution_param {
    num_output: 256
    pad: 2
    kernel_size: 5
    stride: 2
  }
}
layer {
  name: "relu2"
  type: "ReLU"
  bottom: "conv2"
  top: "conv2"
}
layer {
  name: "norm2"
  type: "LRN"
  bottom: "conv2"
  top: "norm2"
  lrn_param {
    local_size: 3
    alpha: 5e-05
    beta: 0.75
    norm_region: WITHIN_CHANNEL
    engine: CAFFE
  }
}
layer {
  name: "pool2"
  type: "Pooling"
  bottom: "norm2"
  top: "pool2"
  pooling_param {
    pool: MAX
    kernel_size: 3
    stride: 2
    pad: 1
  }
}
layer {
  name: "conv3"
  type: "Convolution"
  bottom: "pool2"
  top: "conv3"
  convolution_param {
    num_output: 384
    pad: 1
    kernel_size: 3
    stride: 1
  }
}
layer {
  name: "relu3"
  type: "ReLU"
  bottom: "conv3"
  top: "conv3"
}
layer {
  name: "conv4"
  type: "Convolution"
  bottom: "conv3"
  top: "conv4"
  convolution_param {
    num_output: 384
    pad: 1
    kernel_size: 3
    stride: 1
  }
}
layer {
  name: "relu4"
  type: "ReLU"
  bottom: "conv4"
  top: "conv4"
}
layer {
  name: "conv5"
  type: "Convolution"
  bottom: "conv4"
  top: "conv5"
  convolution_param {
    num_output: 256
    pad: 1
    kernel_size: 3
    stride: 1
  }
}
layer {
  name: "relu5"
  type: "ReLU"
  bottom: "conv5"
  top: "conv5"
}
layer {
  name: "rpn_conv1"
  type: "Convolution"
  bottom: "conv5"
  top: "rpn_conv1"
  convolution_param {
    num_output: 256
    pad: 1
    kernel_size: 3
    stride: 1
  }
}
layer {
  name: "rpn_relu1"
  type: "ReLU"
  bottom: "rpn_conv1"
  top: "rpn_conv1"
}
layer {
  name: "rpn_cls_score"
  type: "Convolution"
  bottom: "rpn_conv1"
  top: "rpn_cls_score"
  convolution_param {
    num_output: 18
    pad: 0
    kernel_size: 1
    stride: 1
  }
}
layer {
  name: "rpn_bbox_pred"
  type: "Convolution"
  bottom: "rpn_conv1"
  top: "rpn_bbox_pred"
  convolution_param {
    num_output: 36
    pad: 0
    kernel_size: 1
    stride: 1
  }
}
layer {
  name: "rpn_cls_score_reshape"
  type: "Reshape"
  bottom: "rpn_cls_score"
  top: "rpn_cls_score_reshape"
  reshape_param {
    shape {
      dim: 0
      dim: 2
      dim: -1
      dim: 0
    }
  }
}
layer {
  name: "rpn_cls_prob"
  type: "Softmax"
  bottom: "rpn_cls_score_reshape"
  top: "rpn_cls_prob"
}
layer {
  name: "rpn_cls_prob_reshape"
  type: "Reshape"
  bottom: "rpn_cls_prob"
  top: "rpn_cls_prob_reshape"
  reshape_param {
    shape {
      dim: 0
      dim: 18
      dim: -1
      dim: 0
    }
  }
}
layer {
  name: "proposal"
  type: "Python"
  bottom: "rpn_cls_prob_reshape"
  bottom: "rpn_bbox_pred"
  bottom: "im_info"
  top: "rois"
  top: "scores"
  python_param {
    module: "rpn.proposal_layer"
    layer: "ProposalLayer"
    param_str: "\'feat_stride\': 16"
  }
}
I0419 23:42:09.175354  6511 net.cpp:413] Input 0 -> data
I0419 23:42:09.190506  6511 net.cpp:413] Input 1 -> im_info
I0419 23:42:09.190556  6511 layer_factory.hpp:77] Creating layer conv1
I0419 23:42:09.190577  6511 net.cpp:106] Creating Layer conv1
I0419 23:42:09.190584  6511 net.cpp:454] conv1 <- data
I0419 23:42:09.190595  6511 net.cpp:411] conv1 -> conv1
I0419 23:42:09.191341  6511 net.cpp:150] Setting up conv1
I0419 23:42:09.191362  6511 net.cpp:157] Top shape: 1 96 112 112 (1204224)
I0419 23:42:09.191367  6511 net.cpp:165] Memory required for data: 4816896
I0419 23:42:09.191380  6511 layer_factory.hpp:77] Creating layer relu1
I0419 23:42:09.191395  6511 net.cpp:106] Creating Layer relu1
I0419 23:42:09.191397  6511 net.cpp:454] relu1 <- conv1
I0419 23:42:09.191406  6511 net.cpp:397] relu1 -> conv1 (in-place)
I0419 23:42:09.191416  6511 net.cpp:150] Setting up relu1
I0419 23:42:09.191423  6511 net.cpp:157] Top shape: 1 96 112 112 (1204224)
I0419 23:42:09.191426  6511 net.cpp:165] Memory required for data: 9633792
I0419 23:42:09.191429  6511 layer_factory.hpp:77] Creating layer norm1
I0419 23:42:09.191435  6511 net.cpp:106] Creating Layer norm1
I0419 23:42:09.191442  6511 net.cpp:454] norm1 <- conv1
I0419 23:42:09.191447  6511 net.cpp:411] norm1 -> norm1
I0419 23:42:09.191546  6511 net.cpp:150] Setting up norm1
I0419 23:42:09.191558  6511 net.cpp:157] Top shape: 1 96 112 112 (1204224)
I0419 23:42:09.191561  6511 net.cpp:165] Memory required for data: 14450688
I0419 23:42:09.191565  6511 layer_factory.hpp:77] Creating layer pool1
I0419 23:42:09.191570  6511 net.cpp:106] Creating Layer pool1
I0419 23:42:09.191571  6511 net.cpp:454] pool1 <- norm1
I0419 23:42:09.191577  6511 net.cpp:411] pool1 -> pool1
I0419 23:42:09.191607  6511 net.cpp:150] Setting up pool1
I0419 23:42:09.191617  6511 net.cpp:157] Top shape: 1 96 57 57 (311904)
I0419 23:42:09.191619  6511 net.cpp:165] Memory required for data: 15698304
I0419 23:42:09.191622  6511 layer_factory.hpp:77] Creating layer conv2
I0419 23:42:09.191629  6511 net.cpp:106] Creating Layer conv2
I0419 23:42:09.191633  6511 net.cpp:454] conv2 <- pool1
I0419 23:42:09.191637  6511 net.cpp:411] conv2 -> conv2
I0419 23:42:09.193812  6511 net.cpp:150] Setting up conv2
I0419 23:42:09.193830  6511 net.cpp:157] Top shape: 1 256 29 29 (215296)
I0419 23:42:09.193832  6511 net.cpp:165] Memory required for data: 16559488
I0419 23:42:09.193843  6511 layer_factory.hpp:77] Creating layer relu2
I0419 23:42:09.193850  6511 net.cpp:106] Creating Layer relu2
I0419 23:42:09.193853  6511 net.cpp:454] relu2 <- conv2
I0419 23:42:09.193859  6511 net.cpp:397] relu2 -> conv2 (in-place)
I0419 23:42:09.193871  6511 net.cpp:150] Setting up relu2
I0419 23:42:09.193874  6511 net.cpp:157] Top shape: 1 256 29 29 (215296)
I0419 23:42:09.193878  6511 net.cpp:165] Memory required for data: 17420672
I0419 23:42:09.193881  6511 layer_factory.hpp:77] Creating layer norm2
I0419 23:42:09.193886  6511 net.cpp:106] Creating Layer norm2
I0419 23:42:09.193889  6511 net.cpp:454] norm2 <- conv2
I0419 23:42:09.193894  6511 net.cpp:411] norm2 -> norm2
I0419 23:42:09.193974  6511 net.cpp:150] Setting up norm2
I0419 23:42:09.193984  6511 net.cpp:157] Top shape: 1 256 29 29 (215296)
I0419 23:42:09.193986  6511 net.cpp:165] Memory required for data: 18281856
I0419 23:42:09.193990  6511 layer_factory.hpp:77] Creating layer pool2
I0419 23:42:09.193994  6511 net.cpp:106] Creating Layer pool2
I0419 23:42:09.193998  6511 net.cpp:454] pool2 <- norm2
I0419 23:42:09.194002  6511 net.cpp:411] pool2 -> pool2
I0419 23:42:09.194031  6511 net.cpp:150] Setting up pool2
I0419 23:42:09.194039  6511 net.cpp:157] Top shape: 1 256 15 15 (57600)
I0419 23:42:09.194041  6511 net.cpp:165] Memory required for data: 18512256
I0419 23:42:09.194044  6511 layer_factory.hpp:77] Creating layer conv3
I0419 23:42:09.194052  6511 net.cpp:106] Creating Layer conv3
I0419 23:42:09.194059  6511 net.cpp:454] conv3 <- pool2
I0419 23:42:09.194063  6511 net.cpp:411] conv3 -> conv3
I0419 23:42:09.196358  6511 net.cpp:150] Setting up conv3
I0419 23:42:09.196375  6511 net.cpp:157] Top shape: 1 384 15 15 (86400)
I0419 23:42:09.196378  6511 net.cpp:165] Memory required for data: 18857856
I0419 23:42:09.196388  6511 layer_factory.hpp:77] Creating layer relu3
I0419 23:42:09.196396  6511 net.cpp:106] Creating Layer relu3
I0419 23:42:09.196400  6511 net.cpp:454] relu3 <- conv3
I0419 23:42:09.196404  6511 net.cpp:397] relu3 -> conv3 (in-place)
I0419 23:42:09.196411  6511 net.cpp:150] Setting up relu3
I0419 23:42:09.196415  6511 net.cpp:157] Top shape: 1 384 15 15 (86400)
I0419 23:42:09.196419  6511 net.cpp:165] Memory required for data: 19203456
I0419 23:42:09.196421  6511 layer_factory.hpp:77] Creating layer conv4
I0419 23:42:09.196429  6511 net.cpp:106] Creating Layer conv4
I0419 23:42:09.196435  6511 net.cpp:454] conv4 <- conv3
I0419 23:42:09.196441  6511 net.cpp:411] conv4 -> conv4
I0419 23:42:09.199743  6511 net.cpp:150] Setting up conv4
I0419 23:42:09.199760  6511 net.cpp:157] Top shape: 1 384 15 15 (86400)
I0419 23:42:09.199764  6511 net.cpp:165] Memory required for data: 19549056
I0419 23:42:09.199769  6511 layer_factory.hpp:77] Creating layer relu4
I0419 23:42:09.199776  6511 net.cpp:106] Creating Layer relu4
I0419 23:42:09.199779  6511 net.cpp:454] relu4 <- conv4
I0419 23:42:09.199785  6511 net.cpp:397] relu4 -> conv4 (in-place)
I0419 23:42:09.199795  6511 net.cpp:150] Setting up relu4
I0419 23:42:09.199800  6511 net.cpp:157] Top shape: 1 384 15 15 (86400)
I0419 23:42:09.199802  6511 net.cpp:165] Memory required for data: 19894656
I0419 23:42:09.199805  6511 layer_factory.hpp:77] Creating layer conv5
I0419 23:42:09.199810  6511 net.cpp:106] Creating Layer conv5
I0419 23:42:09.199815  6511 net.cpp:454] conv5 <- conv4
I0419 23:42:09.199822  6511 net.cpp:411] conv5 -> conv5
I0419 23:42:09.202092  6511 net.cpp:150] Setting up conv5
I0419 23:42:09.202108  6511 net.cpp:157] Top shape: 1 256 15 15 (57600)
I0419 23:42:09.202111  6511 net.cpp:165] Memory required for data: 20125056
I0419 23:42:09.202121  6511 layer_factory.hpp:77] Creating layer relu5
I0419 23:42:09.202129  6511 net.cpp:106] Creating Layer relu5
I0419 23:42:09.202131  6511 net.cpp:454] relu5 <- conv5
I0419 23:42:09.202139  6511 net.cpp:397] relu5 -> conv5 (in-place)
I0419 23:42:09.202149  6511 net.cpp:150] Setting up relu5
I0419 23:42:09.202153  6511 net.cpp:157] Top shape: 1 256 15 15 (57600)
I0419 23:42:09.202155  6511 net.cpp:165] Memory required for data: 20355456
I0419 23:42:09.202160  6511 layer_factory.hpp:77] Creating layer rpn_conv1
I0419 23:42:09.202165  6511 net.cpp:106] Creating Layer rpn_conv1
I0419 23:42:09.202170  6511 net.cpp:454] rpn_conv1 <- conv5
I0419 23:42:09.202177  6511 net.cpp:411] rpn_conv1 -> rpn_conv1
I0419 23:42:09.203775  6511 net.cpp:150] Setting up rpn_conv1
I0419 23:42:09.203793  6511 net.cpp:157] Top shape: 1 256 15 15 (57600)
I0419 23:42:09.203795  6511 net.cpp:165] Memory required for data: 20585856
I0419 23:42:09.203801  6511 layer_factory.hpp:77] Creating layer rpn_relu1
I0419 23:42:09.203811  6511 net.cpp:106] Creating Layer rpn_relu1
I0419 23:42:09.203814  6511 net.cpp:454] rpn_relu1 <- rpn_conv1
I0419 23:42:09.203824  6511 net.cpp:397] rpn_relu1 -> rpn_conv1 (in-place)
I0419 23:42:09.203833  6511 net.cpp:150] Setting up rpn_relu1
I0419 23:42:09.203836  6511 net.cpp:157] Top shape: 1 256 15 15 (57600)
I0419 23:42:09.203840  6511 net.cpp:165] Memory required for data: 20816256
I0419 23:42:09.203845  6511 layer_factory.hpp:77] Creating layer rpn_conv1_rpn_relu1_0_split
I0419 23:42:09.203853  6511 net.cpp:106] Creating Layer rpn_conv1_rpn_relu1_0_split
I0419 23:42:09.203860  6511 net.cpp:454] rpn_conv1_rpn_relu1_0_split <- rpn_conv1
I0419 23:42:09.203866  6511 net.cpp:411] rpn_conv1_rpn_relu1_0_split -> rpn_conv1_rpn_relu1_0_split_0
I0419 23:42:09.203871  6511 net.cpp:411] rpn_conv1_rpn_relu1_0_split -> rpn_conv1_rpn_relu1_0_split_1
I0419 23:42:09.203900  6511 net.cpp:150] Setting up rpn_conv1_rpn_relu1_0_split
I0419 23:42:09.203912  6511 net.cpp:157] Top shape: 1 256 15 15 (57600)
I0419 23:42:09.203915  6511 net.cpp:157] Top shape: 1 256 15 15 (57600)
I0419 23:42:09.203919  6511 net.cpp:165] Memory required for data: 21277056
I0419 23:42:09.203922  6511 layer_factory.hpp:77] Creating layer rpn_cls_score
I0419 23:42:09.203928  6511 net.cpp:106] Creating Layer rpn_cls_score
I0419 23:42:09.203935  6511 net.cpp:454] rpn_cls_score <- rpn_conv1_rpn_relu1_0_split_0
I0419 23:42:09.203941  6511 net.cpp:411] rpn_cls_score -> rpn_cls_score
I0419 23:42:09.204113  6511 net.cpp:150] Setting up rpn_cls_score
I0419 23:42:09.204123  6511 net.cpp:157] Top shape: 1 18 15 15 (4050)
I0419 23:42:09.204124  6511 net.cpp:165] Memory required for data: 21293256
I0419 23:42:09.204130  6511 layer_factory.hpp:77] Creating layer rpn_bbox_pred
I0419 23:42:09.204140  6511 net.cpp:106] Creating Layer rpn_bbox_pred
I0419 23:42:09.204144  6511 net.cpp:454] rpn_bbox_pred <- rpn_conv1_rpn_relu1_0_split_1
I0419 23:42:09.204149  6511 net.cpp:411] rpn_bbox_pred -> rpn_bbox_pred
I0419 23:42:09.204332  6511 net.cpp:150] Setting up rpn_bbox_pred
I0419 23:42:09.204344  6511 net.cpp:157] Top shape: 1 36 15 15 (8100)
I0419 23:42:09.204346  6511 net.cpp:165] Memory required for data: 21325656
I0419 23:42:09.204351  6511 layer_factory.hpp:77] Creating layer rpn_cls_score_reshape
I0419 23:42:09.204358  6511 net.cpp:106] Creating Layer rpn_cls_score_reshape
I0419 23:42:09.204362  6511 net.cpp:454] rpn_cls_score_reshape <- rpn_cls_score
I0419 23:42:09.204370  6511 net.cpp:411] rpn_cls_score_reshape -> rpn_cls_score_reshape
I0419 23:42:09.204398  6511 net.cpp:150] Setting up rpn_cls_score_reshape
I0419 23:42:09.204407  6511 net.cpp:157] Top shape: 1 2 135 15 (4050)
I0419 23:42:09.204409  6511 net.cpp:165] Memory required for data: 21341856
I0419 23:42:09.204412  6511 layer_factory.hpp:77] Creating layer rpn_cls_prob
I0419 23:42:09.204419  6511 net.cpp:106] Creating Layer rpn_cls_prob
I0419 23:42:09.204422  6511 net.cpp:454] rpn_cls_prob <- rpn_cls_score_reshape
I0419 23:42:09.204428  6511 net.cpp:411] rpn_cls_prob -> rpn_cls_prob
I0419 23:42:09.204478  6511 net.cpp:150] Setting up rpn_cls_prob
I0419 23:42:09.204488  6511 net.cpp:157] Top shape: 1 2 135 15 (4050)
I0419 23:42:09.204490  6511 net.cpp:165] Memory required for data: 21358056
I0419 23:42:09.204493  6511 layer_factory.hpp:77] Creating layer rpn_cls_prob_reshape
I0419 23:42:09.204499  6511 net.cpp:106] Creating Layer rpn_cls_prob_reshape
I0419 23:42:09.204502  6511 net.cpp:454] rpn_cls_prob_reshape <- rpn_cls_prob
I0419 23:42:09.204509  6511 net.cpp:411] rpn_cls_prob_reshape -> rpn_cls_prob_reshape
I0419 23:42:09.204532  6511 net.cpp:150] Setting up rpn_cls_prob_reshape
I0419 23:42:09.204541  6511 net.cpp:157] Top shape: 1 18 15 15 (4050)
I0419 23:42:09.204543  6511 net.cpp:165] Memory required for data: 21374256
I0419 23:42:09.204546  6511 layer_factory.hpp:77] Creating layer proposal
I0419 23:42:09.206077  6511 net.cpp:106] Creating Layer proposal
I0419 23:42:09.206096  6511 net.cpp:454] proposal <- rpn_cls_prob_reshape
I0419 23:42:09.206101  6511 net.cpp:454] proposal <- rpn_bbox_pred
I0419 23:42:09.206106  6511 net.cpp:454] proposal <- im_info
I0419 23:42:09.206113  6511 net.cpp:411] proposal -> rois
I0419 23:42:09.206125  6511 net.cpp:411] proposal -> scores
I0419 23:42:09.207461  6511 net.cpp:150] Setting up proposal
I0419 23:42:09.207484  6511 net.cpp:157] Top shape: 1 5 (5)
I0419 23:42:09.207487  6511 net.cpp:157] Top shape: 1 1 1 1 (1)
I0419 23:42:09.207490  6511 net.cpp:165] Memory required for data: 21374280
I0419 23:42:09.207495  6511 net.cpp:228] proposal does not need backward computation.
I0419 23:42:09.207500  6511 net.cpp:228] rpn_cls_prob_reshape does not need backward computation.
I0419 23:42:09.207505  6511 net.cpp:228] rpn_cls_prob does not need backward computation.
I0419 23:42:09.207507  6511 net.cpp:228] rpn_cls_score_reshape does not need backward computation.
…
average_loss: 100
I0419 23:45:25.500293  6561 solver.cpp:81] Creating training net from train_net file: models/pascal_voc/ZF/faster_rcnn_alt_opt/stage1_fast_rcnn_train.pt
I0419 23:45:25.501112  6561 net.cpp:49] Initializing net from parameters: 
name: "ZF"
state {
  phase: TRAIN
}
layer {
  name: "data"
  type: "Python"
  top: "data"
  top: "rois"
  top: "labels"
  top: "bbox_targets"
  top: "bbox_inside_weights"
  top: "bbox_outside_weights"
  python_param {
    module: "roi_data_layer.layer"
    layer: "RoIDataLayer"
    param_str: "\'num_classes\': 44"
  }
}
layer {
  name: "conv1"
  type: "Convolution"
  bottom: "data"
  top: "conv1"
  param {
    lr_mult: 1
  }
  param {
    lr_mult: 2
  }
  convolution_param {
    num_output: 96
    pad: 3
    kernel_size: 7
    stride: 2
  }
}
layer {
  name: "relu1"
  type: "ReLU"
  bottom: "conv1"
  top: "conv1"
}
layer {
  name: "norm1"
  type: "LRN"
  bottom: "conv1"
  top: "norm1"
  lrn_param {
    local_size: 3
    alpha: 5e-05
    beta: 0.75
    norm_region: WITHIN_CHANNEL
    engine: CAFFE
  }
}
layer {
  name: "pool1"
  type: "Pooling"
  bottom: "norm1"
  top: "pool1"
  pooling_param {
    pool: MAX
    kernel_size: 3
    stride: 2
    pad: 1
  }
}
layer {
  name: "conv2"
  type: "Convolution"
  bottom: "pool1"
  top: "conv2"
  param {
    lr_mult: 1
  }
  param {
    lr_mult: 2
  }
  convolution_param {
    num_output: 256
    pad: 2
    kernel_size: 5
    stride: 2
  }
}
layer {
  name: "relu2"
  type: "ReLU"
  bottom: "conv2"
  top: "conv2"
}
layer {
  name: "norm2"
  type: "LRN"
  bottom: "conv2"
  top: "norm2"
  lrn_param {
    local_size: 3
    alpha: 5e-05
    beta: 0.75
    norm_region: WITHIN_CHANNEL
    engine: CAFFE
  }
}
layer {
  name: "pool2"
  type: "Pooling"
  bottom: "norm2"
  top: "pool2"
  pooling_param {
    pool: MAX
    kernel_size: 3
    stride: 2
    pad: 1
  }
}
layer {
  name: "conv3"
  type: "Convolution"
  bottom: "pool2"
  top: "conv3"
  param {
    lr_mult: 1
  }
  param {
    lr_mult: 2
  }
  convolution_param {
    num_output: 384
    pad: 1
    kernel_size: 3
    stride: 1
  }
}
layer {
  name: "relu3"
  type: "ReLU"
  bottom: "conv3"
  top: "conv3"
}
layer {
  name: "conv4"
  type: "Convolution"
  bottom: "conv3"
  top: "conv4"
  param {
    lr_mult: 1
  }
  param {
    lr_mult: 2
  }
  convolution_param {
    num_output: 384
    pad: 1
    kernel_size: 3
    stride: 1
  }
}
layer {
  name: "relu4"
  type: "ReLU"
  bottom: "conv4"
  top: "conv4"
}
layer {
  name: "conv5"
  type: "Convolution"
  bottom: "conv4"
  top: "conv5"
  param {
    lr_mult: 1
  }
  param {
    lr_mult: 2
  }
  convolution_param {
    num_output: 256
    pad: 1
    kernel_size: 3
    stride: 1
  }
}
layer {
  name: "relu5"
  type: "ReLU"
  bottom: "conv5"
  top: "conv5"
}
layer {
  name: "roi_pool_conv5"
  type: "ROIPooling"
  bottom: "conv5"
  bottom: "rois"
  top: "roi_pool_conv5"
  roi_pooling_param {
    pooled_h: 6
    pooled_w: 6
    spatial_scale: 0.0625
  }
}
layer {
  name: "fc6"
  type: "InnerProduct"
  bottom: "roi_pool_conv5"
  top: "fc6"
  param {
    lr_mult: 1
  }
  param {
    lr_mult: 2
  }
  inner_product_param {
    num_output: 4096
  }
}
layer {
  name: "relu6"
  type: "ReLU"
  bottom: "fc6"
  top: "fc6"
}
layer {
  name: "drop6"
  type: "Dropout"
  bottom: "fc6"
  top: "fc6"
  dropout_param {
    dropout_ratio: 0.5
    scale_train: false
  }
}
layer {
  name: "fc7"
  type: "InnerProduct"
  bottom: "fc6"
  top: "fc7"
  param {
    lr_mult: 1
  }
  param {
    lr_mult: 2
  }
  inner_product_param {
    num_output: 4096
  }
}
layer {
  name: "relu7"
  type: "ReLU"
  bottom: "fc7"
  top: "fc7"
}
layer {
  name: "drop7"
  type: "Dropout"
  bottom: "fc7"
  top: "fc7"
  dropout_param {
    dropout_ratio: 0.5
    scale_train: false
  }
}
layer {
  name: "cls_score"
  type: "InnerProduct"
  bottom: "fc7"
  top: "cls_score"
  param {
    lr_mult: 1
  }
  param {
    lr_mult: 2
  }
  inner_product_param {
    num_output: 44
    weight_filler {
      type: "gaussian"
      std: 0.01
    }
    bias_filler {
      type: "constant"
      value: 0
    }
  }
}
layer {
  name: "bbox_pred"
  type: "InnerProduct"
  bottom: "fc7"
  top: "bbox_pred"
  param {
    lr_mult: 1
  }
  param {
    lr_mult: 2
  }
  inner_product_param {
    num_output: 176
    weight_filler {
      type: "gaussian"
      std: 0.001
    }
    bias_filler {
      type: "constant"
      value: 0
    }
  }
}
layer {
  name: "loss_cls"
  type: "SoftmaxWithLoss"
  bottom: "cls_score"
  bottom: "labels"
  top: "cls_loss"
  loss_weight: 1
  propagate_down: true
  propagate_down: false
  loss_param {
    ignore_label: -1
    normalize: true
  }
}
layer {
  name: "loss_bbox"
  type: "SmoothL1Loss"
  bottom: "bbox_pred"
  bottom: "bbox_targets"
  bottom: "bbox_inside_weights"
  bottom: "bbox_outside_weights"
  top: "bbox_loss"
  loss_weight: 1
}
layer {
  name: "rpn_conv1"
  type: "Convolution"
  bottom: "conv5"
  top: "rpn_conv1"
  param {
    lr_mult: 0
    decay_mult: 0
  }
  param {
    lr_mult: 0
    decay_mult: 0
  }
  convolution_param {
    num_output: 256
    pad: 1
    kernel_size: 3
    stride: 1
    weight_filler {
      type: "gaussian"
      std: 0.01
    }
    bias_filler {
      type: "constant"
      value: 0
    }
  }
}
layer {
  name: "rpn_relu1"
  type: "ReLU"
  bottom: "rpn_conv1"
  top: "rpn_conv1"
}
layer {
  name: "rpn_cls_score"
  type: "Convolution"
  bottom: "rpn_conv1"
  top: "rpn_cls_score"
  param {
    lr_mult: 0
    decay_mult: 0
  }
  param {
    lr_mult: 0
    decay_mult: 0
  }
  convolution_param {
    num_output: 18
    pad: 0
    kernel_size: 1
    stride: 1
    weight_filler {
      type: "gaussian"
      std: 0.01
    }
    bias_filler {
      type: "constant"
      value: 0
    }
  }
}
layer {
  name: "rpn_bbox_pred"
  type: "Convolution"
  bottom: "rpn_conv1"
  top: "rpn_bbox_pred"
  param {
    lr_mult: 0
    decay_mult: 0
  }
  param {
    lr_mult: 0
    decay_mult: 0
  }
  convolution_param {
    num_output: 36
    pad: 0
    kernel_size: 1
    stride: 1
    weight_filler {
      type: "gaussian"
      std: 0.01
    }
    bias_filler {
      type: "constant"
      value: 0
    }
  }
}
layer {
  name: "silence_rpn_cls_score"
  type: "Silence"
  bottom: "rpn_cls_score"
}
layer {
  name: "silence_rpn_bbox_pred"
  type: "Silence"
  bottom: "rpn_bbox_pred"
}
I0419 23:45:25.501302  6561 layer_factory.hpp:77] Creating layer data
I0419 23:45:25.502054  6561 net.cpp:106] Creating Layer data
I0419 23:45:25.502077  6561 net.cpp:411] data -> data
I0419 23:45:25.502099  6561 net.cpp:411] data -> rois
I0419 23:45:25.502116  6561 net.cpp:411] data -> labels
I0419 23:45:25.502125  6561 net.cpp:411] data -> bbox_targets
I0419 23:45:25.502135  6561 net.cpp:411] data -> bbox_inside_weights
I0419 23:45:25.502144  6561 net.cpp:411] data -> bbox_outside_weights
RoiDataLayer: name_to_top: {'bbox_inside_weights': 4, 'labels': 2, 'rois': 1, 'bbox_targets': 3, 'bbox_outside_weights': 5, 'data': 0}
I0419 23:45:25.573815  6561 net.cpp:150] Setting up data
I0419 23:45:25.573840  6561 net.cpp:157] Top shape: 2 3 600 1000 (3600000)
I0419 23:45:25.573850  6561 net.cpp:157] Top shape: 1 5 (5)
I0419 23:45:25.573856  6561 net.cpp:157] Top shape: 1 (1)
I0419 23:45:25.573863  6561 net.cpp:157] Top shape: 1 176 (176)
I0419 23:45:25.573869  6561 net.cpp:157] Top shape: 1 176 (176)
I0419 23:45:25.573874  6561 net.cpp:157] Top shape: 1 176 (176)
I0419 23:45:25.573879  6561 net.cpp:165] Memory required for data: 14402136
I0419 23:45:25.573884  6561 layer_factory.hpp:77] Creating layer conv1
I0419 23:45:25.573904  6561 net.cpp:106] Creating Layer conv1
I0419 23:45:25.573915  6561 net.cpp:454] conv1 <- data
I0419 23:45:25.573928  6561 net.cpp:411] conv1 -> conv1
I0419 23:45:25.575287  6561 net.cpp:150] Setting up conv1
I0419 23:45:25.575307  6561 net.cpp:157] Top shape: 2 96 300 500 (28800000)
I0419 23:45:25.575312  6561 net.cpp:165] Memory required for data: 129602136
I0419 23:45:25.575330  6561 layer_factory.hpp:77] Creating layer relu1
I0419 23:45:25.575348  6561 net.cpp:106] Creating Layer relu1
I0419 23:45:25.575359  6561 net.cpp:454] relu1 <- conv1
I0419 23:45:25.575367  6561 net.cpp:397] relu1 -> conv1 (in-place)
I0419 23:45:25.575381  6561 net.cpp:150] Setting up relu1
I0419 23:45:25.575392  6561 net.cpp:157] Top shape: 2 96 300 500 (28800000)
I0419 23:45:25.575397  6561 net.cpp:165] Memory required for data: 244802136
I0419 23:45:25.575403  6561 layer_factory.hpp:77] Creating layer norm1
I0419 23:45:25.575415  6561 net.cpp:106] Creating Layer norm1
I0419 23:45:25.575424  6561 net.cpp:454] norm1 <- conv1
I0419 23:45:25.575431  6561 net.cpp:411] norm1 -> norm1
I0419 23:45:25.575546  6561 net.cpp:150] Setting up norm1
I0419 23:45:25.575559  6561 net.cpp:157] Top shape: 2 96 300 500 (28800000)
I0419 23:45:25.575563  6561 net.cpp:165] Memory required for data: 360002136
I0419 23:45:25.575568  6561 layer_factory.hpp:77] Creating layer pool1
I0419 23:45:25.575577  6561 net.cpp:106] Creating Layer pool1
I0419 23:45:25.575582  6561 net.cpp:454] pool1 <- norm1
I0419 23:45:25.575595  6561 net.cpp:411] pool1 -> pool1
I0419 23:45:25.575642  6561 net.cpp:150] Setting up pool1
I0419 23:45:25.575654  6561 net.cpp:157] Top shape: 2 96 151 251 (7276992)
I0419 23:45:25.575659  6561 net.cpp:165] Memory required for data: 389110104
I0419 23:45:25.575664  6561 layer_factory.hpp:77] Creating layer conv2
I0419 23:45:25.575676  6561 net.cpp:106] Creating Layer conv2
I0419 23:45:25.575685  6561 net.cpp:454] conv2 <- pool1
I0419 23:45:25.575693  6561 net.cpp:411] conv2 -> conv2
I0419 23:45:25.577349  6561 net.cpp:150] Setting up conv2
I0419 23:45:25.577368  6561 net.cpp:157] Top shape: 2 256 76 126 (4902912)
I0419 23:45:25.577373  6561 net.cpp:165] Memory required for data: 408721752
I0419 23:45:25.577385  6561 layer_factory.hpp:77] Creating layer relu2
I0419 23:45:25.577395  6561 net.cpp:106] Creating Layer relu2
I0419 23:45:25.577400  6561 net.cpp:454] relu2 <- conv2
I0419 23:45:25.577409  6561 net.cpp:397] relu2 -> conv2 (in-place)
I0419 23:45:25.577417  6561 net.cpp:150] Setting up relu2
I0419 23:45:25.577428  6561 net.cpp:157] Top shape: 2 256 76 126 (4902912)
I0419 23:45:25.577433  6561 net.cpp:165] Memory required for data: 428333400
I0419 23:45:25.577437  6561 layer_factory.hpp:77] Creating layer norm2
I0419 23:45:25.577450  6561 net.cpp:106] Creating Layer norm2
I0419 23:45:25.577458  6561 net.cpp:454] norm2 <- conv2
I0419 23:45:25.577468  6561 net.cpp:411] norm2 -> norm2
I0419 23:45:25.577554  6561 net.cpp:150] Setting up norm2
I0419 23:45:25.577566  6561 net.cpp:157] Top shape: 2 256 76 126 (4902912)
I0419 23:45:25.577570  6561 net.cpp:165] Memory required for data: 447945048
I0419 23:45:25.577575  6561 layer_factory.hpp:77] Creating layer pool2
I0419 23:45:25.577586  6561 net.cpp:106] Creating Layer pool2
I0419 23:45:25.577595  6561 net.cpp:454] pool2 <- norm2
I0419 23:45:25.577602  6561 net.cpp:411] pool2 -> pool2
I0419 23:45:25.577643  6561 net.cpp:150] Setting up pool2
I0419 23:45:25.577656  6561 net.cpp:157] Top shape: 2 256 39 64 (1277952)
I0419 23:45:25.577659  6561 net.cpp:165] Memory required for data: 453056856
I0419 23:45:25.577663  6561 layer_factory.hpp:77] Creating layer conv3
I0419 23:45:25.577677  6561 net.cpp:106] Creating Layer conv3
I0419 23:45:25.577685  6561 net.cpp:454] conv3 <- pool2
I0419 23:45:25.577693  6561 net.cpp:411] conv3 -> conv3
I0419 23:45:25.580988  6561 net.cpp:150] Setting up conv3
I0419 23:45:25.581009  6561 net.cpp:157] Top shape: 2 384 39 64 (1916928)
I0419 23:45:25.581014  6561 net.cpp:165] Memory required for data: 460724568
I0419 23:45:25.581027  6561 layer_factory.hpp:77] Creating layer relu3
I0419 23:45:25.581037  6561 net.cpp:106] Creating Layer relu3
I0419 23:45:25.581043  6561 net.cpp:454] relu3 <- conv3
I0419 23:45:25.581054  6561 net.cpp:397] relu3 -> conv3 (in-place)
I0419 23:45:25.581064  6561 net.cpp:150] Setting up relu3
I0419 23:45:25.581073  6561 net.cpp:157] Top shape: 2 384 39 64 (1916928)
I0419 23:45:25.581076  6561 net.cpp:165] Memory required for data: 468392280
I0419 23:45:25.581084  6561 layer_factory.hpp:77] Creating layer conv4
I0419 23:45:25.581094  6561 net.cpp:106] Creating Layer conv4
I0419 23:45:25.581102  6561 net.cpp:454] conv4 <- conv3
I0419 23:45:25.581113  6561 net.cpp:411] conv4 -> conv4
I0419 23:45:25.584421  6561 net.cpp:150] Setting up conv4
I0419 23:45:25.584440  6561 net.cpp:157] Top shape: 2 384 39 64 (1916928)
I0419 23:45:25.584445  6561 net.cpp:165] Memory required for data: 476059992
I0419 23:45:25.584455  6561 layer_factory.hpp:77] Creating layer relu4
I0419 23:45:25.584465  6561 net.cpp:106] Creating Layer relu4
I0419 23:45:25.584472  6561 net.cpp:454] relu4 <- conv4
I0419 23:45:25.584481  6561 net.cpp:397] relu4 -> conv4 (in-place)
I0419 23:45:25.584489  6561 net.cpp:150] Setting up relu4
I0419 23:45:25.584497  6561 net.cpp:157] Top shape: 2 384 39 64 (1916928)
I0419 23:45:25.584503  6561 net.cpp:165] Memory required for data: 483727704
I0419 23:45:25.584508  6561 layer_factory.hpp:77] Creating layer conv5
I0419 23:45:25.584522  6561 net.cpp:106] Creating Layer conv5
I0419 23:45:25.584532  6561 net.cpp:454] conv5 <- conv4
I0419 23:45:25.584539  6561 net.cpp:411] conv5 -> conv5
I0419 23:45:25.586817  6561 net.cpp:150] Setting up conv5
I0419 23:45:25.586835  6561 net.cpp:157] Top shape: 2 256 39 64 (1277952)
I0419 23:45:25.586840  6561 net.cpp:165] Memory required for data: 488839512
I0419 23:45:25.586853  6561 layer_factory.hpp:77] Creating layer relu5
I0419 23:45:25.586868  6561 net.cpp:106] Creating Layer relu5
I0419 23:45:25.586875  6561 net.cpp:454] relu5 <- conv5
I0419 23:45:25.586882  6561 net.cpp:397] relu5 -> conv5 (in-place)
I0419 23:45:25.586896  6561 net.cpp:150] Setting up relu5
I0419 23:45:25.586904  6561 net.cpp:157] Top shape: 2 256 39 64 (1277952)
I0419 23:45:25.586910  6561 net.cpp:165] Memory required for data: 493951320
I0419 23:45:25.586915  6561 layer_factory.hpp:77] Creating layer conv5_relu5_0_split
I0419 23:45:25.586930  6561 net.cpp:106] Creating Layer conv5_relu5_0_split
I0419 23:45:25.586940  6561 net.cpp:454] conv5_relu5_0_split <- conv5
I0419 23:45:25.586947  6561 net.cpp:411] conv5_relu5_0_split -> conv5_relu5_0_split_0
I0419 23:45:25.586956  6561 net.cpp:411] conv5_relu5_0_split -> conv5_relu5_0_split_1
I0419 23:45:25.587003  6561 net.cpp:150] Setting up conv5_relu5_0_split
I0419 23:45:25.587015  6561 net.cpp:157] Top shape: 2 256 39 64 (1277952)
I0419 23:45:25.587021  6561 net.cpp:157] Top shape: 2 256 39 64 (1277952)
I0419 23:45:25.587026  6561 net.cpp:165] Memory required for data: 504174936
I0419 23:45:25.587031  6561 layer_factory.hpp:77] Creating layer roi_pool_conv5
I0419 23:45:25.587044  6561 net.cpp:106] Creating Layer roi_pool_conv5
I0419 23:45:25.587054  6561 net.cpp:454] roi_pool_conv5 <- conv5_relu5_0_split_0
I0419 23:45:25.587059  6561 net.cpp:454] roi_pool_conv5 <- rois
I0419 23:45:25.587069  6561 net.cpp:411] roi_pool_conv5 -> roi_pool_conv5
I0419 23:45:25.587086  6561 roi_pooling_layer.cpp:30] Spatial scale: 0.0625
I0419 23:45:25.587144  6561 net.cpp:150] Setting up roi_pool_conv5
I0419 23:45:25.587155  6561 net.cpp:157] Top shape: 1 256 6 6 (9216)
I0419 23:45:25.587160  6561 net.cpp:165] Memory required for data: 504211800
I0419 23:45:25.587165  6561 layer_factory.hpp:77] Creating layer fc6
I0419 23:45:25.587180  6561 net.cpp:106] Creating Layer fc6
I0419 23:45:25.587189  6561 net.cpp:454] fc6 <- roi_pool_conv5
I0419 23:45:25.587199  6561 net.cpp:411] fc6 -> fc6
I0419 23:45:25.684929  6561 net.cpp:150] Setting up fc6
I0419 23:45:25.684970  6561 net.cpp:157] Top shape: 1 4096 (4096)
I0419 23:45:25.684976  6561 net.cpp:165] Memory required for data: 504228184
I0419 23:45:25.684989  6561 layer_factory.hpp:77] Creating layer relu6
I0419 23:45:25.685003  6561 net.cpp:106] Creating Layer relu6
I0419 23:45:25.685021  6561 net.cpp:454] relu6 <- fc6
I0419 23:45:25.685034  6561 net.cpp:397] relu6 -> fc6 (in-place)
I0419 23:45:25.685052  6561 net.cpp:150] Setting up relu6
I0419 23:45:25.685060  6561 net.cpp:157] Top shape: 1 4096 (4096)
I0419 23:45:25.685065  6561 net.cpp:165] Memory required for data: 504244568
I0419 23:45:25.685070  6561 layer_factory.hpp:77] Creating layer drop6
I0419 23:45:25.685086  6561 net.cpp:106] Creating Layer drop6
I0419 23:45:25.685094  6561 net.cpp:454] drop6 <- fc6
I0419 23:45:25.685101  6561 net.cpp:397] drop6 -> fc6 (in-place)
I0419 23:45:25.685137  6561 net.cpp:150] Setting up drop6
I0419 23:45:25.685148  6561 net.cpp:157] Top shape: 1 4096 (4096)
I0419 23:45:25.685153  6561 net.cpp:165] Memory required for data: 504260952
I0419 23:45:25.685158  6561 layer_factory.hpp:77] Creating layer fc7
I0419 23:45:25.685168  6561 net.cpp:106] Creating Layer fc7
I0419 23:45:25.685176  6561 net.cpp:454] fc7 <- fc6
I0419 23:45:25.685189  6561 net.cpp:411] fc7 -> fc7
I0419 23:45:25.729435  6561 net.cpp:150] Setting up fc7
I0419 23:45:25.729472  6561 net.cpp:157] Top shape: 1 4096 (4096)
I0419 23:45:25.729478  6561 net.cpp:165] Memory required for data: 504277336
I0419 23:45:25.729490  6561 layer_factory.hpp:77] Creating layer relu7
I0419 23:45:25.729506  6561 net.cpp:106] Creating Layer relu7
I0419 23:45:25.729513  6561 net.cpp:454] relu7 <- fc7
I0419 23:45:25.729529  6561 net.cpp:397] relu7 -> fc7 (in-place)
I0419 23:45:25.729542  6561 net.cpp:150] Setting up relu7
I0419 23:45:25.729553  6561 net.cpp:157] Top shape: 1 4096 (4096)
I0419 23:45:25.729558  6561 net.cpp:165] Memory required for data: 504293720
I0419 23:45:25.729563  6561 layer_factory.hpp:77] Creating layer drop7
I0419 23:45:25.729576  6561 net.cpp:106] Creating Layer drop7
I0419 23:45:25.729584  6561 net.cpp:454] drop7 <- fc7
I0419 23:45:25.729598  6561 net.cpp:397] drop7 -> fc7 (in-place)
I0419 23:45:25.729635  6561 net.cpp:150] Setting up drop7
I0419 23:45:25.729645  6561 net.cpp:157] Top shape: 1 4096 (4096)
I0419 23:45:25.729653  6561 net.cpp:165] Memory required for data: 504310104
I0419 23:45:25.729658  6561 layer_factory.hpp:77] Creating layer fc7_drop7_0_split
I0419 23:45:25.729668  6561 net.cpp:106] Creating Layer fc7_drop7_0_split
I0419 23:45:25.729672  6561 net.cpp:454] fc7_drop7_0_split <- fc7
I0419 23:45:25.729681  6561 net.cpp:411] fc7_drop7_0_split -> fc7_drop7_0_split_0
I0419 23:45:25.729689  6561 net.cpp:411] fc7_drop7_0_split -> fc7_drop7_0_split_1
I0419 23:45:25.729739  6561 net.cpp:150] Setting up fc7_drop7_0_split
I0419 23:45:25.729751  6561 net.cpp:157] Top shape: 1 4096 (4096)
I0419 23:45:25.729756  6561 net.cpp:157] Top shape: 1 4096 (4096)
I0419 23:45:25.729760  6561 net.cpp:165] Memory required for data: 504342872
I0419 23:45:25.729765  6561 layer_factory.hpp:77] Creating layer cls_score
I0419 23:45:25.729779  6561 net.cpp:106] Creating Layer cls_score
I0419 23:45:25.729789  6561 net.cpp:454] cls_score <- fc7_drop7_0_split_0
I0419 23:45:25.729800  6561 net.cpp:411] cls_score -> cls_score
I0419 23:45:25.735422  6561 net.cpp:150] Setting up cls_score
I0419 23:45:25.735440  6561 net.cpp:157] Top shape: 1 44 (44)
I0419 23:45:25.735445  6561 net.cpp:165] Memory required for data: 504343048
I0419 23:45:25.735455  6561 layer_factory.hpp:77] Creating layer bbox_pred
I0419 23:45:25.735465  6561 net.cpp:106] Creating Layer bbox_pred
I0419 23:45:25.735468  6561 net.cpp:454] bbox_pred <- fc7_drop7_0_split_1
I0419 23:45:25.735479  6561 net.cpp:411] bbox_pred -> bbox_pred
I0419 23:45:25.756321  6561 net.cpp:150] Setting up bbox_pred
I0419 23:45:25.756340  6561 net.cpp:157] Top shape: 1 176 (176)
I0419 23:45:25.756345  6561 net.cpp:165] Memory required for data: 504343752
I0419 23:45:25.756361  6561 layer_factory.hpp:77] Creating layer loss_cls
I0419 23:45:25.756374  6561 net.cpp:106] Creating Layer loss_cls
I0419 23:45:25.756386  6561 net.cpp:454] loss_cls <- cls_score
I0419 23:45:25.756393  6561 net.cpp:454] loss_cls <- labels
I0419 23:45:25.756407  6561 net.cpp:411] loss_cls -> cls_loss
…
I0419 23:45:25.756693  6561 net.cpp:150] Setting up loss_bbox
I0419 23:45:25.756705  6561 net.cpp:157] Top shape: (1)
I0419 23:45:25.756708  6561 net.cpp:160]     with loss weight 1
I0419 23:45:25.756718  6561 net.cpp:165] Memory required for data: 504343760
I0419 23:45:25.756724  6561 layer_factory.hpp:77] Creating layer rpn_conv1
I0419 23:45:25.756742  6561 net.cpp:106] Creating Layer rpn_conv1
I0419 23:45:25.756752  6561 net.cpp:454] rpn_conv1 <- conv5_relu5_0_split_1
I0419 23:45:25.756760  6561 net.cpp:411] rpn_conv1 -> rpn_conv1
I0419 23:45:25.773773  6561 net.cpp:150] Setting up rpn_conv1
I0419 23:45:25.773793  6561 net.cpp:157] Top shape: 2 256 39 64 (1277952)
I0419 23:45:25.773798  6561 net.cpp:165] Memory required for data: 509455568
I0419 23:45:25.773808  6561 layer_factory.hpp:77] Creating layer rpn_relu1
I0419 23:45:25.773818  6561 net.cpp:106] Creating Layer rpn_relu1
I0419 23:45:25.773829  6561 net.cpp:454] rpn_relu1 <- rpn_conv1
I0419 23:45:25.773838  6561 net.cpp:397] rpn_relu1 -> rpn_conv1 (in-place)
I0419 23:45:25.773846  6561 net.cpp:150] Setting up rpn_relu1
I0419 23:45:25.773854  6561 net.cpp:157] Top shape: 2 256 39 64 (1277952)
I0419 23:45:25.773859  6561 net.cpp:165] Memory required for data: 514567376
I0419 23:45:25.773864  6561 layer_factory.hpp:77] Creating layer rpn_conv1_rpn_relu1_0_split
I0419 23:45:25.773872  6561 net.cpp:106] Creating Layer rpn_conv1_rpn_relu1_0_split
I0419 23:45:25.773877  6561 net.cpp:454] rpn_conv1_rpn_relu1_0_split <- rpn_conv1
I0419 23:45:25.773886  6561 net.cpp:411] rpn_conv1_rpn_relu1_0_split -> rpn_conv1_rpn_relu1_0_split_0
I0419 23:45:25.773900  6561 net.cpp:411] rpn_conv1_rpn_relu1_0_split -> rpn_conv1_rpn_relu1_0_split_1
I0419 23:45:25.773939  6561 net.cpp:150] Setting up rpn_conv1_rpn_relu1_0_split
I0419 23:45:25.773952  6561 net.cpp:157] Top shape: 2 256 39 64 (1277952)
I0419 23:45:25.773958  6561 net.cpp:157] Top shape: 2 256 39 64 (1277952)
I0419 23:45:25.773967  6561 net.cpp:165] Memory required for data: 524790992
I0419 23:45:25.773972  6561 layer_factory.hpp:77] Creating layer rpn_cls_score
I0419 23:45:25.773988  6561 net.cpp:106] Creating Layer rpn_cls_score
I0419 23:45:25.773998  6561 net.cpp:454] rpn_cls_score <- rpn_conv1_rpn_relu1_0_split_0
I0419 23:45:25.774006  6561 net.cpp:411] rpn_cls_score -> rpn_cls_score
I0419 23:45:25.774349  6561 net.cpp:150] Setting up rpn_cls_score
I0419 23:45:25.774363  6561 net.cpp:157] Top shape: 2 18 39 64 (89856)
I0419 23:45:25.774368  6561 net.cpp:165] Memory required for data: 525150416
I0419 23:45:25.774375  6561 layer_factory.hpp:77] Creating layer rpn_bbox_pred
I0419 23:45:25.774399  6561 net.cpp:106] Creating Layer rpn_bbox_pred
I0419 23:45:25.774410  6561 net.cpp:454] rpn_bbox_pred <- rpn_conv1_rpn_relu1_0_split_1
I0419 23:45:25.774420  6561 net.cpp:411] rpn_bbox_pred -> rpn_bbox_pred
I0419 23:45:25.774874  6561 net.cpp:150] Setting up rpn_bbox_pred
I0419 23:45:25.774888  6561 net.cpp:157] Top shape: 2 36 39 64 (179712)
I0419 23:45:25.774893  6561 net.cpp:165] Memory required for data: 525869264
I0419 23:45:25.774900  6561 layer_factory.hpp:77] Creating layer silence_rpn_cls_score
I0419 23:45:25.774914  6561 net.cpp:106] Creating Layer silence_rpn_cls_score
I0419 23:45:25.774926  6561 net.cpp:454] silence_rpn_cls_score <- rpn_cls_score
I0419 23:45:25.774935  6561 net.cpp:150] Setting up silence_rpn_cls_score
…
